mel_rnn_model.pth (torch, 257483 bytes, 8 tensors)

rnn.weight_ih_l0 f4 [64, 862]
000000 64 c4 92 3b de dd 13 bd 9d 7b 34 3d 07 09 4f bb
       0.004478978 -0.03610026 0.0440632 -0.0031591074
000010 1b b0 8a 3c 30 bd 93 ba 1e 03 0a 3d 02 ce 85 bd
       0.016929677 -0.0011271592 0.03369438 -0.065334335
000020 07 a3 0b 3e de 05 d2 3d 31 1c 72 3c e5 f7 cf bc
       0.13636409 0.10255025 0.014777229 -0.02538676
000030 36 e3 e9 3d dc f6 0e 3e 79 73 c3 3c de 98 de 3c
       0.1142029 0.13961357 0.023858773 0.027172502
000040 9e 9b f4 3d 74 b2 e7 bd 70 12 bd bd 2c 75 6c bd
       0.11943744 -0.11313334 -0.09232032 -0.05772893
000050 55 69 75 bd 25 72 4c 3d 73 a3 ea bd 3e 82 c5 39
       -0.059914906 0.049913544 -0.11456957 0.00037671806
000060 2b 7d dc bd 11 eb af 3d e5 55 99 3d bb 87 43 3d
       -0.107660614 0.08589757 0.07487086 0.047736865
000070 c2 16 b8 3d e4 f4 fa 3d 23 6c d1 3a 35 fd c0 bd
       0.08988716 0.122537404 0.0015977662 -0.094232954
000080 18 a5 e1 3d 48 8d d1 bd b2 1b d0 3c 96 35 bf bd
       0.11017817 -0.102320254 0.025403831 -0.093363926
000090 b7 25 39 3d 87 9f 54 bd b8 69 90 38 12 34 b5 3d
       0.045201983 -0.05190995 6.886147e-05 0.08847822
0000a0 38 b6 89 bd 3e c6 14 bd 2c 05 9d 3c 88 b1 b9 3b
       -0.067242086 -0.03632187 0.019167505 0.0056669153
0000b0 40 b5 d0 3d 8b 6a 6c bd 67 39 64 bb 1a f1 dc 3d
       0.10190821 -0.057718795 -0.0034824254 0.10788174
0000c0 93 fd 9e bd 4a 86 8c 3d 1f 7b f7 3c 04 09 f7 bd
       -0.07763209 0.06861551 0.030210076 -0.120622665
0000d0 1c 17 5b 3d 54 d2 dd bd dc 01 12 3d 66 04 3d bd
       0.053488836 -0.108311325 0.035646304 -0.046146773
0000e0 ea 49 a7 bd 64 ef 01 3d 2f 97 89 3b 4c 79 b4 3d
       -0.08168395 0.03172244 0.0041989307 0.08812198
0000f0 50 f0 da 3d 52 10 dc 3d f5 c2 b7 bd 43 eb b9 bd
       0.10690367 0.107453 -0.08972732 -0.09078076
000100 43 50 a0 bd 48 17 3f bd a8 56 24 bd 20 9e 1a bc
       -0.07827809 -0.046653062 -0.040121704 -0.009437114
000110 a2 b1 4c bb 54 5d 19 bd 7c d1 6a bd f2 03 aa bd
       -0.0031233807 -0.03744252 -0.057328686 -0.08301534
000120 e2 9d f4 3d 34 be ea 3d 9e 02 e5 bd 0a da 7d bd
       0.11944176 0.114620596 -0.1118214 -0.061975516
000130 a5 d2 c9 3d 0e a6 92 3c bf 48 b4 bd f0 8d 75 3d
       0.098546304 0.017901447 -0.08802938 0.059949815
000140 8b e0 77 bb 42 79 56 3d 4d ff 4a 3d 9d 8a e3 bd
       -0.0037823047 0.052361734 0.04955988 -0.11110423
000150 e6 30 e7 3d db 0b 0b bd f7 78 f6 bd 4e ca 50 bd
       0.112886235 -0.033946853 -0.12034791 -0.050974183
000160 d4 51 df 3c b1 d8 e6 bc b5 7c 07 be bc c0 86 3d
       0.027260698 -0.028179498 -0.13231166 0.0657973
000170 17 08 ef 3d 37 18 0d bd c5 8f 58 3d 20 06 a2 3d
       0.11671465 -0.03444692 0.052871484 0.079113245
000180 67 47 14 3e b2 fd be bd 28 5d b8 bd b9 8e 2f bb
       0.14480363 -0.09325732 -0.09002143 -0.002678795
000190 c3 c3 a9 bc 3e 45 e1 3d 7e 69 b5 bd 1c c9 1f bc
       -0.02072323 0.10999535 -0.08858012 -0.009752538
0001a0 33 c6 53 bd 56 dc ac 3d ab c3 43 bd 55 b5 0c 3e
       -0.05170269 0.08440463 -0.047794025 0.13741048
0001b0 b4 b1 95 3d cc 4d dc bd 3a 0e 05 3e da 18 9a bd
       0.07309285 -0.10757026 0.12993708 -0.07524271
0001c0 98 1d da bc 00 86 70 3a 51 ce 7f bd 54 b3 97 3d
       -0.02662544 0.0009175241 -0.062452618 0.07407251
0001d0 b1 00 be 3d bb 08 93 bd f4 f7 6a bd 40 dc 8e 3d
       0.092774756 -0.071793996 -0.057365373 0.06975603
0001e0 2a 00 40 bd 9b 13 b4 3d 66 c3 3c bd cb 71 46 3d
       -0.046875156 0.08792802 -0.046084784 0.048448365
0001f0 73 f0 d7 3d b8 f7 f5 3d ee 15 4f 3c eb 31 55 bb
       0.10543909 0.12010139 0.012639506 -0.0032530974
000200 d0 18 af bd 60 54 aa 3d ab 77 81 bd 40 ab e1 bd
       -0.085496545 0.083168745 -0.06321653 -0.110189915
000210 3e 3a 3d 3d 49 e9 db 3d ed c7 f1 bc 08 dc c7 3d
       0.046198122 0.10737855 -0.029514277 0.097587645
000220 7f e3 d2 3c 36 39 3f 3d 70 f1 e6 bd fc 37 e1 3d
       0.025743244 0.04668542 -0.11276519 0.10997006
000230 66 aa 5a 3d 2d 6b e0 bd c7 b4 fe 3b 5a 73 c1 bd
       0.05338516 -0.10957942 0.007773015 -0.0944583
000240 fd dd 97 3d 52 93 72 bb 52 af 96 bd a3 2f c6 3d
       0.07415388 -0.003701408 -0.073576584 0.09677055
000250 d3 6f c6 3d 1c 9b f0 3d df 77 d7 bd b8 a8 0a bc
       0.096892975 0.11748335 -0.105209105 -0.008463077
000260 a0 5d cb 3d 58 c7 0b 3d 2e 46 18 bd 84 5d 60 bd
       0.09929967 0.034125656 -0.037176304 -0.054776683
000270 c5 86 d9 3d 0b ce 83 bd 52 e0 7f bd 2c 5a 00 ba
       0.106214084 -0.06435784 -0.062469788 -0.0004896249
000280 cd 0c 5d 3d b0 68 17 bd 32 d3 5d bb 68 9d 95 3b
       0.053967286 -0.036965072 -0.0033847806 0.0045658834
000290 4a 3f 6a 3d 20 02 ae 3d 65 61 1a 3d c2 6a 03 3c
       0.057189263 0.08496499 0.03769054 0.0080210585
0002a0 ff c7 0e bd 03 26 81 3d 41 a7 cb bd f8 01 24 bd
       -0.0348587 0.06306078 -0.099440105 -0.04004094
0002b0 b8 f3 df bd ec 7a 8e bd c8 f1 fd 3c ac 1e 08 be
       -0.109351575 -0.06957039 0.03099908 -0.1329295
0002c0 67 72 83 bd 74 55 b5 3c 4d 3e 41 bd 47 f1 b6 3d
       -0.06418305 0.022135474 -0.047178555 0.08932739
0002d0 ac cd f8 3b 0d 6c 25 bd 87 12 97 bd d6 90 c0 3c
       0.0075928774 -0.04038625 -0.07376581 0.023506563
0002e0 4b 08 f1 bc 22 f2 97 3d 87 e6 25 bd 1d 13 0c 3d
       -0.0294229 0.0741923 -0.04050305 0.034197915
0002f0 8e f4 98 bd e7 ba c8 bc 36 ae 6f bd e5 76 f1 bc
       -0.0746852 -0.024503184 -0.05851575 -0.029475639
000300 1b 70 a3 3d 4e e5 09 be ff 63 fc bd a8 38 a6 3d
       0.07980367 -0.13466379 -0.1232376 0.08116275
000310 e5 f8 ee bd 36 73 f6 3d 88 c1 10 bd 88 f0 de 3d
       -0.116685666 0.120336935 -0.035340816 0.108857214
000320 d5 8c ea 3d 2c 55 ec 3c b4 b3 b3 bc dd 88 e9 bd
       0.11452643 0.028849207 -0.021936275 -0.11403058
000330 b1 a5 df 3d 33 43 f4 bc 7c 53 a8 3d 96 7e c0 3a
       0.10920275 -0.0298172 0.082190484 0.0014686163
000340 e1 0d fa bd 68 90 ef 3d 72 34 36 3b 34 3e f9 bd
       -0.122096784 0.11697465 0.0027802256 -0.121700674
000350 bd 77 3e 3d 83 6c 89 3d ba 3b ef bd 28 7e b2 3d
       0.04650091 0.0671015 -0.11681314 0.08715469
000360 30 2c c8 3d ed 67 94 bc d1 c7 22 bb d7 eb 96 3d
       0.09774053 -0.018115962 -0.0024838338 0.07369202
000370 7f 20 a9 bd e8 40 cb 3d 4c 15 0b 3e 7f 39 e1 3d
       -0.08258151 0.09924489 0.13582343 0.10997295
000380 e6 b1 f7 bd c7 09 3b 3c f8 d0 a4 bd 77 56 7f bd
       -0.12094478 0.011415905 -0.0804767 -0.06233832
000390 a8 7a 20 3d 61 70 ab 3c b9 e3 87 bd 41 37 bd bd
       0.039179474 0.02092761 -0.066352315 -0.092390545
0003a0 05 a5 50 3d 3f a9 f8 3a 84 b0 0b 3e f1 a9 b3 3d
       0.050938625 0.0018971338 0.13641554 0.08772648
0003b0 89 36 a3 bd a0 03 c2 3d e2 52 bd bc 96 c8 de bd
       -0.07969386 0.09473348 -0.02311081 -0.108781025
0003c0 a7 6f d7 3c ba cd db 3b ac b2 0c be 0c 11 e4 3d
       0.026298357 0.006707874 -0.13740033 0.11136064
0003d0 76 62 61 bd 82 b1 8f 3d 18 a9 a2 bd 7c 6b 04 3e
       -0.05502554 0.07016279 -0.07942408 0.12931627
0003e0 a2 86 98 3d c4 be 83 3d 59 cc 6b 3d 95 dc d1 bb
       0.07447554 0.0643287 0.057567928 -0.0064044693
0003f0 ad 82 a1 bd 66 d9 33 bd 65 98 d3 3c 57 c4 a6 3c
       -0.078862526 -0.0439085 0.025829503 0.020357294

rnn.weight_hh_l0 f4 [64, 64]
000000 50 52 3d 3c e1 bc a9 bd 55 80 72 bd 80 c0 8a 3d
       0.011555269 -0.08287979 -0.05920442 0.06774998
000010 14 01 82 bd e3 72 4b 3d 02 45 fa bd ac be ce bd
       -0.06347862 0.04967011 -0.122201934 -0.100949615
000020 40 4c 41 3d b1 a6 e0 bd 59 01 94 bb 42 57 30 bb
       0.04719186 -0.10969294 -0.004516762 -0.0026907478
000030 02 1e 92 3d 08 bd d8 bd 60 8e 32 bc e9 05 90 3d
       0.0713463 -0.1058293 -0.010898203 0.07032377
000040 a4 42 4a 3c 78 09 23 3b 04 df 82 3c 15 65 7d 3d
       0.01234499 0.002487747 0.015975483 0.061863977
000050 11 73 aa 3c e1 55 29 bd ae 81 91 bd 32 78 91 bb
       0.020806821 -0.041341666 -0.071048126 -0.004439377
000060 4d f5 84 3d 60 d8 2a bc 62 11 9e bb 6d ed e3 3c
       0.064921 -0.010427564 -0.0048238495 0.027823174
000070 66 75 59 3d 9d 2b e6 bd 55 38 05 bd 2d 64 4a bc
       0.053090475 -0.11238787 -0.032524426 -0.012352985
000080 5c e7 6b 3d 13 03 17 bd 42 52 a9 bd f5 5d a0 3d
       0.05759369 -0.036868166 -0.082676426 0.07830421
000090 2a e3 b8 3d 4e 99 da 3d 21 e3 de 3d 82 2d 4b 3d
       0.09027703 0.10673772 0.10883165 0.049603947
0000a0 d6 5d 33 3c bf e0 e1 bd f2 55 e1 bd a1 c3 e8 3d
       0.010947665 -0.11029195 -0.11002721 0.11365438
0000b0 ae 21 3c bd e2 3f 51 3c 5f 54 ca 3d db bd 58 bb
       -0.045930557 0.0127715785 0.09879374 -0.0033072147
0000c0 f6 a3 92 3d 17 17 e0 bd cd 79 35 bc 68 9a 02 be
       0.07160179 -0.10941904 -0.011076403 -0.12754214
0000d0 7b d2 80 3d 5a 59 51 3d ef 0f b1 3d 5d c1 19 3d
       0.06290146 0.051110603 0.08645617 0.03753792
0000e0 0a d6 00 3d 6a 73 57 bd b5 33 03 be 30 2d 82 bd
       0.031454124 -0.0526003 -0.12812693 -0.06356275
0000f0 6b 75 c8 ba 14 d8 f2 3d 5a e3 6d 3d c7 f9 cb 3c
       -0.0015293782 0.1185762 0.058078147 0.024899377
000100 4d 0f a1 3d ae 65 7f bd 79 da 22 3c 6e 40 0d bd
       0.078642465 -0.06235283 0.009939783 -0.034485273
000110 21 02 53 bb b8 5c d7 bd 0f 88 bd bd 40 de a3 bd
       -0.0032197314 -0.105157316 -0.09254467 -0.08001375
000120 89 f5 ca bd 66 87 08 3e de 38 df 3d fe 03 d3 3d
       -0.09910113 0.133329 0.108995184 0.10303496
000130 4a c0 c4 3d 40 f5 fc 3a 42 c8 ff 3c 5e 5c 87 3d
       0.09606989 0.0019299164 0.03122342 0.066094145
000140 04 9f 18 bd 3b 2e 5c bd 2b 71 b0 3d 1b 9c 90 3d
       -0.037261024 -0.053755026 0.08615335 0.07061025
000150 c2 a4 a1 3d 1b b6 e8 3d 0d c0 83 3d f1 4c cf 3d
       0.07892753 0.11362859 0.06433115 0.10122097
000160 f2 7f dc bd fe 41 ff bd f7 80 dc 3d 3b 30 ee 3c
       -0.10766591 -0.12463759 0.107667856 0.029075732
000170 72 3c a1 bd fa b3 cc bd fa 88 91 bd b6 a7 eb 3d
       -0.07872857 -0.09995265 -0.07106204 0.11506598
000180 a3 38 af 3d 52 d2 b2 3d c9 c2 c6 3d 36 40 20 ba
       0.085557245 0.08731522 0.09705121 -0.0006113084
000190 28 41 9d 3d 6f 13 23 3b bb 69 f7 bd 02 ae a4 bc
       0.07678443 0.002488341 -0.12080713 -0.020102505
0001a0 84 2f 98 bd 80 b6 94 3d 99 1e 40 3d a4 b3 89 3d
       -0.07430938 0.072613716 0.04690418 0.06723717
0001b0 ef 27 7b bd 9d 82 64 bd 15 4a ee bd 35 dc 5e bc
       -0.06131738 -0.055788625 -0.11635224 -0.013602306
0001c0 3c 71 df bd 82 31 a0 bc 15 99 5f 3d 7f 06 5a bd
       -0.109102696 -0.019554857 0.05458935 -0.05322885
0001d0 0e 6b 39 bc 83 cc 89 bd ff 01 0c 3d 58 fd a5 3c
       -0.011317028 -0.06728461 0.03418159 0.020262405
0001e0 ac 1b 4b 3d ba 1b 66 bd 52 13 03 be 4d 32 a9 bc
       0.049586937 -0.056178786 -0.12800339 -0.020653868
0001f0 42 2a 0e 3e a6 8b 6c bd 60 6d cf bd 67 6a ad 3d
       0.13883308 -0.057750367 -0.101282835 0.0846756
000200 64 14 94 bc 49 89 c6 3d df a5 d9 bd 4e ba 02 3d
       -0.01807613 0.09694154 -0.106273405 0.031915955
000210 bc 1b 05 3d d2 e5 0b 3c dc a7 79 bd 4c e5 9c bd
       0.032497153 0.00853868 -0.0609511 -0.076609224
000220 cd f0 16 3d 1e 30 94 bd b2 8c 9e bb 46 8e 67 bd
       0.03685074 -0.0723574 -0.0048385495 -0.056532167
000230 54 33 c0 bd 8a af ff 3d cd 00 90 bd 24 2e db 3c
       -0.0938479 0.12484653 -0.07031403 0.0267554
000240 d9 3c de 3d e1 a9 f5 bc 96 7c 38 bd 6d 58 ae bd
       0.108514495 -0.029988231 -0.04504069 -0.0851296
000250 a6 ff bf ba 5d 49 6e bd 0c b6 dc 3d 9b 28 c2 bd
       -0.0014648333 -0.058175433 0.1077691 -0.09480401
000260 3a a2 86 3d 09 ff 32 3d 85 0d 0d bd 43 ae db bd
       0.06573911 0.04370025 -0.03443672 -0.10726597
000270 73 62 48 bd 06 79 eb bd 80 72 d6 bd 28 99 2a 3b
       -0.048922013 -0.11497693 -0.10471058 0.002603123
000280 40 69 3c 3c 21 fa 8c 3d 3d d4 a1 3a 3a 89 bd bd
       0.011499703 0.06883646 0.0012346577 -0.092546895
000290 39 dc 6a bd 16 3c 8f bd 15 2c 66 bd c6 a6 d4 bd
       -0.057338927 -0.06993882 -0.056194384 -0.10383372
0002a0 76 89 53 bd d5 6c 1d bc 30 ee f9 3d 27 36 7e bc
       -0.051644765 -0.009608467 0.12203634 -0.015515841
0002b0 20 77 70 3d d8 76 21 bd 47 70 67 bd d7 87 d7 3c
       0.058707356 -0.03941998 -0.05650356 0.02630989
0002c0 d9 10 0f bd df 92 00 3e ad f8 f8 bd 91 50 07 3d
       -0.034928177 0.12556027 -0.12156806 0.03303582
0002d0 a9 bb b7 3d 94 71 e8 3d 6d 03 6c 3d 72 4a 56 bb
       0.0897134 0.11349788 0.057620455 -0.0032698181
0002e0 a7 0c a6 3d 37 b2 fb 3d 51 50 df 3d 42 a9 e9 bc
       0.08107882 0.12289851 0.10903991 -0.028523091
0002f0 a3 84 da 3d 11 c2 90 3d a4 a7 cc bd 23 25 1e bd
       0.1066983 0.07068265 -0.099929124 -0.038609635
000300 23 d9 09 3c e5 4b 6c 3d bb dd 4a bd 33 cb 4a bd
       0.008413586 0.057689566 -0.049527865 -0.049510192
000310 96 d2 54 3d 9c 0f 3b 3d 8d d5 e7 bd 5a 8d 3a 3d
       0.051958643 0.045669183 -0.113200285 0.04554496
000320 12 51 b1 3d f8 d9 43 bd d5 c3 02 be c5 c8 c7 bc
       0.08658041 -0.047815293 -0.12770016 -0.024387727
000330 f6 5e 87 3c 75 5e 32 3d 9a 48 55 bd 09 be 61 bd
       0.016524773 0.043547112 -0.05207119 -0.055112872
000340 37 95 ef bd 00 8f a5 bd 40 25 d3 bd 55 08 ca 3d
       -0.11698382 -0.08083916 -0.10309839 0.098648705
000350 d1 5b f4 bc 51 a4 0c 3d ab 44 fb bd f7 80 b2 3b
       -0.029828938 0.03433639 -0.12268957 0.0054475027
000360 c8 03 cb 3d 0e f2 c9 3d a7 47 73 bd 4b 6d 50 bc
       0.099128306 0.098606214 -0.059394505 -0.01272137
000370 93 9b c2 3c f7 62 26 bd aa a6 46 bb 6e 4f b5 bd
       0.023755824 -0.040621724 -0.0030311742 -0.08853041
000380 30 5c 6c 3d 98 04 b1 bc e3 44 cd 3d 43 a7 9c bd
       0.057705104 -0.021608636 0.10022905 -0.0764909
000390 88 8b bd bd e5 d4 7d 3b 2d 5f 91 3c 45 a7 bb 3d
       -0.09255129 0.0038731631 0.017745579 0.091627635
0003a0 7a 30 eb bd 0b 32 89 3d 56 cb ae bd 2d 62 08 3c
       -0.114838555 0.06698998 -0.08534877 0.008324188
0003b0 27 df e7 bd cc f8 21 bd 3d 61 41 3d 2a 65 a1 3d
       -0.1132186 -0.03954391 0.047211874 0.07880624
0003c0 f9 23 48 bd 68 d5 b5 3d 0d 38 6c bd 18 44 9b 3d
       -0.04886243 0.08878595 -0.05767064 0.07581347
0003d0 91 48 5c 3a a2 2f af 3c 2a a8 b9 bd 39 b0 f1 3c
       0.0008403147 0.021385018 -0.09065278 0.029502975
0003e0 87 d8 c9 3d 57 8e 33 bd 23 d6 06 bd 3f 7b a7 bd
       0.098557524 -0.043836918 -0.03291906 -0.08177804
0003f0 a9 0e b0 3d 9d 56 33 bc d0 0c 43 bd ce eb 59 bd
       0.08596546 -0.010945943 -0.04761964 -0.053203396

rnn.bias_ih_l0 f4 [64]
000000 28 b2 2f bd 58 0c 15 3c 3e 5f b7 3d 62 ff 27 bd
       -0.042894512 0.009097181 0.08953713 -0.041015036
000010 fc ae 5f 3d fe 30 6f bd 3a b3 85 bb ac 12 53 3b
       0.054610237 -0.058396332 -0.0040802034 0.0032207174
000020 54 56 f1 3d 14 f4 ac bd 45 49 b0 bd de 61 04 3e
       0.11784044 -0.08444992 -0.08607725 0.12927958
000030 99 67 c4 bd 35 e1 ee 3d 02 13 71 bd 40 ef e3 3c
       -0.09590072 0.116640486 -0.058856018 0.027824044
000040 68 5e 81 3b 0d 86 53 bd e4 1e da 3d 03 0b e7 bd
       0.0039480217 -0.051641513 0.10650423 -0.11281397
000050 e8 e3 5b bd 05 12 8c bd ae f2 59 bd cc e0 89 bd
       -0.053684145 -0.068393745 -0.053209953 -0.0673233
000060 51 b0 5b 3d 4e 2d cf 3d 21 d9 9a bc ef 8e 3d bd
       0.053634945 0.10116063 -0.018902363 -0.04627889
000070 3c 0b b3 3d 2a 6c a6 3d 44 7f 2e 3d e8 12 e8 ba
       0.08742377 0.081260994 0.04260184 -0.001770583
000080 9b 55 5a 3c b5 08 b9 3c 61 0a cc 3d fc 18 b4 bc
       0.013326074 0.02258716 0.09962917 -0.02198457
000090 08 7f c4 bb 6a 77 e0 3d 14 dd ad 3c 68 67 43 bd
       -0.0059965886 0.109602764 0.021223582 -0.047706038
0000a0 f8 22 84 3d 04 1e 3e bd 89 e1 d1 bd 26 c2 b0 bc
       0.06451982 -0.046415344 -0.102480955 -0.021576952
0000b0 ce 26 ac bd f5 1f 9a 3d 9a 36 00 3c e3 a3 32 bc
       -0.08405839 0.075256266 0.007825518 -0.010903331
0000c0 8b 5b 56 3d 9f cc 91 3d 15 0c d2 bd d6 b7 dc 3d
       0.052333396 0.071191065 -0.10256211 0.107772514
0000d0 03 50 d2 bd b8 df 1f bd 3b f3 5c bd cb ea 63 3c
       -0.10269167 -0.039031714 -0.0539429 0.0139109595
0000e0 36 05 b8 3a c6 b9 dc 3d 67 a3 be bd 27 7e 59 3d
       0.0014039639 0.10777621 -0.0930851 0.053098824
0000f0 0f ed e6 bc ee ce bc bd 9b f6 75 3d 57 8a b7 3d
       -0.02818921 -0.09219156 0.060049634 0.08961933

rnn.bias_hh_l0 f4 [64]
000000 79 ce 4c 3d c3 46 80 bd b5 d2 1b bb 58 7c bb 3c
       0.050001595 -0.06263497 -0.0023776714 0.02288644
000010 08 22 01 bc cd 6b ce bc 3b ca e3 3d f3 48 07 be
       -0.007881649 -0.025197888 0.11122557 -0.13211422
000020 41 a0 de 3d 8a 74 df 3d 9a d1 4f bd 7a b3 4f bd
       0.1087041 0.109109 -0.050737 -0.05070827
000030 14 3d 3c 3d 5c 37 8c 3d 4c bf 5c bd c8 1a 68 bc
       0.045956686 0.068464965 -0.053893372 -0.014166541
000040 48 88 91 bd a6 0d 42 3d 70 c5 f0 3d e4 fb 20 bb
       -0.07106072 0.047376297 0.11756408 -0.00245642
000050 81 6c c4 bd e1 77 98 bc 50 71 b4 3b 36 c1 34 3b
       -0.09591008 -0.01861185 0.005506672 0.0027580983
000060 db cc f5 bd f6 8e 90 3d 3f 52 60 bd 92 9b 17 bd
       -0.12001964 0.07058518 -0.054765936 -0.037013598
000070 cb 28 7b 3d e0 60 9c 3d f2 cb 72 3b e7 9d 34 bd
       0.0613182 0.07635665 0.003704783 -0.0440959
000080 16 2b 42 bd 3f e4 cb 3d 24 30 16 bc 4c 38 c1 bd
       -0.04740437 0.09955644 -0.009166751 -0.09434566
000090 4c 4c ca 3d f5 03 4c 3d e1 1a df 3d d1 e4 3b bd
       0.09877834 0.04980846 0.108937986 -0.045872513
0000a0 f5 dd 0c 3a 70 84 df bc 08 cc b0 bd 50 74 6d bd
       0.00053736503 -0.02728483 -0.08632666 -0.057972252
0000b0 2a 2c b1 3d 74 88 e7 3b 7c 24 b4 bd 24 57 b7 3c
       0.08651002 0.007065827 -0.08796021 0.02238042
0000c0 6e c0 c9 bd 3b 34 90 bd 2f 56 c8 bc 76 b7 d5 bb
       -0.09851156 -0.07041212 -0.024455158 -0.0065221144
0000d0 d3 98 1c 3b a1 e5 81 3d 4b 9c e0 3c 62 b5 1f bc
       0.0023894801 0.06342626 0.027418276 -0.009747835
0000e0 71 66 47 3d cb c5 89 3c 53 91 9b 3d 20 d1 00 be
       0.04868168 0.016817948 0.07596078 -0.12579775
0000f0 cf a9 bb bd 74 a2 73 bc fe c2 02 3e 09 1e e3 3d
       -0.09163248 -0.014870275 0.12769696 0.11089713

fc1.weight f4 [64, 64]
000000 60 c1 03 3d 00 25 b3 bc 00 6c df 3b 90 39 7a 3c
       0.03216684 -0.021868229 0.0068182945 0.015272513
000010 1c 44 1b 3d f4 e2 cd bd ae d7 d0 3d e8 b7 67 3d
       0.03790675 -0.100530535 0.10197388 0.05657187
000020 10 51 bc 3c 5a 16 aa bd c4 5d f0 3d 60 c7 db 3c
       0.022987872 -0.083050445 0.117366344 0.026828468
000030 e0 ac 27 bd 58 eb 16 3d 64 82 3b 3d 98 8d d5 3c
       -0.04093635 0.036845535 0.045778647 0.026068494
000040 b8 d0 86 bc 70 2d 94 3d 80 ee 6a bd 8c d4 a6 bd
       -0.016456947 0.07235229 -0.057356358 -0.08146009
000050 fc e1 cd bd 00 1f 3e ba 90 e3 f1 bd 00 57 64 ba
       -0.10052869 -0.0007252544 -0.11810982 -0.0008710474
000060 20 74 08 bd ac da 09 3d 58 92 88 bc a0 1d 9c bd
       -0.03331387 0.033655807 -0.016671345 -0.07622838
000070 28 34 cc 3c dc ea a2 3d 64 31 dc bd c0 5e b1 3d
       0.024927214 0.07954952 -0.10751608 0.0866065
000080 9e 39 85 3d bc 48 d4 bd 54 25 b8 3d 10 5f d7 bd
       0.0650513 -0.103654355 0.08991495 -0.105161786
000090 e8 a8 b6 3c b0 0c c9 bc 6c fa 20 3d 50 81 1a bc
       0.022297338 -0.024542183 0.03930132 -0.009430245
0000a0 52 f0 f6 3d d0 82 45 bd 50 c0 6a 3d 4a f8 96 3d
       0.12057556 -0.048220456 0.05731231 0.07371576
0000b0 10 1e 30 3c 20 6c 9c bd e8 07 38 3d f8 c0 d8 3c
       0.010749355 -0.07637811 0.044929415 0.026459202
0000c0 20 3b 8a bc 90 b2 e6 bc da 65 e4 bd 2c cb 99 bd
       -0.016873896 -0.028161317 -0.11152239 -0.07509455
0000d0 34 da ac bd 08 35 29 bd a6 7f 87 3d 10 9e 8e 3d
       -0.084400564 -0.04131034 0.06616144 0.06963742
0000e0 2c 19 d5 3d 40 0b e5 3d 0c 7e 09 bd e0 9c 5b 3c
       0.10405192 0.111837864 -0.033567473 0.013404101
0000f0 bc 30 70 3d a8 1d cb 3c d0 3a 41 bd ec eb a3 bd
       0.058640227 0.024794415 -0.04717523 -0.08003983
000100 4a 61 9b 3d 70 5a 2b 3d 00 6e b2 bb c0 5e ed 3c
       0.07586916 0.041834295 -0.005445242 0.028975844
000110 5c 17 1f 3d 30 6e 55 bc fc 26 a7 bd a0 82 e1 3d
       0.038840637 -0.013026759 -0.081617326 0.11011243
000120 a0 2b bd bc b0 24 0d 3d aa 90 fe bd 20 16 03 bd
       -0.023092091 0.034458816 -0.12429936 -0.032003522
000130 58 7a 5a bd 40 17 b0 3b 20 f8 cf 3c 0c cf 93 3d
       -0.053339332 0.0053738654 0.02538687 0.072172254
000140 58 a2 99 3c 80 cf 31 3c 78 53 88 bc 9c 4e cf 3d
       0.01875417 0.0108526945 -0.016641364 0.101224154
000150 28 a8 16 bd ac 40 62 3d 38 ac b8 3c d0 03 0c bd
       -0.03678146 0.055237457 0.022543058 -0.034183323
000160 10 86 cd bd 40 41 7c 3c c4 ba 28 3d 80 0f f9 3a
       -0.10035336 0.015396416 0.04119374 0.0019001812
000170 e6 20 a8 bd 76 4a af bd a8 f2 df 3d 24 03 0a 3d
       -0.082094 -0.08559124 0.10934955 0.0336944
000180 90 c2 1c 3d 98 fc 56 3d 50 02 1e bd 40 35 59 3b
       0.038271487 0.052486986 -0.038576424 0.0033143312
000190 24 24 76 bd 44 46 c8 3d 28 0a 97 bd 4c 41 c1 bd
       -0.06009306 0.09779027 -0.07374984 -0.094362825
0001a0 30 be b6 3d 50 41 dd bc 00 7c 1e 3d 2c 00 fb 3d
       0.08922994 -0.027008682 0.038692474 0.12255892
0001b0 3c 47 27 bd 6a c3 89 bd 5c 7f c1 3d cc 26 72 bd
       -0.04083942 -0.067267254 0.0944812 -0.05911903
0001c0 42 3c 89 bd 20 eb 0c 3c cc 3a cb 3d a2 59 97 bd
       -0.067009464 0.00860098 0.09923324 -0.07390143
0001d0 78 80 a2 bd 7a 4d 9e bd 68 a7 31 bd 94 12 d7 bd
       -0.0793466 -0.07729621 -0.04337254 -0.1050159
0001e0 40 42 f4 3b 88 92 53 3d 08 a2 dc bd 38 b0 5c bd
       0.0074541867 0.051653415 -0.107730925 -0.053878993
0001f0 80 a4 08 bd ca 5c a4 3d 82 ab 9b bd e0 c9 43 bd
       -0.033360004 0.080255106 -0.07601072 -0.047799945
000200 d0 b8 a8 bc 4e 61 a1 3d c8 06 21 3d fa 58 fa bd
       -0.020595938 0.078798875 0.039313108 -0.12224002
000210 a2 8e bc 3d ec 1f b1 3d c8 25 e9 bc 88 7c 6b 3d
       0.092068925 0.08648667 -0.028460398 0.05749181
000220 00 62 fd bc 68 e6 ad 3d 20 0c ae bd f8 8c 24 bd
       -0.03093052 0.08491212 -0.084984064 -0.0401735
000230 48 ac 8a 3d fa 42 90 3d 04 b1 e3 bd 1e c2 80 3d
       0.06771141 0.07044025 -0.111177474 0.06287025
000240 48 a4 cd bc cc 6e be bd 92 e2 cb bd 1c 68 3a bd
       -0.02510275 -0.092984766 -0.09955324 -0.045509443
000250 90 9e db 3c e0 e8 26 3c 20 5a c2 bd 18 09 9a bd
       0.026809007 0.010187358 -0.09489846 -0.07521266
000260 00 e4 a5 3a 16 58 e3 3d 00 76 e3 bd 80 d1 85 bc
       0.001265645 0.111007854 -0.11106491 -0.016335249
000270 80 83 88 bb 18 44 46 3d a0 1e 5b bd ba 77 ac bd
       -0.0041660666 0.048404783 -0.053496003 -0.084212735
000280 50 33 ec 3d 80 a1 a7 ba 24 6d 3e 3d 30 52 8c 3c
       0.115332246 -0.001278922 0.046490803 0.017129034
000290 06 b9 a7 bd 48 24 ad 3d a8 ee a5 bd 16 c9 92 3d
       -0.08189587 0.08454186 -0.08102161 0.0716726
0002a0 b8 8d 59 3d d0 30 a2 3c 9e a2 eb bd 92 4a 83 3d
       0.05311367 0.019798666 -0.11505626 0.064107075
0002b0 fc 8f 9d 3d cc ac 35 bd d2 d5 8a bd 2c 4b 46 bd
       0.076934785 -0.044354245 -0.06779064 -0.048411533
0002c0 f6 07 b9 3d e4 41 13 bd 28 dc b2 bc 7c e9 73 3d
       0.090347216 -0.03595151 -0.021833494 0.05954884
0002d0 c0 bd 01 bc 28 2e cc bc e4 6a 15 3d ac 83 73 3d
       -0.007918775 -0.024924353 0.036478892 0.059451744
0002e0 80 de e4 3a 60 30 94 3c 12 20 bc bd 06 29 b4 bd
       0.001746133 0.018089473 -0.091858044 -0.08796887
0002f0 68 70 fe 3d 54 a7 0d bd e0 9b cb bd 36 7f cc bd
       0.124237835 -0.034583405 -0.0994184 -0.09985201
000300 10 99 1d bd 80 82 ba 3a 9a 4a a0 bd 20 23 f1 bb
       -0.03847605 0.0014229566 -0.07826729 -0.0073589236
000310 ba b9 ce 3d 42 39 80 bd 7c 2f 80 3d 14 34 06 3d
       0.10094018 -0.06260921 0.06259057 0.03276451
000320 38 e9 03 bd 1a 5e af 3d 14 31 a0 bd e0 a3 8f bc
       -0.032204837 0.0856287 -0.07821861 -0.017534196
000330 aa b2 e2 3d 38 55 80 3d ae 4d dd bd 10 47 34 3d
       0.11069234 0.06266254 -0.10805832 0.044013083
000340 f6 59 cf bd 60 0f 48 3d 80 51 19 3c 4e 0f d1 bd
       -0.101245806 0.048842788 0.00935781 -0.10207997
000350 80 ea e1 bd f6 71 e2 bd a2 18 8f bd b0 8d 46 bd
       -0.110310555 -0.110568926 -0.0698712 -0.048474967
000360 cc 54 75 bd c8 f9 b2 3d a2 83 f4 3d e0 2f 2d bc
       -0.05989532 0.08739048 0.119391695 -0.010570496
000370 8a 94 eb bd cc 35 64 3d 8a 6d e4 3d 78 01 af bc
       -0.11502941 0.055715367 0.111537054 -0.021363005
000380 ce 81 d7 bd e8 8b f8 bd 4a 95 cf bd 48 a9 78 bd
       -0.10522805 -0.1213606 -0.101358965 -0.060708314
000390 58 73 20 3d a8 d2 66 3d c6 db f8 bd 84 55 23 3d
       0.0391725 0.05635324 -0.121512935 0.039876476
0003a0 b0 2c 9b bc de 2f 8e 3d 00 1f 65 3a 2c c5 7b 3d
       -0.018942207 0.06942724 0.0008740276 0.061467335
0003b0 d0 63 c2 3c 88 5a 5e bd 4a 31 fd bd 6a 7d 9e 3d
       0.023729235 -0.054285556 -0.12362917 0.077387646
0003c0 48 c6 af bd 9c 1f c0 3d a2 9d c9 bd e4 73 4c bd
       -0.08582741 0.09381029 -0.09844519 -0.04991521
0003d0 3c ad 38 bd f8 d5 ef 3d c8 96 61 bd 3e f2 d7 bd
       -0.045087084 0.11710733 -0.055075437 -0.10544251
0003e0 40 84 16 bb 2a dc fc bd 12 09 bd 3d 58 9b 6a 3d
       -0.002296701 -0.123466805 0.09230246 0.057277054
0003f0 68 68 30 bd a6 49 b5 3d 14 ba 26 bd 90 14 d2 bd
       -0.04306832 0.08851938 -0.0407048 -0.10257828

fc1.bias f4 [64]
000000 ac f4 a4 bd 76 1c bd bd 20 1f bf bb 32 c4 b5 3d
       -0.0805448 -0.09233944 -0.005832568 0.08875312
000010 32 48 c9 bd 2a 91 89 3d c4 5f 60 3d e6 bd b4 3d
       -0.09828223 0.06717141 0.05477883 0.08825283
000020 74 df 7c 3d 70 3e 6d bc d4 1e d7 3d e0 47 36 bd
       0.06173654 -0.014480218 0.10503927 -0.04450214
000030 a0 3a fd bb c0 37 c2 3b fe 48 ce bd ee ec c6 3d
       -0.007727936 0.005927056 -0.10072516 0.097131595
000040 e0 43 b8 3c 40 db 35 3d 74 09 34 3d 60 2f 8b 3b
       0.022493303 0.044398546 0.043954328 0.004247591
000050 3a 77 ff 3d 14 74 6d bd d0 0e 74 3c 36 0d ca bd
       0.124739125 -0.05797203 0.01489611 -0.09865801
000060 40 77 9f bc b2 bf f2 3d 60 8d 10 bc 6e 18 80 3d
       -0.019466043 0.11852969 -0.008822769 0.062546596
000070 80 74 6c 3b 78 1a d9 bc 38 0b d5 bd 70 fa 21 3d
       0.0036080182 -0.02650188 -0.104025304 0.039545476
000080 52 82 86 bd 08 b6 9e bd e4 7b 20 bd 00 3e 4b ba
       -0.065678254 -0.077495635 -0.03918065 -0.0007753074
000090 28 5f f6 3d a8 d0 f9 bc 00 b6 62 3a a0 71 22 bc
       0.12029868 -0.030495003 0.0008648336 -0.009914786
0000a0 40 a1 b6 bb 4c 91 6d 3d 3c 52 e7 3d 28 46 52 3d
       -0.0055734217 0.057999894 0.11294982 0.051336437
0000b0 e8 6e d6 bc a0 81 04 3c b0 bb 2d 3c e2 48 d3 bd
       -0.026175931 0.008087546 0.01060383 -0.10316636
0000c0 88 91 db 3c 3c ed f8 bd 40 8a 08 3d b0 81 e4 3d
       0.026802793 -0.12154624 0.03333497 0.111575484
0000d0 92 83 f0 3d 16 d3 b1 3d 10 d6 a9 3d e8 bc 31 bd
       0.11743845 0.086828396 0.08292782 -0.043393046
0000e0 8a 6c e6 3d 30 0e 3f bc 68 0b 33 3d c8 1a d0 bc
       0.11251171 -0.011661097 0.04371205 -0.025403395
0000f0 ca 13 ab 3d 74 53 a8 bd 6c b3 b7 3d 58 37 b8 3c
       0.08353384 -0.082190424 0.08969769 0.022487327

fc2.weight f4 [2, 64]
000000 b4 b5 8a bc 85 72 a3 bd b4 35 be bd c5 5b 32 3d
       -0.016932346 -0.07980827 -0.09287587 0.04354455
000010 6a 08 a2 3d 61 32 20 3d 5a fa 9d bd 9d 8c e4 3d
       0.07911761 0.039110545 -0.077137664 0.11159632
000020 3a b6 9b 3b 38 8e 2a 3d 03 71 d1 3c 43 f4 4b bd
       0.0047519477 0.041639537 0.025566583 -0.049793493
000030 cc e2 be 3d dd ef aa bd 45 44 b6 3c e6 96 a7 bb
       0.09320602 -0.083465315 0.02224935 -0.005114424
000040 e3 f5 ad bd b6 85 92 3d d8 9b af 3d 1d 29 8d 3d
       -0.08494165 0.071544096 0.08574647 0.06892607
000050 5a 6f 2f bd b4 e0 9f 3d 05 dd a2 bd 60 49 11 3d
       -0.042830803 0.078065306 -0.079523124 0.035470366
000060 79 61 84 3d 3b b2 cc 3d 23 99 22 3d 35 7a 08 bd
       0.06463904 0.09994932 0.039696824 -0.03331967
000070 4c e6 8c 3d af db f0 bd 6c 8a df 3c e0 c4 be 3d
       0.06879863 -0.11760651 0.027287684 0.09314895
000080 1e 9a 9e bd 5e 17 46 bd db 71 ce bd ce f9 cd 3d
       -0.07744239 -0.04836213 -0.1008031 0.10057412
000090 96 62 e2 3d 93 84 d1 3d fe 7e 8d 3c 88 9a e3 bd
       0.1105396 0.10230365 0.017272469 -0.11113459
0000a0 4b 49 9a 3d bd 37 91 3d 39 55 00 bd 34 a3 3c bc
       0.07533511 0.07090709 -0.031331275 -0.01151352
0000b0 1c d1 30 3d 13 13 6c bd 45 8b c6 bc d3 51 a1 3d
       0.043168172 -0.057635378 -0.02423633 0.07876935
0000c0 78 08 e4 3d f6 72 19 bd 3c 7d f2 bc 7d ff b6 bd
       0.11134428 -0.03746315 -0.029600732 -0.08935449
0000d0 62 d4 d2 3d bf d1 80 bc 13 c5 ba bd dd 49 0a bd
       0.10294415 -0.015725015 -0.0911962 -0.033761848
0000e0 32 e8 82 3d b5 14 f5 bd c6 8b b5 bd 20 ff 9a bd
       0.06391944 -0.1196684 -0.0886455 -0.075681925
0000f0 45 2a 49 bd 65 a4 a7 bc 1f 29 a5 bd 57 f5 25 bd
       -0.049112577 -0.020464132 -0.08064484 -0.040517177
000100 10 bc fc 3d db eb 87 bd 94 6e 3d bd 3a 4c c5 3b
       0.123405576 -0.06636783 -0.046248034 0.00602105
000110 a0 61 59 3c 7a 96 6a 3d f9 9c ce 3c 09 bf 73 bd
       0.0132679045 0.057272412 0.025221335 -0.059508357
000120 95 bf a3 bc 7e 03 ae 3d f7 2f 8f 3c e6 f0 7f 3d
       -0.019988814 0.0849676 0.017478926 0.062485598
000130 a8 ee 0c 3e 6c d2 73 3d 75 54 66 3c 7d 86 b0 bc
       0.13762915 0.059526846 0.014058222 -0.021548504
000140 f5 26 7b bd 04 39 b8 3d 65 bb 98 bd 46 70 8b 3d
       -0.06131645 0.0899525 -0.07457618 0.06808524
000150 15 45 a1 bd fe 31 fc bc a5 84 b9 3c cb 2c 01 3d
       -0.078745045 -0.030785557 0.022646258 0.03153686
000160 5d b0 df bd d9 7f b2 bd ba 60 9c 3c a0 5f 1f 3d
       -0.109223105 -0.08715791 0.019089092 0.038909554
000170 ea 28 11 3c 72 3e 7b 3d 91 35 75 3d 7d 02 a0 3c
       0.008859852 0.06133885 0.059865538 0.019532437
000180 10 ed 90 bd 6f e0 d8 3d 98 46 49 3a cb 30 93 bd
       -0.07076466 0.10589682 0.0007678061 -0.07187041
000190 7d 5e 9c 3d c7 95 f1 3c 91 1c 06 3d 28 0d 8c bd
       0.0763521 0.029490365 0.032742087 -0.06838447
0001a0 14 58 75 ba 04 38 96 3d 29 fb e1 3c 57 9d d9 3d
       -0.0009359133 0.07334903 0.027585583 0.10625713
0001b0 ff ef a4 3d 07 dc 54 bc 54 3f 43 bd 34 15 10 bd
       0.08053588 -0.012991912 -0.047667816 -0.03517647
0001c0 23 e3 6e bd 08 b2 c8 bb 32 23 c3 bd ed 10 cc bc
       -0.058322083 -0.0061247386 -0.09528197 -0.024910415
0001d0 1f 40 bd bd 38 f2 4c 3a da b3 5a bc 86 ea 7a ba
       -0.09240746 0.0007818076 -0.013348544 -0.000957169
0001e0 96 4a ea bc 80 12 36 3d d3 79 a9 3b fa ce a3 bd
       -0.028600018 0.044451237 0.0051719933 -0.07998462
0001f0 fb 40 fd 3c 30 32 42 bd 10 d4 8d 3c a7 77 78 bd
       0.030914774 -0.047411144 0.017313033 -0.060660984

fc2.bias f4 [2]
000000 e5 19 52 3d a3 56 d8 bd
       0.051294226 -0.105634
