mel_rnn_model.pth (torch, 257483 bytes, 8 tensors)

rnn.weight_ih_l0 f4 [64, 862]
00000000: 14da 923d 97f2 d53d 9896 e23d ce72 0b3e
00000010: 3ee8 f13d 2a46 e53d 72c4 033d 5559 45bc
00000020: b83e 863d d35b e33d 5630 3bbd c623 d03d
00000030: 1957 963d 6226 75bd 0e0e 113d 3848 e8bc
00000040: 6854 153e 523c 5bbc 223f 013d 335b 2c3d
00000050: 4f91 7fbc 0458 993d 5521 cd3d 2008 3b3d
00000060: f2c3 833d 5e89 8b3c bbb1 bebc 7ed2 c03d
00000070: fa84 013d 330a 93bd e9f0 743c 30c8 053e
00000080: e068 29bd 7ae0 d0bd 554c c73d 695b 5b3d
00000090: 6275 3dbc d189 023e b98a c03d a459 0f3d
000000a0: b1f9 943d 8840 15bd 6dce 9a3d 1903 033c
000000b0: 26da 52bd b813 8a3d 3239 9fbd 8a3b 3cbd
000000c0: d2ac 4e3d cec8 86bb 22d3 cb3c d019 ce3c
000000d0: a352 993d 733d 73bd 0c31 463d 9014 6f3d
000000e0: 0463 aebd 1e8d e9bb 58e3 8ebd 08ef 953c
000000f0: b9d7 6d3d 3b74 da3d 0690 5b3d 66db e43c
00000100: 168d 7cbd dc04 c8bd 21f6 d9bd 8056 403d
00000110: eb5f 973d 01ad 0b3e 16ca 803d 4f33 f03c
00000120: 4904 ac3d 15f8 3d3c d726 8b3d 1a79 023e
00000130: bfb5 ca3d c7c1 54bd 56f6 6fbd 79a6 2bbd
00000140: 067d 843d b87d 1abd 6a9a 8abd 82ca a0bd
00000150: 7f5c eb3c 4678 543d 2d6e 1b3d b72e dbbc
00000160: f15d 153d c5f6 f1bd a7a6 e2bc 3258 a5bd
00000170: c8cf 66bd 0070 8b3d 1935 2bbd 3444 c33c
00000180: 531f 91bd d746 92bd 45ab a53d c294 df3c
00000190: 31f6 103d 6c8b 0bbc fecf 69bc 4f89 b73d
000001a0: e638 a4bd dd96 0a3d ed03 c0bd c371 dabc
000001b0: 312e 0cbd 173c 3a3d feb5 08bd b348 e13d
000001c0: 779f 813d ccfb c63d dbd6 e83d f261 59bc
000001d0: afd9 a8bd 8481 fe3d c319 debd 8ff3 e83d
000001e0: aed6 ba3d 1347 44bd 5fc4 843d 153f 91bd
000001f0: 882f db3d 73c5 d1bc 8eb2 d93d 08fc c63d
00000200: 5140 9bbd d605 603d b19d 683d f1c5 a23d
00000210: 5b6b 8c3d 5a6e dc3d 1bc6 8dbd 7620 c13d
00000220: 41d1 123e 548f 983c b6e9 843d 9e61 d43d
00000230: 4050 c7bc 25ba 8b3d 77a2 e83c e1a7 dc3d
00000240: 772d 053e a1c0 e23c bccf 8ebb 9137 ef3d
00000250: fb75 943d 6e67 ebbd b479 70bc a71a c5bd
00000260: e0b6 933d acf8 66bd 0a82 a03d e2e9 0a3e
00000270: 1ee5 743d c6f5 b73d d835 57bd 25c6 a63d
00000280: a69a c2bd f7f5 183d ac45 84bd 4756 e03d
00000290: d83c c0bc 5fa0 c43c 0e17 6dbd d7b5 363c
000002a0: 16b9 a1bc 666f 4ebd e66d 393d 2b12 bcbb
000002b0: fa57 e23d aafd 16bd 0129 723c 69b9 883c
000002c0: eb33 ed3d 81d3 b1bd 9579 1dbd 2354 853d
000002d0: 2240 0d3c fa57 56bd 2ddd 74bd 0f3a 5bbd
000002e0: 0a29 f23d a5b1 8dbd 75ac e53d f926 8c3d
000002f0: 5200 afbd 1273 c13b dfeb b1bc 92c9 7d3d
00000300: 4433 033b 0beb 063d 48cf 0b3e 06fd 073e
00000310: e859 083e 6688 e63d 71d2 58bd 470f 073e
00000320: db68 ea3d ff8c b3bd 0a00 093e b619 9ebd
00000330: 92f6 9f3c be51 51bd e6c4 5bbd cfa5 1ebd
00000340: cced 583d c982 ce3d 9ca8 f53d 160a e63d
00000350: 7ca4 b83d 5e59 73bc 4e10 f0bd ca83 06bd
00000360: 1a23 be3c 1c45 b4bd c215 af3d 5993 8d3c
00000370: 3d05 8cbd 57d6 aebb a90b 2fbd bf8d 1ebd
00000380: 092b a43d 49f9 213d 9c71 e8bd 05c8 f13d
00000390: 1d93 94bd d1c7 63bd 9028 643c 1659 463d
000003a0: 7df5 023e 46f3 063e 9adf 4dbd 439a 863b
000003b0: 6cb8 48bd 7141 a2bd 788c d83d e072 b83d
000003c0: 8352 42bd 28f8 3ebd e4be e83d 90f7 063e
000003d0: 575e 053e 586e d03d 6bdb ac3d 1e67 babd
000003e0: 0339 debd 6198 e93d 0736 49bd 21ae 79bd
000003f0: d19e f13d becf f1bc 0715 e13d 9186 c63d
0.07170501 0.10446661 0.1106388 0.13618013 0.11811875 0.11195023 0.032169767 -0.012045224
0.065549314 0.111014985 -0.045700394 0.10163073 0.07340831 -0.059851058 0.035413794 -0.02835475
0.1458298 -0.013381081 0.03155435 0.04207916 -0.015598609 0.07487491 0.10016123 0.045662045
0.06433858 0.017033275 -0.023278108 0.09415148 0.031620957 -0.0717968 0.014950016 0.13064647
-0.041359782 -0.101990655 0.09731356 0.053553972 -0.011563631 0.12747885 0.09401459 0.034997597
0.07274187 -0.036438495 0.07558904 0.007996344 -0.051477574 0.06742042 -0.07774581 -0.04595522
0.050457783 -0.0041132933 0.02488095 0.025158793 0.07486465 -0.059384774 0.04838662 0.05836922
-0.085149795 -0.007127418 -0.06976956 0.018302456 0.058067057 0.106667005 0.05360415 0.027936649
-0.061657988 -0.09766552 -0.106426485 0.046957493 0.07391342 0.13640215 0.06288545 0.02932134
0.08399255 0.011594792 0.067945175 0.12741509 0.098979466 -0.051942613 -0.058584534 -0.041906808
0.06469159 -0.03771755 -0.067677334 -0.07851125 0.028730629 0.051872514 0.03794687 -0.026755674
0.036466543 -0.11814646 -0.027667357 -0.080734625 -0.0563505 0.06808472 -0.041798685 0.023836233
-0.07086053 -0.07142418 0.08089308 0.027292613 0.035391036 -0.0085171275 -0.014270781 0.089617364
-0.08018665 0.03383528 -0.09375749 -0.026665574 -0.03422374 0.045467462 -0.033376686 0.110001944
0.06329244 0.09715995 0.113691054 -0.013267981 -0.08244645 0.12427047 -0.108447574 0.1137458
0.09122978 -0.047919344 0.06482767 -0.0709211 0.10702425 -0.025606846 0.1062976 0.0971604
-0.07580627 0.054693066 0.05679101 0.079479106 0.06856414 0.107632354 -0.06922551 0.094300196
0.14337637 0.018623032 0.06489889 0.103701815 -0.024330258 0.068226136 0.028397782 0.10774208
0.13005625 0.027679743 -0.00435826 0.1168052 0.072490655 -0.11494337 -0.014677454 -0.09624224
0.07212615 -0.056389496 0.07837303 0.13565782 0.059788816 0.089824244 -0.052541584 0.08143262
-0.09502153 0.037343945 -0.06458601 0.10953956 -0.023466513 0.024002252 -0.057883315 0.011151752
-0.019741576 -0.050399207 0.045270823 -0.0057394705 0.110519364 -0.036863007 0.014780284 0.016689973
0.11582168 -0.08682919 -0.038446028 0.065101884 0.0086212475 -0.052329995 -0.059781242 -0.053522166
0.11824234 -0.06918649 0.11214534 0.06843371 -0.08544983 0.00590361 -0.021718917 0.06195981
0.002001957 0.032939 0.1365329 0.13280115 0.13315547 0.11256485 -0.052935068 0.13189422
0.11445781 -0.08767127 0.13378921 -0.07719748 0.019526754 -0.051103346 -0.053654574 -0.038732346
0.052961156 0.10083539 0.1199505 0.112323925 0.09015748 -0.01485285 -0.1172186 -0.032840528
0.023210097 -0.08802244 0.08549072 0.017282175 -0.068369366 -0.00533561 -0.04273573 -0.0387094
0.08016021 0.039544377 -0.11349794 0.11805729 -0.07254622 -0.05561048 0.0139256865 0.048424803
0.12788959 0.13178739 -0.05026207 0.004107745 -0.049004003 -0.07922638 0.10573667 0.09006286
-0.04744197 -0.04662338 0.113645345 0.13180375 0.13024269 0.101772964 0.08440288 -0.09101699
-0.10850718 0.11406017 -0.04912379 -0.060957078 0.1179787 -0.029518005 0.10990339 0.09693635

rnn.weight_hh_l0 f4 [64, 64]
00000000: c7ce 93bc 0d9e 13bc bf5e 053c be0c 943d
00000010: 4b6d 7f3c df7c f93d 2e0f 23bd 4ddc f3bd
00000020: 50eb 5b3d 62a1 623c 4ca0 abbc e21e bb3b
00000030: feae e93b d486 60bd e0c8 f53d 692b 643d
00000040: 0a63 bd3d 9dd5 6a3c f375 98bd ef8f 9abd
00000050: df86 22bd 6a5f 9cbd 2d83 a13d 8997 083d
00000060: 7143 17bd 22f4 e1bd 2d84 a2bd 6b01 a13d
00000070: b050 01bc 7b0e b1bd 900f eabc 7889 c83d
00000080: 1022 1ebc 1abd b0bd 12af 57bd 3a93 843d
00000090: 6402 80bc fff9 0a3e a35f 223d c72c cf3d
000000a0: 2392 ccbd 977c ea3d d753 65bc 5af5 8a3d
000000b0: c7fe 03bd 654a 9abd 4fa8 6b3d 91dc 003c
000000c0: 2af2 303d 0332 cabd f096 813d 740d 9bbd
000000d0: 57b5 dc3d b720 6cbd b1ec 2cbd 69eb 853d
000000e0: c0a0 91bd 503d 0d3e 0c62 fb3d ba23 303d
000000f0: 23da c3bc 2664 e23d 8221 853c d496 f0bb
00000100: 37ad acbd 00a2 c1bd d6d5 f5bd c9c2 9ebd
00000110: 1d31 39bd 660c c3bd 2919 893d bbdb d53d
00000120: f1f1 a33d de74 a83d 168e 9abd bc1e c33d
00000130: ffb0 12bd 3a51 8bbd 07a0 933d 5e37 cf3d
00000140: c5c1 583d be2a 903c 3606 b83c 5059 6a3d
00000150: 8b67 cb3c adcf d63d ba60 8bbd c946 0abd
00000160: 04b0 ce3c 569f f1bd 115c 4bbd 8346 e13d
00000170: c1d3 463d 1c88 9a3c 8774 3fbd 8e63 2c3d
00000180: 82d3 a9bd 7dd6 94bd 98fd 6bbd 4357 49bd
00000190: cee5 e73d 3d14 893d f9ec 73bc 73f3 11bd
000001a0: 0936 fe3d f4d6 5c3d d659 233d 5f46 fb3d
000001b0: 8e67 4c3d 0bf9 b7bd 477d ea3d 2f88 18bd
000001c0: 7510 7f3d 5fc4 4f3d bbb5 f1bd ee03 783d
000001d0: fd9d d73d 1ab6 55bd 1028 9e3d 831e 1b3d
000001e0: 05e4 bb3d 09b1 88bd b3ab cdbd e976 d2bd
000001f0: 0bdf af3d 67f8 a93d e129 16bd f31d dcbd
00000200: 2f8b d53d 7f7e a7bd d9b6 aa3d 6132 87bd
00000210: 9f29 0a3d 84c6 c8bd f396 a3bd cbd9 7abd
00000220: 184a f53c 0437 7f3d c89a e4bd 8cc5 f83c
00000230: 11e5 cd3d 2504 1dbd 8f69 a73d dd6f 34bd
00000240: 5d4b 62bd e709 e83d 2ec1 60bd 507d 47bd
00000250: 43cb 493c 5f85 eebc 31b4 c53c 37df 113d
00000260: a73b 9a3d 3f4a d33d b3b9 de3d c580 633d
00000270: f3b4 fd3d 924f b4bd 9fc1 1ebd 2d1e 803d
00000280: 53b9 313d 2e8f 13bd 41ad b13d 04cb d5bd
00000290: 2821 303d 69ce aebc f768 eabd 197f b03d
000002a0: cea5 d8bc f396 c23d 4210 65bc 6fba bb3d
000002b0: 8096 4e3c cb63 f2bc 5109 4c3d 6b15 3fbd
000002c0: 785a eabc 23e8 9e3d abcc c9bd c762 23bc
000002d0: 7a57 73bc 45c0 30bd 19de 5dbc a35d 3abd
000002e0: 2a4d 3b3d e39a 773b ad8a 0dbd b0c7 89bd
000002f0: 6615 fb3d bd79 bd3d 9eff 80bd e710 a23d
00000300: e3e0 913d aa7a c43c 27fb c2bd 1807 fabd
00000310: 54a4 c43c c5e3 aabd 0b3c 013e fa09 923c
00000320: dcd7 d8bd b951 cebd 9ac6 72bd 1b3e d23d
00000330: a8f1 a83d e0ed 053e 547e 713d 750a 803d
00000340: a855 c4bd 20f8 473d 6c9f a03d f146 33bc
00000350: c26d efbd 2efb b53c 9791 5a3d d8b4 cb3c
00000360: 14e8 d43d 142c 0cbb abaa 0ebd 77c3 793d
00000370: 165d 0a3d c4ea 2fbd b6c6 b6bd bac2 89bd
00000380: 8f89 84bd 4173 cbbd eb04 773d 3845 8d3d
00000390: 2fde cb3d 8dbc a33d f27c 843a 2a91 75bc
000003a0: 6ce2 0dbd 114f 173d 446b 393b 0a1f 973d
000003b0: e49e cabd db20 0f3d 4ad0 093d 6e6f 9fbd
000003c0: 8682 db3d 4c52 c8bd d4f2 fb3c 9b05 b7bd
000003d0: 8488 d63d 4f7d 8abd c2b7 643d 1057 d8bc
000003e0: 6e16 a73d 0d21 f2bd 17e7 3bbd ca12 e73d
000003f0: 0b39 a2bd 19e0 e83b 43ef d43d f29f 4fbd
-0.018042935 -0.00900985 0.008140265 0.07228993 0.015590022 0.121820204 -0.0398094 -0.119072534
0.05369121 0.013832422 -0.020950459 0.0057104686 0.0071314564 -0.054816082 0.120012045 0.05570546
0.09247406 0.014333156 -0.07444372 -0.075469844 -0.039679404 -0.07635386 0.07886348 0.03334764
-0.03692955 -0.11032893 -0.07935367 0.078615986 -0.007892773 -0.0864534 -0.028571874 0.09791845
-0.009651676 -0.08629818 -0.052657194 0.06473394 -0.01562614 0.13571928 0.039641988 0.101159625
-0.09988811 0.11449545 -0.01399704 0.06785078 -0.032225396 -0.07533721 0.05753356 0.007865087
0.043199696 -0.0987282 0.06327617 -0.07570925 0.10776775 -0.057648387 -0.042217914 0.065390415
-0.07110739 0.1379292 0.1227456 0.04300282 -0.023907727 0.11054258 0.01625133 -0.007342199
-0.084314756 -0.09454727 -0.120036766 -0.07751996 -0.045212854 -0.09523849 0.06694252 0.10442301
0.08005131 0.08225416 -0.07546632 0.095273465 -0.035813328 -0.06802602 0.07208257 0.10117982
0.052919168 0.017598506 0.0224639 0.05721408 0.024829647 0.1048883 -0.068055585 -0.033758912
0.025230415 -0.11797969 -0.04964835 0.10999777 0.048541788 0.01886373 -0.04674199 0.04208713
-0.08292295 -0.07267473 -0.057614893 -0.049155485 0.11323129 0.06693313 -0.014888042 -0.035632562
0.1241265 0.053915933 0.039880596 0.122692816 0.049903445 -0.08983048 0.11449676 -0.03723925
0.062271554 0.050724383 -0.118022405 0.060550623 0.10528181 -0.05217562 0.07722485 0.037870895
0.09174351 -0.06674392 -0.10042515 -0.102765866 0.08587464 0.08299332 -0.036661033 -0.107479
0.10426938 -0.08178424 0.08335657 -0.06601406 0.0337311 -0.09803489 -0.07987776 -0.06124286
0.029942557 0.062308326 -0.11162335 0.030367635 0.100534566 -0.03833403 0.081744306 -0.044051994
-0.055247653 0.11330014 -0.05487173 -0.04870349 0.012316528 -0.02911633 0.024133774 0.035613265
0.07530909 0.10316896 0.10875263 0.055542726 0.12388029 -0.08804239 -0.03875887 0.062557556
0.04338963 -0.03602522 0.08675624 -0.10439113 0.04300037 -0.021338658 -0.11445802 0.08617992
-0.02644625 0.095014475 -0.013980927 0.09166419 0.012609124 -0.0295886 0.049813572 -0.046651285
-0.028607592 0.0775912 -0.098534904 -0.009972281 -0.014852399 -0.043152113 -0.013541722 -0.045499455
0.045727886 0.0037781529 -0.03455608 -0.067275405 0.12259941 0.09251735 -0.06298755 0.0791338
0.07122972 0.023984272 -0.0952056 -0.12208384 0.024004139 -0.08344225 0.12620561 0.017827023
-0.10588047 -0.10074181 -0.059271432 0.10265752 0.08249217 0.13079023 0.058958367 0.062519945
-0.0958665 0.048820615 0.07842907 -0.010942207 -0.116908565 0.022214498 0.0533615 0.024866506
0.10395828 -0.0021388577 -0.03483073 0.060977425 0.03378018 -0.0429485 -0.0892462 -0.06726594
-0.0647155 -0.09934092 0.060307425 0.06897968 0.099544875 0.079949476 0.0010108037 -0.014988223
-0.03463976 0.036940638 0.0028292695 0.07378967 -0.09893587 0.034943443 0.033645906 -0.077849254
0.10718255 -0.09781322 0.030755438 -0.08936616 0.10475257 -0.06762182 0.055839308 -0.026408702
0.08158575 -0.1182271 -0.04587468 0.112828806 -0.07921036 0.0071067926 0.10397198 -0.050689645

rnn.bias_ih_l0 f4 [64]
00000000: 685b f6bc 3b67 073e 5f11 82bd dd90 b5bd
00000010: 549a cdbc f63b 9a3d c292 b8bc fe6d 9f3d
00000020: bbbe 7f3d e9a3 033e 83f1 223d 63ab 003e
00000030: 790d a33b 0a16 57bd 95e4 e03c 6438 7d3d
00000040: a2de b4bd 2c22 52bd d192 783d 5e97 92bd
00000050: 29ed fa3d 49eb 653c 8758 1abd 32cd b4bc
00000060: ef36 b6bc 28e9 febd afe1 743c 03dc 163d
00000070: 2b6a b13d 0070 503d 3470 3abb 6b62 da3d
00000080: d809 143d a4c4 ac3d 1683 193d 7ce9 e2bd
00000090: a8d0 0ebb 4b85 6ebd cde0 84bc 2c16 853d
000000a0: 96a5 4ebd 885c f4b9 fec4 3a3c 54d3 9abd
000000b0: eb8a bc3d 89d7 c4bd 7e22 043e 3216 dc3d
000000c0: 5365 f7bd e53c 633b fe37 66bc 245c 423d
000000d0: 7633 2bbd 0631 9c3d 0923 8b3d 7b33 8cbd
000000e0: c347 d5bd 40b3 84bd 6c38 0e3d f14b 273d
000000f0: 43c6 a3bd 200c f8bc 40c6 c6bd f839 b6bd
-0.030072883 0.13222973 -0.063509695 -0.08865521 -0.025098003 0.07530968 -0.022530917 0.07784651
0.062437754 0.12855496 0.039781105 0.12565379 0.0049759713 -0.052511252 0.027452746 0.061821356
-0.08831526 -0.05130212 0.06068689 -0.07157777 0.12252266 0.014033147 -0.037682083 -0.022070501
-0.022242991 -0.12446815 0.014946385 0.036830913 0.08662828 0.05088806 -0.0028448226 0.10663303
0.0361422 0.08435944 0.03747853 -0.1107969 -0.002179185 -0.058232587 -0.016220475 0.064983696
-0.050450884 -0.00046608248 0.011399506 -0.07559839 0.09206184 -0.096114226 0.12903783 0.10746421
-0.12079873 0.0034673747 -0.0140514355 0.047451153 -0.041797124 0.07626538 0.06793792 -0.068457566
-0.10414078 -0.06479502 0.034721777 0.040843908 -0.079968 -0.03027922 -0.09705782 -0.088977754

rnn.bias_hh_l0 f4 [64]
00000000: f0c0 97bd ee2c 8b3d 080f e4bd 1756 393d
00000010: aeb1 d8bd 78c1 a53b a0a5 9ebc 748b b83d
00000020: db04 63bd 3a67 f33d dd3d 0dbd 941a c83d
00000030: 507e 473d d11c 08be 54b0 443d 452d 443d
00000040: f32f 84bd 547b 3fbd 9532 61bd 5d16 b33d
00000050: 2a30 43bd 5d35 7a3d 79c0 3fbc 912b ffbc
00000060: f774 a8bd aa93 cabd 63f1 3a3c 4582 b13d
00000070: 060c 89bd 9111 a2bd 4ff5 ebbd 43e2 673b
00000080: abd0 773d c267 513d ef1e db3d d22f a63d
00000090: 81a9 a8bd 36d2 c9bc 7839 9b3d 0bac d73d
000000a0: 96be d53d 7a43 083d fa4e 213e af3f 64bc
000000b0: 41cb 06be 4ac2 983d 4f3b ec3c 5ce6 92bd
000000c0: 1f9f 683d a33a afbc 49c0 b63d c6a4 28bc
000000d0: 6284 763d 2681 773d d218 bfbc 1b8e a0bd
000000e0: 9bb1 f93d fcbc 3ebb 924b 3cbb eca1 7bbd
000000f0: 1727 63bd 16af e7bd b38a b8bd 7093 f53c
-0.07409847 0.06795679 -0.111356795 0.045248117 -0.10580765 0.0050584637 -0.019366086 0.090109736
-0.055424552 0.11884923 -0.034482826 0.097706944 0.048704445 -0.13292243 0.048019722 0.047894735
-0.06454458 -0.046748474 -0.05497988 0.087445 -0.047653355 0.061086047 -0.011703604 -0.031148704
-0.08225434 -0.09891446 0.01141009 0.08667425 -0.066917464 -0.07913507 -0.11521398 0.0035382665
0.060501736 0.05112434 0.106992595 0.0811459 -0.08235455 -0.02463637 0.07579321 0.105308615
0.10436742 0.033267476 0.15752783 -0.013931199 -0.13163473 0.07458933 0.028836874 -0.07172844
0.056792375 -0.021390265 0.08923394 -0.010293191 0.060184844 0.0604259 -0.023327265 -0.078396045
0.12192079 -0.0029104343 -0.0028731567 -0.061433718 -0.0554572 -0.11312692 -0.0901083 0.02997753

fc1.weight f4 [64, 64]
00000000: e032 e93c 08cd bf3d 00b9 763c 2003 0fbc
00000010: ea8d ab3d dca9 b9bd 8e6e e2bd 6c2a da3d
00000020: e676 a1bd 8055 ab3b 2824 8fbd 00e4 2039
00000030: 5a6b cbbd e048 fc3b 9a98 dc3d ac1c 54bd
00000040: 80d6 45bb b057 343d 62d3 e6bd 483c e53d
00000050: 1c8a e83d c0b4 b4bd eafe ad3d a000 4a3c
00000060: 00c6 4e3d 58e8 0dbd 04d2 a5bd bc4e dabd
00000070: 28e2 dc3d 30db b43c b4c5 a2bd e6aa 923d
00000080: 3a85 e63d 4cb1 3bbd 1896 ad3c 8eab fcbd
00000090: 867b a63d e0c1 9d3b 4cd5 ec3d 701f 6abc
000000a0: c0b7 dcbd c87e ea3d 8ca2 6f3d 7cd7 debd
000000b0: 10b8 c6bd ac45 03bd 809d e33b e0a3 a93d
000000c0: c083 493b 08e8 123d b215 c4bd 44b4 193d
000000d0: 9023 643d 5608 b0bd ece3 38bd 08e5 3f3d
000000e0: b425 24bd ac43 d9bd 96f2 bebd f0a4 0d3c
000000f0: a4f4 ecbd c0dd 58bd aeb3 dbbd 0cc5 c2bd
00000100: 30b8 613c b021 83bc 34a4 9dbd c413 9ebd
00000110: 7cf0 bcbd be41 9bbd b08a 853d 2678 e23d
00000120: 94f4 0cbd 6819 9e3d 7297 94bd 00c5 553c
00000130: c01b dc3c 907f 5fbc 00ff 61bc 4ce3 0c3d
00000140: 183d 2abd 48da cbbc 5027 b23d 20aa afbd
00000150: 9485 833d 7c53 c63d a02c 4f3d e666 87bd
00000160: c0a9 4a3b 62d2 a53d c40b 9cbd cc8a 2abd
00000170: 4699 9dbd c491 e63d 3c0f d43d a854 c1bd
00000180: 6a7d ea3d 101c 263d 0833 97bc eec6 c43d
00000190: bcff 833d 7a50 febd 2c2c 7f3d cc0f 833d
000001a0: 3a17 f2bd 2c25 a53d e6bc f73d da52 d03d
000001b0: e073 a33c a4b5 a9bd 2e20 debd b80e bd3d
000001c0: 6a41 973d c4ff d6bd 1cf8 ca3d a83d 57bd
000001d0: e6ed fa3d d89f b93c bc94 06bd 6208 e03d
000001e0: 9e75 e83d 00a0 ec3c f0dd f4bc d658 9c3d
000001f0: dc37 debd ccd5 543d f030 253d 4014 773c
00000200: d27e bd3d 24f0 9c3d 10a1 c3bd fc4c cebd
00000210: 18d7 fa3c a811 b8bc 7cf5 9cbd 44e4 85bd
00000220: a060 b9bb 544c 27bd d827 d83c 884c f5bc
00000230: 504f 64bc 4041 abbd a861 5a3d 6eb6 bdbd
00000240: 3ebc 91bd 66fa e9bd 6053 d83b c0c1 1c3d
00000250: 021e f8bd 20e7 aa3c debd fdbd e07f d13c
00000260: c803 a33c 9446 293d e839 023d 64c6 64bd
00000270: 3a8c fe3d 380d 9dbc 5a2f dcbd e01e 873c
00000280: 94a8 773d 2e0b af3d 14aa 3dbd f0d7 94bd
00000290: 5c0f 103d 1c7d 93bd f065 b0bd 7c89 813d
000002a0: 0020 b3bb b8ca de3d 40a0 c43c 94a7 3cbd
000002b0: 18b5 c6bd 909c 3ebd e211 8fbd 760b b23d
000002c0: 5e59 f1bd d2c9 fb3d 04de 8ebd 244c e43d
000002d0: c404 573d 0a52 c13d 6ed5 f03d 0203 823d
000002e0: 7cbc a8bd 84a7 6cbd 9a03 9f3d 1a82 d73d
000002f0: a418 89bd 26bc babd 62e8 8c3d 506d e1bd
00000300: 3861 cabd b0f3 073d 7c7c 8bbd a41d 2ebd
00000310: c454 dc3d f0bf d93c e8e8 e03c 5488 bebd
00000320: e8e5 ccbc f488 933d c0b5 be3b 228d bf3d
00000330: 222b 94bd a82c 68bd 80a1 cc3c ac11 793d
00000340: f4f8 d8bd 00a2 98bb a03e bdbb a804 d8bc
00000350: 6207 db3d 506f d5bc 2e4e e8bd 9276 dd3d
00000360: e622 d83d 2e38 83bd 70b7 f13c 4229 b3bd
00000370: 5c7a c43d 08f7 d7bc 9e5d b0bd aa7a adbd
00000380: 508e bb3c 0040 2b3c 50a3 273c 6006 b43d
00000390: 6008 2dbc 424d 953d 4063 f53c 78d7 a3bd
000003a0: c0b5 b4bc d456 f13d e677 c4bd 38c4 863d
000003b0: b27a e1bd c05f 70bd 22a3 b03d 105a b43d
000003c0: 2622 99bd 68e8 803c 601e a5bc d0bd 9d3d
000003d0: c07a d2bc 5a24 babd 1060 f43d f0b9 b5bd
000003e0: 10ba 63bd 8020 f23a aa02 ffbd 309c 30bc
000003f0: 8ea9 84bd 7856 16bd 70c7 66bc 9004 debc
0.028466642 0.093652785 0.015058756 -0.008728772 0.08376677 -0.09065601 -0.11056243 0.106526226
-0.07884006 0.0052286983 -0.06989318 0.00015343726 -0.09932585 0.007699117 0.10771294 -0.051785156
-0.0030187666 0.044028938 -0.11270787 0.11193138 0.11354467 -0.08823538 0.084958866 0.012329251
0.050481796 -0.03464541 -0.08096698 -0.10659549 0.107853234 0.022077173 -0.07947865 0.071615025
0.1125588 -0.04582338 0.021189734 -0.12337409 0.08129029 0.0048143715 0.11564121 -0.014289722
-0.10777235 0.11449963 0.058504626 -0.10880944 -0.09703076 -0.032048866 0.0069462657 0.0828321
0.0030748695 0.035865813 -0.095744506 0.03752543 0.055697978 -0.0859534 -0.04513924 0.04684928
-0.04007502 -0.106086105 -0.09323613 0.008645281 -0.11570099 -0.052945852 -0.107276306 -0.0951024
0.013776824 -0.016007274 -0.07697335 -0.07718614 -0.09225556 -0.07580899 0.06520593 0.11058073
-0.034412935 0.077196896 -0.072554484 0.013047457 0.026868701 -0.013641253 -0.013793707 0.034396455
-0.04156217 -0.024884358 0.086989045 -0.08577371 0.064219624 0.09683892 0.050579667 -0.06611423
0.0030923933 0.08096768 -0.076194316 -0.041636273 -0.0769525 0.11258271 0.10354468 -0.09439975
0.11449702 0.040554106 -0.01845695 0.09608255 0.06445262 -0.124176934 0.062297985 0.063994974
-0.11820836 0.080637306 0.120965764 0.10172053 0.019952714 -0.08286598 -0.108459815 0.09231323
0.073855236 -0.10498002 0.09910604 -0.052549034 0.12252407 0.022659227 -0.032856688 0.10939099
0.11350559 0.028884888 -0.029890984 0.076341316 -0.10850498 0.051961705 0.040329874 0.015080512
0.09252705 0.07662991 -0.095522046 -0.10073277 0.030620143 -0.022469357 -0.0766401 -0.06537679
-0.0056572706 -0.040844277 0.026386186 -0.02994372 -0.013934925 -0.08362055 0.05331579 -0.09263311
-0.071159825 -0.11424713 0.006601736 0.038270712 -0.121150985 0.020862162 -0.1238973 0.02557367
0.019899264 0.041327074 0.031793505 -0.055853263 0.1242909 -0.019171342 -0.10751219 0.016494215
0.060463503 0.08547054 -0.046304777 -0.07267749 0.035170898 -0.07201597 -0.08613193 0.06325051
-0.005466461 0.10878509 0.024002194 -0.046058252 -0.0970251 -0.04653603 -0.06985833 0.08693592
-0.117846236 0.122943535 -0.0697594 0.11147335 0.05249478 0.09439476 0.117594585 0.0634823
-0.082390755 -0.057776943 0.07764359 0.10522862 -0.06694153 -0.09117918 0.06880261 -0.11007178
-0.09881824 0.033191383 -0.06810853 -0.042508736 0.10758355 0.02658078 0.027454808 -0.09303346
-0.025011972 0.07203856 0.005820006 0.09353091 -0.072347894 -0.056683213 0.024979353 0.06080787
-0.10594359 -0.004657984 -0.0057752877 -0.026369408 0.106947675 -0.026054054 -0.113430366 0.10813631
0.10553531 -0.064072 0.029506415 -0.08748104 0.09593651 -0.02636291 -0.08611606 -0.08470662
0.022895008 0.0104522705 0.010231808 0.087902784 -0.010561079 0.072901264 0.029954553 -0.08000082
-0.022059321 0.11784139 -0.09593181 0.065803945 -0.110097304 -0.058685064 0.08624865 0.088062406
-0.074772164 0.01573582 -0.020156085 0.077022195 -0.025693297 -0.09088965 0.11932385 -0.088733554
-0.055597365 0.001847282 -0.1245168 -0.0107794255 -0.064776525 -0.036703557 -0.014085636 -0.027101785

fc1.bias f4 [64]
00000000: f8a7 fdbd 3018 67bd 00ce 78ba 3c2e 56bd
00000010: 08a2 873c 4e46 d4bd 807e 78bc 40b0 383c
00000020: a69f 863d f228 f53d 8060 493c 1043 1e3c
00000030: 4869 1f3d 8c78 b1bd b0a1 273c ccf9 733d
00000040: 281c 843d 0a33 d93d 48a6 b9bd 60f7 a73b
00000050: e04d e33b 6093 53bc 7a4c ed3d 980f 40bd
00000060: 089c aabc 6038 a93b f073 fabd 40b5 0d3c
00000070: a09e 49bd 00c9 423a fc63 e23d 7c3e 303d
00000080: d0d5 623d 406d 54bb 9a71 cdbd b82f 803d
00000090: 00b6 b6bb 800a 903b 4a98 dd3d e847 4e3d
000000a0: fedc d1bd 30e6 e5bc 2016 d33b c272 f3bd
000000b0: d80e 9bbd 181f fc3c 6010 7fbd 1875 403d
000000c0: 346f e5bd f42a 76bd 48cb 00bd 3620 92bd
000000d0: 8262 89bd 10f0 37bd 3294 c3bd 8cd6 c1bd
000000e0: 9670 bc3d d019 50bd 9007 e9bd c81b 80bc
000000f0: e01a 96bd b012 1ebc a8ae d3bd eebd fc3d
-0.12385553 -0.05641955 -0.00094911456 -0.052290186 0.016556755 -0.10364972 -0.015166879 0.01127249
0.06573419 0.119707 0.012291074 0.009659544 0.038918763 -0.086655706 0.01023142 0.059564397
0.06450683 0.10605438 -0.09064919 0.005125925 0.0069367737 -0.012913555 0.11586852 -0.04688987
-0.020826355 0.005164191 -0.122291446 0.00864917 -0.049223542 0.0007430464 0.11054227 0.04302834
0.05537969 -0.003241375 -0.100314334 0.06259102 -0.0055758953 0.004395783 0.108200625 0.050361544
-0.10247229 -0.028063864 0.0064418465 -0.11887123 -0.075711906 0.030776545 -0.062271476 0.04698667
-0.11202851 -0.060099557 -0.031443864 -0.0713505 -0.06708242 -0.044906676 -0.095497504 -0.0946475
0.092011616 -0.050805867 -0.113783956 -0.015638247 -0.07329345 -0.00964801 -0.103360474 0.12340914

fc2.weight f4 [2, 64]
00000000: 4751 04bc 2a38 91bd a1b4 a83d 7451 bb3d
00000010: 15cb bd3d 3156 083c 67f6 e0bd 6375 c23d
00000020: d2e9 223d 0568 ddbd 874a 413b f72f d73a
00000030: 8879 143d 9ddc 523d f20f 593d 03de 203d
00000040: 98d4 f5bc 3add 07bd 2903 b73c 1956 b73d
00000050: b503 fe3c 1884 c63d bb27 dcbc cece 393d
00000060: c243 ea3d efd2 ef3c e4c0 ed3c 5036 c3bd
00000070: 7802 bebd 4d0d 46bd b510 5d3d 5ae2 493c
00000080: 9175 003c 6676 06bd 4ad8 93bd d3df c53d
00000090: a89a 943d 4ae7 55bd b8ee dabd fa59 debd
000000a0: 8192 e83c cc88 333d 9c7e b43d 143d 4c3d
000000b0: 14da d73d 5171 c1bd 3f92 fabd ff69 ed3d
000000c0: ade0 223c be82 c93d 4b78 f4bc 0797 623d
000000d0: b441 b7bd 76e1 b53d 32a5 cabd d9d3 803d
000000e0: 70ad 073d 5f78 a23d 3cd4 b13d 4fd1 edbd
000000f0: 85d7 303d 3fa5 66bd b14d debd edc4 c43c
00000100: e4b7 943d f274 a33d f2bb 76bd ae75 a9bd
00000110: 0218 0bbc 4f2b 5c3d eae2 4abd f815 ce3d
00000120: a7be 043e e3c4 dc3d d0fd 823d bcce 17bc
00000130: 0153 bbbd ee23 22bd 3942 cdbd 8265 41bd
00000140: 5a88 39bd 378c 63bd 3c3c d5bd af97 013e
00000150: 9d4f ae3d d480 e5bd 46d0 b9bd b5b2 bc3b
00000160: 828c bebd a59b 823c 740e 06bd 9671 3c3c
00000170: acfd 72bd fb00 ccbd a83b 1dbd 2021 82bd
00000180: 3319 bd3d 43f1 95bd 6141 d7bd d21d 9bbc
00000190: a4c8 09bd 4eaf 5abc c289 403d fa54 d23d
000001a0: 7f4e d3bd 084a 8abd c870 4a3d d2ad e5bd
000001b0: 88c8 683d 93eb bf3c dc26 8f3a 192b 8c3d
000001c0: 5afb 333d d00b 32bd 0e54 833d 0dcd 74bd
000001d0: c81f cc3d 0c9c 1ebd f68b 0fbd 73a7 6a3d
000001e0: b2e9 29bd 8afb c2bd e473 793c 092e 6ebd
000001f0: b647 ec3d a7e8 d4bd 4d58 ac3c 63ad 45bc
-0.008076019 -0.070907906 0.08237577 0.09146395 0.092672504 0.008321331 -0.109844975 0.09495046
0.03977377 -0.10810856 0.0029493885 0.0016417493 0.036248714 0.051479924 0.052993722 0.039274227
-0.0300086 -0.033169962 0.022340374 0.08951969 0.031007627 0.09693164 -0.026874414 0.04536324
0.11438705 0.029275386 0.029022641 -0.09531844 -0.092778146 -0.04835253 0.05397101 0.012322033
0.00784053 -0.032827757 -0.07218988 0.09661832 0.07256061 -0.052222528 -0.10690063 -0.108570054
0.028390171 0.04383163 0.08813211 0.049862936 0.10539642 -0.094454415 -0.122349255 0.11592483
0.009941262 0.0983939 -0.029842516 0.055319812 -0.08948079 0.08880894 -0.0989479 0.06290407
0.033124387 0.07933115 0.086830586 -0.11612188 0.043174285 -0.056309935 -0.10854662 0.024019683
0.07261637 0.0798129 -0.060237832 -0.08274399 -0.008489611 0.05375224 -0.04953281 0.10062784
0.12963353 0.10779741 0.06396067 -0.009265598 -0.09146691 -0.039585046 -0.100223966 -0.047215946
-0.04529605 -0.05555364 -0.104118794 0.12655519 0.08511279 -0.11206213 -0.09072928 0.005758608
-0.093041435 0.015943358 -0.032728627 0.01150169 -0.05932395 -0.099611245 -0.03838697 -0.06353974
0.09233322 -0.07321408 -0.10510517 -0.018935118 -0.03363861 -0.01334746 0.047006376 0.10270114
-0.10317706 -0.067524016 0.049423963 -0.11214794 0.056831867 0.02342776 0.0010921615 0.06844158
0.04394088 -0.043468297 0.064125165 -0.059765864 0.09966999 -0.038723037 -0.035045587 0.0572886
-0.041482635 -0.095206335 0.015225384 -0.05814937 0.11537115 -0.103959374 0.021038199 -0.012065264

fc2.bias f4 [2]
00000000: a469 ae3d fdd6 8abd
0.08516243 -0.06779287
