models/10second_final.pth (torch, 274651 bytes, 10 tensors)

rnn.weight_ih_l0 f4 [64, 862]
0	0x3d1b5986	0.037927173
1	0x3db5ffdc	0.08886692
2	0xbdae130a	-0.08499725
3	0xbd93287e	-0.07185458
4	0xbdbb02d2	-0.09131397
5	0x3da3b7d0	0.07994044
6	0x3c27dfa6	0.010246193
7	0xbd4136dd	-0.047171462
8	0x3d86c352	0.06580223
9	0xbdfc182c	-0.12309298
10	0x3d8f3d0b	0.06994065
11	0xbda02c24	-0.07820919
12	0x3da886e8	0.08228856
13	0x3d6c8531	0.05774421
14	0x3d97b490	0.074074864
15	0x3cfb4ad9	0.030675339
16	0xbda1fe30	-0.079098105
17	0xbdae540a	-0.08512123
18	0x3db87b4e	0.090078935
19	0x3cb7ade6	0.022421788
20	0xbdb4cc10	-0.08827984
21	0xbb09b035	-0.0021009569
22	0xbb824fe3	-0.0039768084
23	0xbd9ebe69	-0.077511616
24	0xbcf5543f	-0.029947398
25	0x3d897168	0.06711084
26	0xbd82e28d	-0.063908674
27	0x3ce1c010	0.027557403
28	0xbdf0a256	-0.11749713
29	0x3d703c2b	0.05865113
30	0xbdde1d42	-0.10845424
31	0x3dd76918	0.10518092
32	0xbdf59675	-0.11991588
33	0x3d11b59a	0.03557358
34	0x3d6ce1a3	0.05783237
35	0x3d990477	0.07471555
36	0xbdf1b899	-0.11802787
37	0xbcc1f6cf	-0.023677258
38	0x3d6726c2	0.056433447
39	0x3cfb9f6c	0.030715667
40	0xbcc06db6	-0.023489814
41	0xbd9e2b03	-0.077230476
42	0xbd8da1d5	-0.06915633
43	0x3d85ced6	0.065335914
44	0xbcd8dfbf	-0.026473878
45	0x3d13116b	0.035905283
46	0x3c0fc103	0.008774045
47	0x3ddfe516	0.109323665
48	0x3cf0c479	0.02939056
49	0xbbd34b21	-0.006448165
50	0xbc4ba85e	-0.012430279
51	0xbdb028d9	-0.08601541
52	0xbc85f502	-0.01635218
53	0xbd20e10e	-0.03927713
54	0xbc6fc1bf	-0.014633595
55	0xbdd24bcf	-0.102683656
56	0x3dacfdb8	0.084468305
57	0x3db0aa73	0.086262606
58	0x3d8b6ee3	0.06808259
59	0x3dfc0e78	0.12307447
60	0x3c8e1da9	0.017348127
61	0x3b69553c	0.0035603782
62	0xbd05b8ea	-0.03264705
63	0x3ce4832d	0.02789458
64	0x3d955f78	0.072936
65	0x3cbd9972	0.023144457
66	0x3c5b3da4	0.0133813955
67	0xbd2bdca0	-0.04195845
68	0xbcafca26	-0.021458697
69	0x3cc8f6e6	0.024531793
70	0xbcb1b25b	-0.021691492
71	0x3dc53aaf	0.09630334
72	0x3ce5e0d4	0.028061308
73	0x3ddf6f06	0.10909848
74	0xbd951bf2	-0.07280721
75	0xbd424a09	-0.047433887
76	0xbdf2fca4	-0.118645936
77	0x3d9ce70c	0.07661256
78	0xbc7888ac	-0.015169304
79	0xbd6a2be3	-0.05717076
80	0xbe00edcd	-0.12590714
81	0xbc6010cd	-0.013675881
82	0xbcfe5320	-0.031045496
83	0x3d4449a4	0.04792179
84	0x3d2f8595	0.042852003
85	0xbd5e3827	-0.05425277
86	0x3d8d5645	0.0690122
87	0xbddc6bd8	-0.10762757
88	0xbda1216f	-0.07867705
89	0x3ddd34f7	0.10801118
90	0xbdddee16	-0.10836427
91	0xbc7f9ab8	-0.015600853
92	0xbdd4ec9c	-0.10396692
93	0xbd991621	-0.07474924
94	0x3df6cd89	0.120509215
95	0xbdf5b390	-0.119971395
96	0x3a5e8b80	0.0008489415
97	0x3d83b2bc	0.06430575
98	0xbdb4e3c3	-0.088325046
99	0xbb37b2e7	-0.0028030218
100	0x3dbb7931	0.09153975
101	0xbde4973e	-0.1116166
102	0x3daf6337	0.085638456
103	0x3d1916e8	0.03737536
104	0xbc157bc9	-0.009123751
105	0x3d8f0e45	0.069851436
106	0x3d9b040a	0.0756913
107	0x3ce180c8	0.027527228
108	0x3d3d8d91	0.046277586
109	0x3b2da7e4	0.0026497776
110	0xbd8d3124	-0.068941385
111	0xbdaab7db	-0.08335849
112	0x3d2e76b8	0.042593688
113	0xbdc42a77	-0.09578412
114	0xbc909561	-0.017649354
115	0xbde98b11	-0.11403478
116	0x3decee36	0.11568873
117	0xbd9d767c	-0.07688615
118	0xbd87bafb	-0.066274606
119	0xbd8de619	-0.06928653
120	0xbd35b8a0	-0.044365525
121	0x3d96b64c	0.07358989
122	0xbc21d8dc	-0.009878363
123	0x3cb7b882	0.022426847
124	0x3dcd7fa6	0.10034113
125	0x3de87c3f	0.11351823
126	0x3ddd5064	0.10806349
127	0xbd890108	-0.0668965
128	0x3db424b6	0.087960646
129	0x3de6c620	0.11268258
130	0xbdb77d71	-0.08959473
131	0xbd9d019d	-0.07666323
132	0x3ba93b3f	0.0051645334
133	0xbdcda135	-0.100405134
134	0x3b693950	0.003558714
135	0x3d8ae2ac	0.067815155
136	0xbe00c4b4	-0.12575036
137	0xbcb0e2e7	-0.02159257
138	0x3d92ad54	0.07161966
139	0xbc382d21	-0.011241228
140	0xbda0ad05	-0.07845501
141	0x3d3e06ef	0.04639333
142	0xbcf797e8	-0.030223802
143	0x3d81b323	0.06332996
144	0x3c416441	0.011803688
145	0x3dbbd796	0.09171979
146	0xbc6047de	-0.0136890095
147	0xbc8c17dd	-0.017101223
148	0x3d802d2b	0.06258615
149	0xbdba0c90	-0.09084427
150	0x3dae805d	0.08520577
151	0x3df0e271	0.1176194
152	0xbdc6aa84	-0.09700492
153	0xbca08277	-0.01959346
154	0x3dc62cfb	0.09676548
155	0x3d317a51	0.04332954
156	0x3dc929bf	0.098224156
157	0xbcbbf187	-0.022942318
158	0xbc6be6f5	-0.014398326
159	0x3d6cd806	0.057823204
160	0x3de6fa66	0.112782285
161	0xbdeabc58	-0.11461705
162	0xba878289	-0.0010338585
163	0xbce9266a	-0.0284607
164	0xbda8b6c9	-0.082379885
165	0x3d12cbdc	0.035838947
166	0x3dbcd2fb	0.09219929
167	0xbc6f36f9	-0.014600509
168	0x3d4f1460	0.05055654
169	0xbcd951f6	-0.02652834
170	0x3bc523e5	0.006016242
171	0x3dbcfa12	0.092273846
172	0x3da1d45d	0.07901833
173	0x3d67af06	0.0565634
174	0xbde81eb3	-0.113339804
175	0xbd9c33a4	-0.07627037
176	0xbd48ce1e	-0.049024694
177	0x3da9de34	0.08294335
178	0xbd06268a	-0.032751597
179	0xbd852e9d	-0.065030314
180	0x3d9bc3a4	0.07605675
181	0xbc975e28	-0.018477514
182	0x3dc57b24	0.09642628
183	0xbdaa214d	-0.08307133
184	0xbc41c38a	-0.011826405
185	0x3de995e6	0.11405544
186	0xbd37a3e8	-0.044834048
187	0xbdd9f1a5	-0.10641793
188	0x3da5524a	0.08072336
189	0x3da3f1bd	0.08005092
190	0x3d57210a	0.052521743
191	0x3e04cad0	0.12967992
192	0xbda931da	-0.082614616
193	0xbd2c62e7	-0.042086508
194	0xbde18b76	-0.11012928
195	0x3db83032	0.089935675
196	0xbcd4d98b	-0.025982639
197	0x3daedaab	0.08537801
198	0xbdd6e827	-0.10493498
199	0x3dc00190	0.09375298
200	0xbde40847	-0.11134391
201	0x3daa9b4a	0.083304
202	0xbdabcccc	-0.08388671
203	0xbd618522	-0.055058606
204	0xbdc20d43	-0.09475186
205	0x3cede8f8	0.029041752
206	0x3d7da28a	0.061922587
207	0xbdd922f2	-0.106023684
208	0xbe0f6af5	-0.14005645
209	0x3d7f836a	0.062381186
210	0xbcf3817d	-0.02972483
211	0xbdcc5b71	-0.099783786
212	0x3daf33dd	0.08554814
213	0x3cd230d6	0.025658052
214	0xbd9a40ac	-0.075318664
215	0xbd9ad542	-0.07560207
216	0x3a5041ff	0.00079444045
217	0x3dc085c9	0.094005175
218	0xbddf8c43	-0.10915425
219	0x3cca4d1f	0.024694977
220	0x3d599f93	0.053130697
221	0xbd1a2012	-0.03762824
222	0x3d91bd7b	0.07116219
223	0xbbdb4b8f	-0.006692357
224	0x3d4dc96e	0.050240926
225	0x3dc3f96a	0.09569056
226	0x3d12d8be	0.035851233
227	0xbd4893ec	-0.048969194
228	0x3d932442	0.0718465
229	0x3d89ce6d	0.06728826
230	0x3d8311aa	0.063998535
231	0x3daea7f0	0.08528125
232	0x3df6775a	0.12034483
233	0xbddf02b3	-0.10889187
234	0xbc35730d	-0.0110747935
235	0x3de08de1	0.10964561
236	0x3d822996	0.06355588
237	0xbdc6282b	-0.0967563
238	0xbd849621	-0.06473947
239	0x3bc043f1	0.0058674742
240	0xbcc3b0af	-0.02388796
241	0x3d8b90a2	0.06814696
242	0xbdadb482	-0.08481695
243	0xbdc1c938	-0.094622076
244	0x3d9b3c4d	0.07579861
245	0x3d51ca57	0.051218357
246	0x3aaa74d7	0.0013004792
247	0x3d43ce0e	0.04780393
248	0x3d9ee981	0.07759381
249	0x3d77290b	0.060341876
250	0x3c680a72	0.014162647
251	0x3d6b6d25	0.057477135
252	0x3db552c2	0.088536754
253	0xbd9385f5	-0.07203285
254	0xbdd73437	-0.10508006
255	0x3dccb069	0.09994585

rnn.weight_hh_l0 f4 [64, 64]
0	0xbd3e7e6f	-0.046507295
1	0x3cbd1af1	0.023084136
2	0x3a88885c	0.0010416615
3	0xbda43721	-0.080183275
4	0xbdae65c4	-0.08515504
5	0xbd9c530d	-0.07633028
6	0x3c2142dc	0.009842601
7	0xbd86e87c	-0.065873116
8	0xbde3fd32	-0.111322775
9	0x3c7512a2	0.014958056
10	0x3d75fda4	0.060056344
11	0x3d7764a9	0.06039873
12	0xbd93f623	-0.07224681
13	0x3cae819e	0.02130204
14	0x3cf34d2d	0.029699886
15	0x3dc88f9e	0.09793018
16	0x3ca14eaf	0.01969084
17	0xba1c7d98	-0.00059696427
18	0xbdc3c8e1	-0.09559799
19	0x3d836ffe	0.06417845
20	0xbd85e69f	-0.06538128
21	0xbbf03e47	-0.007331643
22	0xbddfe6ec	-0.10932717
23	0xbdef9da8	-0.116999924
24	0x3c560bb9	0.013064318
25	0xbd9ce1b3	-0.07660236
26	0x3e17f91f	0.14841126
27	0x3d2ef162	0.04271067
28	0x3df9d14b	0.121981226
29	0x3de5b077	0.112152986
30	0xbdf0d5ae	-0.11759506
31	0x3dcb622f	0.099308364
32	0x3dbc808d	0.092042066
33	0x3cca2310	0.024674922
34	0xbd3466a2	-0.04404319
35	0xbdb36474	-0.08759394
36	0x3d0776b9	0.033072207
37	0xbd87451e	-0.0660498
38	0xbccfd3ec	-0.025369607
39	0x3df73c3f	0.12072038
40	0x3d85e48d	0.06537733
41	0xbc601b4b	-0.013678382
42	0x3d93b68c	0.072125524
43	0x3de6b7d2	0.1126553
44	0xbdce6a19	-0.1007883
45	0xbd2d8979	-0.042367432
46	0x3cc861b6	0.024460655
47	0x3dd065b2	0.10175647
48	0x3dfe3d28	0.124140084
49	0x3ddfe570	0.109324336
50	0xbd118293	-0.035524916
51	0x3d2df67c	0.042471394
52	0xbc61ba26	-0.013777291
53	0x3d3159da	0.04329858
54	0x3d711783	0.058860313
55	0xbdfdddec	-0.12395844
56	0x3da71b86	0.081595466
57	0xbab70fa2	-0.0013966451
58	0xbd773294	-0.06035097
59	0x3d2e8605	0.04260828
60	0xbd37a606	-0.044836067
61	0x3c7c6774	0.0154055245
62	0xbb873984	-0.0041267294
63	0xbd8a38eb	-0.067491375
64	0xbd6683db	-0.05627809
65	0x3c9a2060	0.018814266
66	0xbda49221	-0.080356844
67	0xbe0ba31a	-0.13636437
68	0xbde509d5	-0.11183516
69	0xbd24773b	-0.04015277
70	0xbd8d7081	-0.06906224
71	0x3dc34ea1	0.09536482
72	0xbdc36a82	-0.09541799
73	0xbdd02287	-0.101628356
74	0x3df1c6ed	0.1180552
75	0x3d9bcd50	0.076075196
76	0x3da976f6	0.08274643
77	0xbd8d111d	-0.0688803
78	0x3bff7b7c	0.007796703
79	0x3cdf1db9	0.027235853
80	0x3df2d059	0.118561454
81	0x3d240cb4	0.040051177
82	0x3e00578a	0.12533394
83	0x3de0ea03	0.10982134
84	0xbd4c03fb	-0.049808484
85	0xbde1e31e	-0.11029647
86	0x3d80a830	0.06282079
87	0x3dc87c0a	0.097892836
88	0x3dbce279	0.09222884
89	0x3d1a8d17	0.03773221
90	0x3de49473	0.11161127
91	0xbdb71cfd	-0.08941076
92	0x3c9a1026	0.018806528
93	0xbc8221ef	-0.015885321
94	0xbde97af9	-0.11400408
95	0xbc0abb8a	-0.008467564
96	0xbd8b4a97	-0.06801336
97	0xbd20d0e5	-0.039261717
98	0xbd8fe180	-0.070254326
99	0xbc86cf0f	-0.016456155
100	0x3dbd5ba0	0.09245992
101	0x3d9cbdba	0.07653375
102	0x3e0576e5	0.13033636
103	0x3deae30d	0.11469088
104	0x3d537428	0.051624447
105	0x3d9f0061	0.07763744
106	0xbc3b41f8	-0.011429302
107	0x3dd89398	0.10575026
108	0x3c10a413	0.008828181
109	0x3d134b63	0.035960566
110	0xbe01158e	-0.12605879
111	0x3dea768b	0.114483915
112	0x3d58550a	0.052815475
113	0x3b71660e	0.003683451
114	0xbd5e4c64	-0.05427207
115	0xbe03b87d	-0.12863345
116	0x3cc4c6f1	0.024020644
117	0x3cf54b2b	0.02994307
118	0x3d993f4e	0.074827775
119	0xbd8d7459	-0.06906957
120	0xbde85f02	-0.11346246
121	0xbba989f3	-0.0051739155
122	0xbc9d032f	-0.019166557
123	0x3c067ab8	0.008207969
124	0x3dd3fa0f	0.10350429
125	0x3cc0a134	0.023514368
126	0xbd69fd97	-0.057126608
127	0x3e151be6	0.14561424
128	0x3d71ce32	0.059034534
129	0x3c3cd554	0.011525471
130	0xbd92e86d	-0.07173238
131	0x3de33366	0.11093788
132	0xbd5143ea	-0.05109016
133	0x3c98cd6e	0.018652644
134	0x3c489eb4	0.012244869
135	0x3c2f405f	0.0106965
136	0xbcdbfc12	-0.026853595
137	0x3dbb4112	0.091432706
138	0xbb8b83d3	-0.004257658
139	0xbe1629d4	-0.14664394
140	0x3c9b4e3d	0.018958205
141	0xbc9de867	-0.019275857
142	0xbd93ad86	-0.07210831
143	0x3c73fe20	0.014892131
144	0x3db08438	0.08618969
145	0x3e01a307	0.12659846
146	0x3bce1826	0.0062895
147	0x3db3cb27	0.087789826
148	0xbdeb2f34	-0.11483613
149	0x3dbde3d2	0.09271969
150	0xbd354a23	-0.044260155
151	0x3de8d47d	0.11368654
152	0xbdc0d64f	-0.09415876
153	0xbdfadc29	-0.122490235
154	0x3d940a64	0.07228544
155	0xbd77f88a	-0.06053976
156	0x3e08d548	0.1336261
157	0xb9a66939	-0.00031740384
158	0xbdb88eac	-0.090115875
159	0x3dc50abc	0.09621188
160	0x3dc5b10d	0.096529104
161	0x3db1a3d4	0.08673826
162	0x3d9dd28b	0.077061735
163	0x3d455cea	0.048184313
164	0x3b568ee6	0.0032738983
165	0xbdac5ede	-0.08416532
166	0x3dee7a35	0.11644403
167	0xbdff9317	-0.12479227
168	0x3d6bb3b4	0.057544425
169	0x3ddc33d7	0.10752075
170	0xbdb20966	-0.08693199
171	0xbd4d69f3	-0.05014987
172	0xbd0962d2	-0.033541508
173	0xbe215ce7	-0.15758096
174	0xbdf8c827	-0.12147551
175	0x3ca3f7f5	0.020015696
176	0x3cb41c87	0.02198626
177	0xbd6946eb	-0.0569524
178	0xbd14275e	-0.036170356
179	0x3dedef2c	0.11617884
180	0xbdbeaf06	-0.09310727
181	0xbdd93256	-0.10605304
182	0xbbdb7476	-0.006697233
183	0x3d2273bb	0.03966115
184	0x3dc53c33	0.09630623
185	0x3c633275	0.01386701
186	0xbd3e9d56	-0.046536766
187	0xbdfcf7b3	-0.123519324
188	0xbd1a9172	-0.037736364
189	0x3c904ed5	0.017615715
190	0xbd6a305c	-0.057175025
191	0xbcb3dbc8	-0.021955386
192	0xbd717289	-0.05894712
193	0xbde17e3d	-0.11010406
194	0xbde6d60b	-0.11271294
195	0xbd90d82b	-0.07072481
196	0x3c93ed27	0.018057419
197	0xbd4d295f	-0.050088283
198	0xbdda8d52	-0.10671486
199	0x3d9ffef7	0.078123026
200	0xbd1dc98e	-0.038522296
201	0x3de69505	0.11258892
202	0xbd749460	-0.059711814
203	0xbdd39315	-0.10330788
204	0xbd38fe63	-0.045164477
205	0xbc83cb5e	-0.016088184
206	0x3c1c2d7c	0.009532329
207	0x3dfc264a	0.123119906
208	0xbb1dfe86	-0.0024108007
209	0xbdc59456	-0.096474335
210	0xbd0e4fd8	-0.034744114
211	0xbdf19891	-0.11796678
212	0x3d251943	0.040307295
213	0xbd7c566a	-0.06160585
214	0xbe077aee	-0.13230488
215	0xbd0539c4	-0.032525793
216	0x3dd4412c	0.10363993
217	0xbdecdbbb	-0.11565348
218	0x3d19745e	0.037464492
219	0xbdafe452	-0.085884705
220	0xbc2010c3	-0.009769621
221	0x3c183a08	0.0092911795
222	0x3db2f65f	0.08738398
223	0x3cc46e06	0.023978245
224	0x3d55076c	0.05200903
225	0xbd9961a2	-0.07489325
226	0xbdde0f4a	-0.1084276
227	0xbcc8bf67	-0.02450533
228	0xbd40ad30	-0.047040164
229	0x3ded701a	0.11593647
230	0x3d84bb04	0.06480983
231	0xbba96aa4	-0.0051701833
232	0x3d761aa9	0.06008402
233	0xbdb754db	-0.08951732
234	0xbdb697cd	-0.089156725
235	0x3dee1fd0	0.116271615
236	0x3d757300	0.059924126
237	0x3dbd1164	0.092318326
238	0x3db3df48	0.08782822
239	0xbdc04b63	-0.09389379
240	0xbd93f620	-0.07224679
241	0xbd8b940f	-0.06815349
242	0xbdd1258c	-0.102122396
243	0x3b3c8394	0.002876495
244	0x3d9bd2cb	0.07608565
245	0xbda4d3e2	-0.08048226
246	0x3df31bd5	0.11870543
247	0xbd9e94c1	-0.07743216
248	0xbbed195f	-0.0072356905
249	0x3d9a7253	0.07541337
250	0xbdab005e	-0.083496794
251	0x3d36ce51	0.044630352
252	0xbd82f1b1	-0.06393755
253	0x3d99ef2e	0.07516323
254	0x3e065628	0.13118804
255	0xbe1d16b6	-0.15340695

rnn.bias_ih_l0 f4 [64]
0	0xbd37f3df	-0.044910308
1	0xbd6c77c9	-0.057731424
2	0xbdab9087	-0.08377176
3	0xbc7bd2e3	-0.0153701035
4	0xbc4494bc	-0.011998352
5	0xbbfd2998	-0.0077259056
6	0x3dcb4f23	0.099272035
7	0x3ba080a2	0.0048981467
8	0xbdc0e039	-0.09417767
9	0xbdc5830c	-0.09644136
10	0x3d964321	0.073370226
11	0xbc280612	-0.0102553535
12	0x3c309e09	0.010779866
13	0x3c1dca65	0.009630774
14	0x3dfe8ce5	0.12429217
15	0xbdd3ece6	-0.10347919
16	0x3d9d7faa	0.076903656
17	0xbde3d29f	-0.11124157
18	0xbdeb01ce	-0.114749536
19	0xbe113752	-0.1418126
20	0xbdc25638	-0.09489101
21	0x3d8c7008	0.06857306
22	0xbd2600bd	-0.040528048
23	0xbd0fe1b5	-0.03512736
24	0xbd1782ce	-0.03698998
25	0xbcf2ad30	-0.029623598
26	0x3d8df3ba	0.06931253
27	0xbd6f5896	-0.05843409
28	0x3d4785a1	0.048711423
29	0x3d9ba9f0	0.076007724
30	0xbdb447af	-0.08802735
31	0x3c6c3229	0.014416256
32	0xbd8bab5d	-0.06819794
33	0x3d5d5afb	0.054041844
34	0xbd94853a	-0.072519735
35	0xbd6d8fc1	-0.057998423
36	0x3d97f825	0.07420377
37	0x3d5c278c	0.053748652
38	0xbd3b9aa9	-0.045801792
39	0xbcf3c1af	-0.029755441
40	0xbdc54df3	-0.09634008
41	0x3bf1f6e1	0.0073841666
42	0xbdcd18ab	-0.10014471
43	0xbc8757b0	-0.016521305
44	0xbddbce05	-0.107326545
45	0x3e0cd65d	0.13753648
46	0xbdaf7108	-0.08566481
47	0x3db42b21	0.08797289
48	0xbd647123	-0.055771958
49	0x3daea42b	0.08527406
50	0xbdde778f	-0.10862648
51	0xbcaab421	-0.020837845
52	0xbe021f41	-0.12707235
53	0xbcad4411	-0.02115062
54	0xbc8dac1a	-0.017293978
55	0xbc587a7b	-0.013212795
56	0xbc0770f4	-0.008266676
57	0xbd75b5e2	-0.05998791
58	0x3d964697	0.07337683
59	0xbc86e379	-0.01646589
60	0xbdb53a23	-0.08848979
61	0x3e03125a	0.1279997
62	0x3d221be0	0.039577365
63	0x3db1a5fe	0.086742386

rnn.bias_hh_l0 f4 [64]
0	0xbcd89a8c	-0.026440881
1	0xbd9cc213	-0.07654204
2	0x3db646b7	0.089002065
3	0xbd9d1b03	-0.07671168
4	0x3c576618	0.0131469
5	0xbc39288d	-0.011301172
6	0x3d89c71b	0.067274295
7	0x3dad85ce	0.08472787
8	0x3d07c77c	0.033149227
9	0x3d866020	0.06561303
10	0xbd95c267	-0.0731247
11	0x3ca46b30	0.020070642
12	0xbd4357b5	-0.047691066
13	0xbda31d62	-0.07964589
14	0x3dfaf79f	0.12254261
15	0x3bdc799b	0.0067283637
16	0xbdc77f26	-0.097410485
17	0xbda45ed3	-0.08025899
18	0x3dd75728	0.105146706
19	0x3bf5bf60	0.0074996203
20	0xbd9eb968	-0.07750207
21	0x3db89042	0.0901189
22	0x3cda51c9	0.026650326
23	0xbd79f2b4	-0.061022475
24	0xbd81f569	-0.063456364
25	0xbdfd5797	-0.12370222
26	0xbda775d6	-0.08176772
27	0x3ca50c10	0.020147353
28	0x3d7d2410	0.06180197
29	0xbc56ad88	-0.0131028965
30	0x3d0f672f	0.035010513
31	0x3e05b2a5	0.13056429
32	0xbd7cef3b	-0.061751585
33	0x3d427ebd	0.04748415
34	0xbd1788cb	-0.03699569
35	0x3cbf6371	0.023362847
36	0xbd56d856	-0.052452408
37	0x3d58c508	0.05292228
38	0x3d0837db	0.033256393
39	0xbd20f16a	-0.03929273
40	0xbe025989	-0.12729467
41	0xbe0924d8	-0.13392961
42	0xbdac81a1	-0.08423162
43	0xbddc78ca	-0.10765226
44	0x3dfca638	0.12336391
45	0x3d401d18	0.046902746
46	0xbcac5e92	-0.021041188
47	0x3c950775	0.018192032
48	0xbc46899d	-0.0121177705
49	0x3cf9337e	0.030420061
50	0xbd28b263	-0.041185748
51	0x3c98f02f	0.018669216
52	0xbd4b3d29	-0.049618874
53	0xbddbc505	-0.10730938
54	0xbbcc2210	-0.0062296465
55	0xbdb57e00	-0.08861923
56	0x3d9c0517	0.07618158
57	0x3da118f3	0.07866087
58	0x3e0a8ab3	0.13529472
59	0xbd12d07b	-0.035843354
60	0x3d49e7d5	0.049293358
61	0xbc9e56ad	-0.01932844
62	0xbd15c6c1	-0.0365665
63	0x3cce70dc	0.0252003

fc1.weight f4 [64, 64]
0	0xbddd8788	-0.10816866
1	0x3d9330b2	0.07187022
2	0xbdc3991e	-0.09550689
3	0x3d256194	0.04037626
4	0x3d4f38c0	0.05059123
5	0x3da66818	0.08125323
6	0xbdaf293c	-0.08552787
7	0xbc2aa8b0	-0.010416195
8	0xbc8710b0	-0.01648745
9	0x3d449a6c	0.04799883
10	0xbdb1fed6	-0.08691184
11	0x3cc4f538	0.02404271
12	0xbc8fb578	-0.017542586
13	0x3dde1d06	0.108453795
14	0xbb36f840	-0.0027918965
15	0xbddaafca	-0.1067806
16	0xbd81bb94	-0.06334606
17	0x3df4a472	0.11945428
18	0x3da997c8	0.08280903
19	0xbce0e450	-0.027452618
20	0xbdafd48e	-0.085854635
21	0xbca9d818	-0.020732924
22	0xbdf8face	-0.12157212
23	0x3d46d054	0.04853852
24	0xbdd8bce4	-0.10582903
25	0xbb903b60	-0.0044016093
26	0x3c9152f0	0.017739743
27	0x3dc5cc18	0.096580684
28	0x3db0592a	0.08610757
29	0x3d1f2880	0.038856983
30	0xbd4d9798	-0.0501934
31	0xbd05ebb4	-0.032695487
32	0x3d24e20c	0.040254638
33	0xbcbc7c80	-0.023008585
34	0x3dc75f0c	0.09734926
35	0x3dbd6abe	0.09248875
36	0xbd2f79f0	-0.042840898
37	0x3dd73eea	0.10510047
38	0xbc79ad10	-0.015239015
39	0x3cb332f0	0.021874875
40	0x3d92bdf0	0.07165134
41	0xbc410d10	-0.0117828995
42	0xbd7e5564	-0.062093154
43	0xbc372dc0	-0.011180341
44	0xbdca71d2	-0.09884991
45	0x3dcd69b2	0.100299254
46	0x3df0e42e	0.11762272
47	0xbcd83f28	-0.026397303
48	0xbbf70660	-0.0075386018
49	0x3dc2fc60	0.09520793
50	0x3dfce8a0	0.12349057
51	0xbce8ce70	-0.02841875
52	0x3c8f1d28	0.017469957
53	0xbdd0d092	-0.10196032
54	0xbc86eb08	-0.016469494
55	0x3d250148	0.040284425
56	0x3d1fba08	0.038995773
57	0xbdd0b1b4	-0.10190144
58	0xbd929c44	-0.071587116
59	0x3d8cca2e	0.068745
60	0xbd8ec1ae	-0.06970535
61	0xbdca33fe	-0.09873198
62	0x3dc7ff36	0.097654745
63	0x3ca9fa88	0.020749345
64	0x3daa2f20	0.0830977
65	0xbdf95ac8	-0.12175518
66	0x3dfb0ca2	0.12258269
67	0x3dd4a214	0.103824764
68	0x3cd00200	0.025391579
69	0x3d029d28	0.031888157
70	0xbd57903c	-0.052627787
71	0xbdc752ca	-0.09732588
72	0xbd999568	-0.074992
73	0xbd4687a0	-0.048469186
74	0x3dc81fd6	0.09771697
75	0x3ca448c0	0.020054221
76	0xbde7f8d0	-0.11326754
77	0x3c1aecf0	0.009455904
78	0x3d0afbd8	0.033931583
79	0x3c1fb370	0.009747371
80	0x3cb79dc0	0.022414088
81	0xbcfed7c8	-0.031108752
82	0x3dbc4a20	0.09193826
83	0xbd399798	-0.045310587
84	0xbd23efcc	-0.04002361
85	0x3b9f9860	0.0048704594
86	0x3ddcd8cc	0.10783538
87	0xbafe6f80	-0.0019411892
88	0xbdafef10	-0.085905194
89	0x3cd7afe8	0.026328996
90	0xbd475e2c	-0.048673794
91	0xbdfc5a2c	-0.123218864
92	0x3dbb1734	0.09135285
93	0x3cdc2a50	0.026875645
94	0x3d201778	0.03908488
95	0xbcaeeb30	-0.02135238
96	0x3d1b9ef0	0.03799337
97	0x3da31ec4	0.079648525
98	0x3dc3075e	0.095228896
99	0xbcd85950	-0.026409775
100	0x3da98c46	0.08278708
101	0xbddb97be	-0.10722302
102	0xbd692074	-0.056915715
103	0xbda52d48	-0.08065277
104	0xbc7cd260	-0.015431017
105	0xbdcb165c	-0.09916374
106	0x3dc9343c	0.09824416
107	0xbd212500	-0.039341927
108	0x3c5dd0b0	0.0135385245
109	0x3dfb2f76	0.12264912
110	0xbd79bac8	-0.060969144
111	0xbd73f108	-0.059556037
112	0x3ccba408	0.02485849
113	0xbd7e63e4	-0.062106982
114	0x3d818fa0	0.063262224
115	0xbd209fbc	-0.039214835
116	0x3dab8f66	0.083769605
117	0xbd9d2290	-0.07672608
118	0xbd08cad4	-0.033396557
119	0x3c500110	0.012695566
120	0xbdb3fe9a	-0.08788796
121	0xbd2bed3c	-0.04197429
122	0x3c17cc30	0.009264991
123	0xbd3bf1fc	-0.04588507
124	0x3d55f7a0	0.052238107
125	0x3ce30e58	0.0277168
126	0x3d879234	0.06619683
127	0xbdcb81ea	-0.099368885
128	0x3c9d4b80	0.01920104
129	0x3d800692	0.06251253
130	0x3de7f428	0.11325866
131	0xbd25a7d8	-0.04044327
132	0xbd85cc82	-0.065331474
133	0x3cb263f0	0.02177617
134	0x3d74a408	0.059726745
135	0x3d48f82c	0.0490648
136	0xbde6383c	-0.112411946
137	0xbdd716ee	-0.1050242
138	0xbdf5af22	-0.119962946
139	0x3dc9841c	0.09839651
140	0xbc9d85a8	-0.019228771
141	0x3d500dfc	0.050794587
142	0xbbedfc00	-0.0072627068
143	0x3dedfc1e	0.11620353
144	0x3d8c6f2e	0.06857143
145	0x3c956980	0.018238783
146	0xbdd39f04	-0.10333064
147	0xbdcb176c	-0.09916577
148	0x3cda9028	0.026680067
149	0x3df66a24	0.120319635
150	0xbdb7649c	-0.089547366
151	0xbc7fbc30	-0.015608832
152	0xbda28f06	-0.07937436
153	0xbda9e3ea	-0.08295424
154	0x3ddbdafc	0.10735127
155	0x3b8fe080	0.004390776
156	0xbb16c880	-0.002300769
157	0x3d6520d8	0.055939525
158	0x3d0ff740	0.035147905
159	0x3b950b60	0.004548475
160	0x3d072598	0.032994837
161	0xbdb4319a	-0.08798523
162	0x3df06290	0.11737549
163	0x3d9e91b8	0.077426374
164	0x3b7ec100	0.0038872361
165	0xbd970fac	-0.07376036
166	0xbc88bfb8	-0.016692981
167	0xbd39bed0	-0.04534799
168	0x3d125eec	0.035735056
169	0xbd97d01a	-0.07412739
170	0x3cda8a00	0.026677132
171	0xbdb17c5c	-0.08666298
172	0xbbe93c80	-0.007117808
173	0xbd45f24c	-0.048326775
174	0x3d2dfcd8	0.04247746
175	0xbdb51996	-0.08842771
176	0x3dc336b2	0.09531917
177	0xbdcff82a	-0.101547554
178	0x3d7b6d08	0.061383277
179	0x3d18bd90	0.037290156
180	0xbd9f196c	-0.07768521
181	0xbcef34c0	-0.029199958
182	0xbd10f374	-0.035388425
183	0x3ddf9792	0.109175816
184	0x3db3adce	0.08773385
185	0xbde049f4	-0.109516054
186	0xbbf86be0	-0.007581219
187	0xbd6cfd7c	-0.05785893
188	0x3c982948	0.018574372
189	0x3dad099c	0.084490985
190	0x3dafc302	0.08582117
191	0xbcacdef0	-0.021102399
192	0xbd7f537c	-0.062335476
193	0xbd52ea48	-0.05149296
194	0xbdc30e6a	-0.09524234
195	0xbd91c248	-0.07117134
196	0x3ddf5160	0.10904193
197	0xbdbd10c6	-0.09231715
198	0x3c17ef50	0.009273365
199	0x3d82f4ca	0.06394346
200	0x3d12c094	0.035828188
201	0x3bb13a00	0.0054085255
202	0x3db92e48	0.090420306
203	0xbd7494b4	-0.059712127
204	0x3d660730	0.0561592
205	0x3ded627e	0.115910515
206	0xbd0ddc60	-0.034633994
207	0xbde1811e	-0.11010955
208	0xbd3cefe4	-0.046127215
209	0xbdaf7652	-0.0856749
210	0xbdde8dc8	-0.108668864
211	0xbdd50a0c	-0.10402307
212	0xbd939040	-0.07205248
213	0xbd509744	-0.05092551
214	0xbc08d600	-0.008351803
215	0xbd950554	-0.07276407
216	0x3b40b5c0	0.0029405206
217	0xbd564550	-0.052312195
218	0x3b113fc0	0.0022163242
219	0x3de92866	0.113846585
220	0x3d89eefe	0.06735037
221	0xbdb117e0	-0.08647132
222	0x3c0f7ca0	0.00875774
223	0xbb7f0240	-0.0038911253
224	0xbda342ca	-0.079717234
225	0xbdc11db2	-0.09429492
226	0x3c389920	0.011266977
227	0xbd88046a	-0.06641467
228	0x3dee5968	0.11638147
229	0xbcb36f58	-0.021903679
230	0xbd7d68b4	-0.06186743
231	0xbd7a8340	-0.061160326
232	0x3d3d6ad0	0.046244442
233	0xbdd5fc88	-0.10448557
234	0xbd42ab20	-0.04752648
235	0xbda4a504	-0.08039287
236	0x3ddc5718	0.10758799
237	0x3dd7d64e	0.10538922
238	0xbdf474b2	-0.1193632
239	0xbdab3cf2	-0.08361234
240	0xbdcd3056	-0.10018985
241	0x3d8b1820	0.06791711
242	0xbca44450	-0.020052105
243	0x3db8328e	0.089940175
244	0x3d928374	0.07153979
245	0xbbc81760	-0.006106302
246	0x3d5822f8	0.052767724
247	0xbde1719a	-0.11007996
248	0x3dcd75aa	0.10032208
249	0xbd321160	-0.0434736
250	0xbc11bf80	-0.008895755
251	0x3d9fc79c	0.07801744
252	0x3dfed0de	0.12442182
253	0x3d9de714	0.0771009
254	0x3dcf2336	0.10114138
255	0x3dcdf232	0.10055961

fc1.bias f4 [64]
0	0x3ded96b6	0.116010115
1	0xbdee99c0	-0.11650419
2	0xbdd0fa10	-0.10203946
3	0xbcd14d40	-0.025549531
4	0x3decdf64	0.11566046
5	0x3df012ee	0.117223606
6	0xbd465538	-0.048421115
7	0x3d1b9ffc	0.03799437
8	0x3d2075e0	0.039174914
9	0x3cb636f0	0.022242993
10	0x3db6fae8	0.08934575
11	0xbd55ecd8	-0.052227825
12	0xbdabf288	-0.083958685
13	0x3d0f27ec	0.03495018
14	0x3dbcaec8	0.092130244
15	0xbddf1702	-0.1089306
16	0x3dfff2f4	0.124975115
17	0x3dbf97c6	0.0935512
18	0x3d8fdf58	0.07025021
19	0x3d6a4b54	0.057200745
20	0x3dbb4eac	0.09145865
21	0x3dd25a84	0.10271171
22	0x3dad72e4	0.08469179
23	0xbde6a5b6	-0.112620756
24	0x3dba9718	0.0911085
25	0x3cd39be8	0.025831178
26	0xbd50daf8	-0.050990075
27	0xbdc6f016	-0.097137615
28	0xbdcf04aa	-0.101083115
29	0x3d2a6e94	0.04160936
30	0xbcde4760	-0.027133644
31	0x3dc4b3fc	0.09604642
32	0xbda3170e	-0.07963382
33	0xbaaed600	-0.0013338923
34	0xbd90f026	-0.07077055
35	0x3dceb480	0.100930214
36	0xbb87afc0	-0.004140824
37	0x3d86f654	0.06589952
38	0xbda634fc	-0.08115575
39	0xbcde8a20	-0.027165473
40	0xbc3c59a0	-0.011495978
41	0x3c6baef0	0.01438497
42	0x3db6c722	0.089247
43	0x3d9338d8	0.071885765
44	0x3cb83098	0.022484109
45	0x3c6799b0	0.014135763
46	0x3dfc1b68	0.12309915
47	0xbdd05392	-0.1017219
48	0xbc606fd0	-0.013698533
49	0xbddc7934	-0.10765305
50	0xbd0c6a24	-0.03428091
51	0x3df1e4b2	0.11811198
52	0xbdf2249c	-0.11823389
53	0xbd781448	-0.060566217
54	0xbbe25f40	-0.0069083273
55	0xbda028c8	-0.078202784
56	0x3d8c08aa	0.0683759
57	0x3c9804d8	0.018556997
58	0xbd3a0b04	-0.04542066
59	0xbdfbb182	-0.12289716
60	0xba29bd00	-0.00064750016
61	0x3cf43600	0.029810905
62	0xbd9a15f4	-0.075237185
63	0x3db85746	0.09001021

fc2.weight f4 [64, 64]
0	0x3dd3b364	0.103369504
1	0xbdfdfb60	-0.124014616
2	0xbccb44d8	-0.0248131
3	0xbd7f824c	-0.06238012
4	0x3d82a934	0.06379929
5	0x3dbb1a4c	0.09135875
6	0x3d5fa808	0.054603606
7	0xbca2f6f8	-0.019893155
8	0xbdafe856	-0.085892364
9	0xbd57801c	-0.05261241
10	0x3b857300	0.004072547
11	0xbd90fae6	-0.07079105
12	0xbd148e28	-0.036268383
13	0x3d1d4180	0.038392544
14	0x3da428f6	0.08015625
15	0xbca0db88	-0.01963593
16	0xbd968970	-0.07350433
17	0xbdb1a304	-0.08673671
18	0xbd8a0436	-0.067390844
19	0x3d789b54	0.060695007
20	0x3dfb965a	0.12284537
21	0x3d9cf776	0.07664387
22	0x3d96217e	0.07330607
23	0x3b9870e0	0.0046521276
24	0x3d7465b8	0.05966732
25	0xbc6dcef0	-0.01451467
26	0xbb16a980	-0.0022989213
27	0x3dad5d42	0.08465053
28	0xbceb5850	-0.028728634
29	0xbd9d8e28	-0.0769313
30	0xbde88aec	-0.11354622
31	0x3dd7f9d0	0.10545695
32	0x3db78824	0.08961514
33	0x3caa7250	0.020806462
34	0xbd86b966	-0.06578331
35	0x3d1e8d50	0.038708985
36	0x3d0f4f34	0.034987643
37	0xbde5b5f0	-0.112163424
38	0x3dab1e1e	0.08355354
39	0xbbe3d5e0	-0.006952986
40	0x3c4af230	0.012386844
41	0xbd935088	-0.071930945
42	0x3cc1fc90	0.023680001
43	0x3c944398	0.018098637
44	0xbdd4e9b0	-0.10396135
45	0xbdc060d6	-0.0939347
46	0x3dc86a3e	0.09785889
47	0xbdea0f16	-0.11428659
48	0x3da07cba	0.0783629
49	0xbbfa6320	-0.007641211
50	0xbdefe066	-0.117127225
51	0x3d3c0354	0.04590161
52	0x3c0d0ef0	0.008609518
53	0xbdab9104	-0.08377269
54	0xbc8a50b8	-0.016884193
55	0x3d2390e0	0.039933085
56	0x3c959188	0.018257871
57	0x3dc805ae	0.09766708
58	0xbde6f298	-0.1127674
59	0x3d1603fc	0.036624894
60	0x3de75cb8	0.112969816
61	0xbd149794	-0.03627737
62	0xbc3761a0	-0.011192709
63	0xbd8c8fea	-0.06863387
64	0x3dd217c2	0.10258438
65	0x3d5c037c	0.05371426
66	0xbd942058	-0.072327316
67	0xbd8cf878	-0.06883329
68	0x3d852dac	0.06502852
69	0xbd92a5cc	-0.071605295
70	0x3de8c6a4	0.11366013
71	0xbddd7fd8	-0.108154
72	0xbdd7294e	-0.10505925
73	0xbcd1e448	-0.025621548
74	0xbdfcc816	-0.12342851
75	0xbda745ea	-0.08167632
76	0xbdbcb762	-0.09214665
77	0x3def80ae	0.116944656
78	0x3d3feca8	0.046856552
79	0x3d184460	0.037174582
80	0xbdcce2d0	-0.100041986
81	0xbdadc104	-0.084840804
82	0x3dd56cce	0.104211435
83	0xbbc4b880	-0.0060034394
84	0x3c45c580	0.012071013
85	0xbcb0ba28	-0.021573141
86	0x3d458a88	0.048227817
87	0xbdde09cc	-0.10841712
88	0x3d5f5658	0.054525703
89	0x3d4794fc	0.048726067
90	0xbd21b210	-0.039476454
91	0x3dc04a3c	0.09389159
92	0x3d4d9144	0.050187364
93	0x3cabaea0	0.020957291
94	0x3deff0aa	0.11715825
95	0x3ca01698	0.019542024
96	0xbdf5b632	-0.119976416
97	0xbb8c8060	-0.0042877644
98	0xbd277580	-0.04088354
99	0xbdf97ae8	-0.12181646
100	0x3d8fcb24	0.07021168
101	0x3d9100fc	0.07080266
102	0xbdd67b86	-0.10472779
103	0x3d35fea4	0.044432297
104	0xbd2563b0	-0.040378273
105	0xbdfcb0ac	-0.12338385
106	0xbdd49576	-0.1038007
107	0x3d6a17a4	0.05715145
108	0x3c11ee70	0.008906946
109	0xbd89be8a	-0.067257956
110	0xbd41b170	-0.04728836
111	0x3dd32f46	0.10311751
112	0xbd15b264	-0.03654708
113	0x3d180f00	0.03712368
114	0xbd8fa776	-0.070143625
115	0x3d84ff74	0.06494036
116	0x3db7a130	0.08966291
117	0xbc9f8f70	-0.019477576
118	0x3d615d1c	0.055020437
119	0x3d7206d4	0.059088543
120	0xbda8e17c	-0.08246133
121	0x3bb6dc40	0.005580455
122	0xbd6473ac	-0.055774376
123	0xbdf526f2	-0.11970319
124	0x3d4157d4	0.0472029
125	0x3b0c3800	0.0021395683
126	0x3dd1b6fe	0.10239981
127	0xbcfb4250	-0.030671269
128	0xbde5d9c6	-0.112231776
129	0x3da31f22	0.079649225
130	0xbd7a2ec0	-0.06107974
131	0x3dcbf3d8	0.09958619
132	0xbc3537d0	-0.01106067
133	0xbd6599c0	-0.05605483
134	0xbd976da8	-0.07393962
135	0x3c2f95f0	0.0107169
136	0x3cb65108	0.022255436
137	0x3dc8dfc8	0.09808308
138	0x3d2c0028	0.041992337
139	0xbcef0d10	-0.029181033
140	0x3d90ced0	0.07070696
141	0x3dbfcbd2	0.093650475
142	0xbd932d0c	-0.071863264
143	0x3c8f44a0	0.017488778
144	0x3da7f1a8	0.08200389
145	0x3d9f4da0	0.07778478
146	0xbdf5e87e	-0.12007235
147	0xbdb7e452	-0.089790955
148	0xbd914844	-0.07093862
149	0xbdee4c78	-0.11635679
150	0x3b755a00	0.0037437677
151	0x3d8aba5c	0.067738265
152	0xbd933fa8	-0.07189876
153	0x3cd4d8a0	0.025982201
154	0xbdc31ab0	-0.095265746
155	0xbd23f820	-0.040031552
156	0xbc42d520	-0.011891633
157	0xbd99d934	-0.07512131
158	0x3de65490	0.11246598
159	0xbde1bb2c	-0.11022028
160	0x3b326fc0	0.0027227253
161	0x3c5d0e20	0.013492137
162	0x3df41a84	0.1191912
163	0x3dbab606	0.091167495
164	0xbd3e36c4	-0.046438947
165	0xbd7f6e20	-0.062360883
166	0xbd282100	-0.041047096
167	0x3c39cac0	0.011339843
168	0xbdfe78a2	-0.12425353
169	0xbd54d1e4	-0.05195798
170	0x3cb40cf0	0.021978825
171	0xbdf638a0	-0.12022519
172	0x3dee605e	0.11639474
173	0xbdf8a6ba	-0.121411756
174	0x3df50c30	0.11965215
175	0xbdcbcd34	-0.09951249
176	0x3da0a91e	0.078447565
177	0x3df41928	0.11918861
178	0x3c7683a0	0.01504603
179	0xbd77185c	-0.060325965
180	0xbcef72d0	-0.029229552
181	0xbdd40498	-0.10352439
182	0xbd58a8c4	-0.052895322
183	0x3deab4cc	0.114602655
184	0x3dc772fa	0.09738727
185	0x3cd6a4c0	0.026201606
186	0x3d2976bc	0.041373
187	0x3dd5c5ae	0.10438095
188	0x3cbcf2e8	0.023065045
189	0x3d2853f0	0.041095674
190	0x3de16578	0.11005682
191	0x3d5ba31c	0.05362235
192	0x3d30dcac	0.0431792
193	0x3dc01f5e	0.09380983
194	0xbd7ab1d0	-0.06120473
195	0xbd94f8c8	-0.07274014
196	0x3d800f0a	0.062528685
197	0xbcf6b998	-0.030117795
198	0x3dd2c16a	0.10290797
199	0x3d002ec0	0.031294584
200	0x3dc3d366	0.095618054
201	0xbd9596b2	-0.073041335
202	0x3c0cb220	0.00858739
203	0x3d1c2b44	0.0381272
204	0x3d56ba88	0.052423984
205	0x3cf74a20	0.030186713
206	0x3dfb7d82	0.12279798
207	0xbda76a2c	-0.081745476
208	0xbd3e6364	-0.046481505
209	0x3db3b2e2	0.087743536
210	0xbb3b1500	-0.0028546453
211	0x3d2164c8	0.039402753
212	0xbc001240	-0.007816851
213	0x3d759a6c	0.05996172
214	0x3dd331a0	0.103121996
215	0xbdb10fd4	-0.08645597
216	0xbda57d44	-0.08080533
217	0x3deab704	0.11460689
218	0xbd97f05c	-0.07418892
219	0xbdacdd96	-0.08440702
220	0xbd145fcc	-0.03622417
221	0xbccc79d8	-0.024960443
222	0x3d5f86bc	0.054571852
223	0xbc77ad80	-0.015117049
224	0x3c0cbae0	0.008589476
225	0x3c2d62f0	0.010582671
226	0x3d586488	0.05283025
227	0xbdcd0192	-0.10010065
228	0xbc8ca750	-0.017169625
229	0x3dbd83fa	0.09253688
230	0x3c6c4a90	0.014422074
231	0x3dd5e35e	0.104437575
232	0xbd835bb6	-0.06413977
233	0xbd54842c	-0.05188386
234	0xba906f00	-0.0011019409
235	0x3ddb82c4	0.10718301
236	0x3d01bc80	0.03167391
237	0xbbfe2d80	-0.007756889
238	0xbd5b3a48	-0.05352238
239	0xbd958fc2	-0.0730281
240	0xbd73fc2c	-0.05956666
241	0x3cc39c58	0.023878261
242	0xbd84e49e	-0.06488918
243	0xbdd0c5e0	-0.10193992
244	0xbbd39200	-0.0064566135
245	0x3cea3d30	0.02859363
246	0x3d8605ee	0.065441
247	0xbd6a78e8	-0.05724421
248	0xbcd84cf0	-0.026403874
249	0xbc02f2d0	-0.007992461
250	0x3bc9b440	0.0061555207
251	0x3d549e90	0.05190903
252	0x3d872a2c	0.065998405
253	0xbcef5a70	-0.029217929
254	0x3c87b368	0.01656504
255	0xbdc384d0	-0.09546816

fc2.bias f4 [64]
0	0xbdfb4960	-0.122698545
1	0xbcbd1ec8	-0.023085967
2	0xbdaf44be	-0.085580334
3	0x3c776b20	0.015101224
4	0x3d37579c	0.044761285
5	0x3d85f562	0.06540944
6	0xbdc563f0	-0.09638202
7	0xbdac66b8	-0.084180295
8	0x3dc6807a	0.09692474
9	0xbd9a21c4	-0.075259715
10	0xbdb8cb06	-0.09023099
11	0xbda8acfa	-0.08236118
12	0x3d515e50	0.051115334
13	0x3de50a7c	0.1118364
14	0xbddaa50c	-0.106760114
15	0x3d5a8a00	0.053354263
16	0xbd35eb70	-0.044413984
17	0xbd44f054	-0.048080757
18	0xbcb72eb8	-0.022361144
19	0xbdef30c0	-0.1167922
20	0x3d8edefe	0.06976126
21	0x3dbc79c4	0.092029124
22	0xbda51efe	-0.08062552
23	0xbde13112	-0.109956875
24	0x3cac4000	0.021026611
25	0x3ccc1b58	0.024915382
26	0x3d4f4e00	0.050611496
27	0xbbdb1c80	-0.006686747
28	0x3de78eb6	0.11306517
29	0xbdb369de	-0.08760427
30	0x3d9448c2	0.0724044
31	0x3ddc2be4	0.10750559
32	0xbd4e0558	-0.050298065
33	0xbde917e6	-0.113815114
34	0xbd5cb350	-0.053881943
35	0xbde2fc7c	-0.11083314
36	0x3bfcf2e0	0.0077193826
37	0x3d8880c2	0.066651836
38	0x3d14db28	0.036341816
39	0xbc3480a0	-0.011016995
40	0xbdfc9e6e	-0.123349056
41	0xbd8ea3ce	-0.06964837
42	0x3d58b4d4	0.052906826
43	0x3c3bf6e0	0.011472434
44	0x3cdb01f8	0.026734337
45	0x3dd1845e	0.10230325
46	0x3df739d6	0.12071578
47	0xbd58d90c	-0.052941367
48	0xbcbb8900	-0.022892475
49	0x3db2f9dc	0.08739063
50	0x3be28180	0.0069124103
51	0xbde79210	-0.11307156
52	0xbd85f39a	-0.06540604
53	0x3d738e00	0.059461594
54	0x3d88b7e6	0.06675701
55	0xbc9dc480	-0.019258738
56	0xbb6e7c40	-0.0036389977
57	0xbdcb5ec4	-0.099301845
58	0x3dfb9ef8	0.1228618
59	0x3cfcc2e0	0.030854642
60	0xbd94f6f6	-0.072736666
61	0xbc97b820	-0.018520415
62	0x3d41723c	0.047228083
63	0x3dc4cac8	0.0960899

fc3.weight f4 [2, 64]
0	0xbd5bbe9d	-0.05364858
1	0xbdf5ef3e	-0.120085225
2	0xbd8fe3e5	-0.07025889
3	0x3d9aa351	0.075506814
4	0x3d4f86fd	0.050665844
5	0x3d4d6469	0.050144587
6	0x3d537386	0.051623844
7	0xbdb0c8d0	-0.08632052
8	0xbd7ad48f	-0.061237868
9	0xbd285367	-0.041095164
10	0xbc6e0337	-0.014527134
11	0x3d0375c4	0.032094732
12	0x3d8ca845	0.06868032
13	0xbd4baeff	-0.049727436
14	0x3ce979aa	0.028500397
15	0xbd7553b9	-0.059894297
16	0xbd670e4f	-0.05641013
17	0x3d5b8ceb	0.053601187
18	0xbdc0f39b	-0.09421464
19	0x3ddc7fc6	0.10766558
20	0xbd55a67e	-0.052160732
21	0xbc379155	-0.011204083
22	0xbd32ec93	-0.043682646
23	0x3dbec57c	0.09315011
24	0xbd2f4907	-0.042794254
25	0x3d9ef1ab	0.07760938
26	0xbd80e605	-0.06293873
27	0x3dd63440	0.10459185
28	0x3dab27fe	0.08357237
29	0xbce70edd	-0.02820533
30	0x3d6ad54c	0.057332322
31	0x3d2ab6ec	0.041678354
32	0x3d8b7892	0.06810106
33	0xbd05eebc	-0.032698378
34	0x3c2f7958	0.010710083
35	0x3d6b2db3	0.05741663
36	0xbdef0ed6	-0.116727516
37	0x3d50712e	0.050889187
38	0xbcc1b08d	-0.023643756
39	0xbdb27521	-0.08713747
40	0xbdb9f33a	-0.09079595
41	0xbd90e72a	-0.07075341
42	0xbd933fbc	-0.07189891
43	0xbbc3fa72	-0.005980783
44	0x3d936736	0.0719742
45	0x3de42f99	0.11141891
46	0xbc987d5a	-0.01861446
47	0x3ce2770b	0.027644655
48	0x3dc30f95	0.095244564
49	0xbd5c62de	-0.053805225
50	0x3cc940b0	0.024566978
51	0xbdda12f2	-0.10648145
52	0xbd8750b0	-0.06607187
53	0x3dcbfc03	0.09960177
54	0xbd8d2ce8	-0.06893331
55	0x3c20dea2	0.009818705
56	0xbd2dce6e	-0.042433195
57	0x3da55db7	0.08074515
58	0x3dd6d0a5	0.104890145
59	0xbd7262a2	-0.059176095
60	0xbbd35f23	-0.00645055
61	0x3db490df	0.088166945
62	0xbd45f366	-0.048327826
63	0xbc10c34f	-0.008835628
64	0xbc71db01	-0.014761687
65	0xbd8ed95a	-0.0697505
66	0xbda97954	-0.08275095
67	0xbd019b2b	-0.03164212
68	0xbd93af03	-0.07211115
69	0xbdd7479b	-0.105117045
70	0x3d7c0f17	0.06153783
71	0x3dbc1844	0.09184316
72	0xbc3ca30b	-0.011513482
73	0xbddd881b	-0.10816976
74	0x3dc75afd	0.097341515
75	0xbda641f1	-0.08118046
76	0xbd87cefc	-0.06631276
77	0xbdf0f51e	-0.117655024
78	0x3dd417ce	0.10356103
79	0x3d43b4d1	0.04777986
80	0xbd874d12	-0.06606497
81	0xbc8e7e83	-0.01739431
82	0xbbffffd2	-0.0078124786
83	0x3dcccec5	0.10000376
84	0xbc46fb45	-0.012144868
85	0x3da0fadc	0.07860348
86	0x3c2497cc	0.010045957
87	0x3d61022d	0.054933716
88	0x3dc26051	0.09491027
89	0x3de1a4b9	0.110177465
90	0x3cd9362c	0.026515089
91	0x3dd6de8a	0.10491665
92	0x3dae651c	0.08515379
93	0x3d5ca911	0.05387217
94	0xbda16d15	-0.07882134
95	0x3b8f08c3	0.004365058
96	0x3db2bd80	0.087275505
97	0x3da6a042	0.081360355
98	0x3d79677c	0.060889706
99	0x3d15f911	0.03661448
100	0xbdb7f643	-0.089825176
101	0xbde6c873	-0.112687014
102	0x3d446144	0.047944322
103	0x3d4c07eb	0.04981224
104	0xbc785738	-0.015157513
105	0xbcf8202f	-0.030288784
106	0x3cec76b3	0.028865194
107	0x3da0b3c4	0.078467876
108	0xbbbc0816	-0.0057382686
109	0x3dc1f0bf	0.09469747
110	0xbda3ffb2	-0.080077544
111	0x3d5a61fb	0.053316098
112	0x3d9892f7	0.07449906
113	0x3db76ffa	0.08956905
114	0xbccd2adc	-0.025044851
115	0xbd313a17	-0.04326829
116	0xbd707fe6	-0.058715723
117	0x3ce03995	0.027371207
118	0xbdc5a978	-0.09651464
119	0xbdab61fc	-0.083682984
120	0x3c6bcf07	0.014392621
121	0xbd88cbc7	-0.066794924
122	0x3d7866e7	0.06064501
123	0x3aab4276	0.0013066072
124	0x3d8f7b1c	0.07005903
125	0x3ce552b4	0.027993537
126	0x3d080c90	0.033215106
127	0xbd4ad9a7	-0.049523976

fc3.bias f4 [2]
0	0x3cf5c9e6	0.0300035
1	0xbd9dda1a	-0.07707615
