models/10second_mfcc_h32.pth (torch, 121941 bytes, 8 tensors)

rnn.weight_ih_l0 f4 [32, 862]
0	0xbe19b10c	-0.15008944
1	0xbdfd3ad0	-0.12364733
2	0x3d7ada55	0.061243374
3	0x3dabd53c	0.083902806
4	0xbca395fa	-0.019968975
5	0x3d9a2308	0.07526213
6	0x3e06bc3a	0.1315774
7	0xbd3977dc	-0.045280322
8	0x3dc38c1e	0.095482096
9	0xbc1cc387	-0.009568102
10	0xbcfc8b5e	-0.030828174
11	0xbdb9b386	-0.090674445
12	0x3c6b5a6c	0.01436482
13	0xbd18a2a6	-0.03726449
14	0xbe24989d	-0.16073842
15	0x3dcfc491	0.10144914
16	0xbbde0d21	-0.0067764674
17	0x3ba25857	0.0049543786
18	0xbd29e3ba	-0.041476943
19	0xbc6939bf	-0.014234959
20	0xbd96f88f	-0.073716275
21	0xbde945e1	-0.113902815
22	0x3d514b3c	0.05109714
23	0xbdb17b39	-0.08666081
24	0xbccbde25	-0.0248862
25	0xbe127a4d	-0.14304467
26	0xbdf3d1c0	-0.11905241
27	0xbe118263	-0.14209895
28	0x3e1337ac	0.14376706
29	0xbe0279a3	-0.12741713
30	0xbe2b1da6	-0.16710529
31	0x3e0bc48b	0.13649194
32	0x3d8ca22b	0.068668686
33	0x3da7126e	0.08157812
34	0x3dcbcd42	0.09951259
35	0x3e09c10c	0.13452548
36	0xbe357261	-0.17719413
37	0x3e12d4ac	0.1433894
38	0xbe2a0266	-0.16602477
39	0xbe25cf5d	-0.16192384
40	0xbd9c70ab	-0.07638677
41	0xbce77734	-0.028255083
42	0x3dcbc535	0.09949724
43	0x3e0821ec	0.1329419
44	0xbcdfc096	-0.027313512
45	0x3e15d5c6	0.1463233
46	0xbcf0596a	-0.029339511
47	0xbe01ac5f	-0.1266341
48	0x3dd512c9	0.104039736
49	0xbe28104b	-0.16412465
50	0xbe174f50	-0.14776349
51	0x3d08c859	0.03339419
52	0xbd840eb0	-0.06448114
53	0xbce97705	-0.028499136
54	0xbe0cbf0d	-0.13744755
55	0x3e0f7d4d	0.14012642
56	0xbd7bdab6	-0.061487876
57	0x3e1dc130	0.15405726
58	0xbb69b7ff	-0.0035662649
59	0x3adf0d44	0.0017017503
60	0x3a994611	0.0011693855
61	0xbe11f8be	-0.14255044
62	0xbcdd36e7	-0.027003719
63	0xbd820a01	-0.06349564
64	0x3e182976	0.14859566
65	0xbe055fed	-0.13024874
66	0xbdaf7f24	-0.08569172
67	0x3cbaddb2	0.02281079
68	0x3da83858	0.08213872
69	0xbe397693	-0.18111639
70	0xbdca670f	-0.09882938
71	0xbc5494e9	-0.012974956
72	0x3c19c6a4	0.0093857385
73	0x3de3051f	0.11084961
74	0x3dc572e8	0.09641057
75	0x3dcb2617	0.099193744
76	0x3b6783ef	0.0035326441
77	0x3e16db21	0.14732029
78	0x3dffe9eb	0.12495788
79	0x3ca609b0	0.020268291
80	0x3c27eb14	0.010248918
81	0xbe3d8cf3	-0.18510799
82	0xbde197a4	-0.11015251
83	0xbdb94199	-0.09045715
84	0x3db6f4b5	0.08933393
85	0xbc2f44af	-0.010697528
86	0x3d2777f2	0.040885873
87	0x3daa9267	0.08328705
88	0xbe384d45	-0.17998226
89	0xbcc5b02f	-0.024131862
90	0xbd1261b2	-0.0357377
91	0xbe22f70e	-0.15914556
92	0xbd242587	-0.04007485
93	0xbd4dc4f2	-0.05023665
94	0x3cb68fb3	0.022285318
95	0xbd88b698	-0.06675452
96	0xbd72ad03	-0.059247028
97	0xbd64d03a	-0.055862643
98	0x3ca8b84f	0.020595698
99	0x3be7ca59	0.0070736823
100	0xbdbe767c	-0.09299943
101	0x3e1b1fd3	0.15148859
102	0xbe0a8c5e	-0.13530108
103	0xbb9d6159	-0.0048028645
104	0x3d7ef7fb	0.06224821
105	0xbdc8c5e7	-0.09803372
106	0x3d2fffdd	0.04296862
107	0xbdb04862	-0.08607556
108	0xbd8016e3	-0.06254365
109	0x3e0ca93c	0.13736433
110	0x3dc58f11	0.096464284
111	0xbdfd7cb8	-0.12377304
112	0xbd9125d4	-0.07087293
113	0x3c568b63	0.013094756
114	0xbe08edc6	-0.13371953
115	0x3e01ff79	0.12695111
116	0x3d19433d	0.03741764
117	0x3def628b	0.116887175
118	0xbdbbcc25	-0.09169797
119	0x3dcd34e8	0.10019857
120	0xbd7be4e4	-0.061497584
121	0xbc85c699	-0.01633005
122	0x3d81dfb5	0.06341497
123	0xbe130af1	-0.14359643
124	0xbdbca4ac	-0.09211096
125	0x3d48f626	0.04906287
126	0x3d840259	0.0644576
127	0xbd035204	-0.032060638
128	0xbdb64e2a	-0.08901627
129	0xbe20169e	-0.15633628
130	0xbe21f6d0	-0.15816808
131	0xbdd71c0f	-0.105033986
132	0xbdbdd881	-0.092698105
133	0x3e081931	0.1329086
134	0x3dcf7754	0.10130182
135	0x3e102391	0.14076068
136	0xbe49dc78	-0.19713008
137	0x3deee4c2	0.11664726
138	0x3d584f9f	0.052810308
139	0x3dd7727f	0.10519885
140	0xbe243004	-0.16033942
141	0x3d69615b	0.05697761
142	0x3dc90b97	0.09816664
143	0x3cc15f2a	0.023604948
144	0x3dc6155a	0.09672041
145	0xbdd0d714	-0.10197273
146	0x3e1ac813	0.15115385
147	0x3ce54f42	0.027991895
148	0x3d95ce86	0.07314782
149	0x3d812764	0.06306341
150	0xbda42436	-0.08014719
151	0xbd0d83e7	-0.03454962
152	0xbd69aca5	-0.057049412
153	0x3d9269d7	0.071490936
154	0x3d2a56a1	0.041586522
155	0x3d8755ae	0.06608139
156	0xbe0b9d7f	-0.13634299
157	0xbe114252	-0.14185455
158	0xbddd5a27	-0.10808211
159	0xbdf24b95	-0.118308224
160	0xbe273f49	-0.16332735
161	0xbe0e0b36	-0.13871464
162	0x3e1964d6	0.14979872
163	0xbe2f1975	-0.17099555
164	0x3da4f403	0.08054354
165	0xbd00fb1c	-0.031489477
166	0x3e05a501	0.13051225
167	0xbcb82e58	-0.022483036
168	0xbe31d683	-0.17366986
169	0x3ddd06da	0.107923225
170	0xbe07a1e3	-0.13245349
171	0x3e1fcbe5	0.15605123
172	0x3dfca074	0.123352915
173	0xbd7437f8	-0.05962369
174	0x3d1991fe	0.037492745
175	0x3ba22aae	0.0049489355
176	0x3e069832	0.13143995
177	0xbe0df0ca	-0.13861385
178	0x3e0735ea	0.1320416
179	0x3d3c1bc9	0.045924935
180	0xbe036c8a	-0.12834373
181	0xbbdb7ef7	-0.006698485
182	0x3e07c9c0	0.13260555
183	0x3e04333e	0.12910172
184	0x3de68ac7	0.112569384
185	0xbde3281d	-0.110916354
186	0xbd511112	-0.05104167
187	0x3b0261fe	0.0019894834
188	0xbd942056	-0.0723273
189	0x3e16f581	0.1474209
190	0x3d444d8a	0.04792551
191	0xbdd66a20	-0.104694605
192	0xbd4bc531	-0.049748603
193	0xbdbd684d	-0.092484094
194	0x3d8699e5	0.06572322
195	0xbdf3f3bd	-0.11911724
196	0xbe18cf13	-0.14922743
197	0x3d9f776f	0.07786452
198	0x3dcdc2d8	0.10046929
199	0xbd9dced2	-0.077054635
200	0x3da446b8	0.08021301
201	0xbe27cf21	-0.16387607
202	0x3e01d305	0.12678154
203	0xbd9bc311	-0.07605565
204	0x3ddfca81	0.109272964
205	0xbdc58615	-0.09644715
206	0xbd35bb99	-0.04436836
207	0x3d3901c7	0.04516771
208	0xbe1cf756	-0.15328726
209	0xbd892056	-0.06695621
210	0xbd8b502a	-0.068023995
211	0xbd17d69c	-0.0370699
212	0xbdfaa0a8	-0.12237674
213	0xbd7e9927	-0.062157776
214	0xbdff7417	-0.12473314
215	0xbe2e2d0c	-0.17009372
216	0xbc5c34e1	-0.013440342
217	0x3cf8265d	0.03029173
218	0xbe0dd438	-0.13850486
219	0xbd9ab9f8	-0.07555002
220	0xbcc71cbe	-0.024305698
221	0xbdc7437e	-0.0972967
222	0x3cfa74ef	0.030573336
223	0xbcb0984d	-0.021556998
224	0x3df91279	0.121617265
225	0x3dc32dfd	0.09530256
226	0xbd55a797	-0.05216178
227	0x3df68cb8	0.12038559
228	0x3d0a94e0	0.033833385
229	0x3d01d837	0.03170034
230	0xbdf831eb	-0.12118896
231	0xbd9ea850	-0.07746947
232	0x3dedce9a	0.11611672
233	0xbdc1314b	-0.0943323
234	0xbdf6df7f	-0.12054347
235	0xbd5f4a26	-0.054514073
236	0x3dae68fc	0.08516118
237	0xbdd284be	-0.10279225
238	0xbdcb44a8	-0.099252045
239	0x3e0ef984	0.1396237
240	0x3de35461	0.111000784
241	0xbd232991	-0.039834563
242	0xbe1ce5b7	-0.15322004
243	0xbe221eaf	-0.15832017
244	0x3ce6889c	0.028141312
245	0xbe2eb63a	-0.17061701
246	0x3be31765	0.006930279
247	0x3ded4db0	0.11587083
248	0xbdf2b168	-0.11850244
249	0x3d1fd103	0.03901769
250	0xbe35394a	-0.17697635
251	0x3d45a7a3	0.048255574
252	0x3db074e6	0.086160466
253	0x3e26d4a4	0.16292053
254	0xbd406244	-0.046968713
255	0x3d8ac66b	0.067761265

rnn.weight_hh_l0 f4 [32, 32]
0	0xbcd32306	-0.025773536
1	0x3c7cbb36	0.015425494
2	0x3c3739e0	0.011183232
3	0xbd8a1819	-0.067428775
4	0xbe24f9e3	-0.16110949
5	0xbccaff36	-0.024779897
6	0x3dc773a1	0.09738851
7	0xbe38d576	-0.18050179
8	0x3bbade62	0.0057027796
9	0xbe0d772c	-0.13814992
10	0x3d80b6eb	0.06284889
11	0x3c99b2b5	0.018761972
12	0xbc013f0e	-0.007888569
13	0x3e2ae278	0.16687953
14	0xbe04077f	-0.12893485
15	0xbd9dff8d	-0.07714758
16	0x3da3d87b	0.08000275
17	0x3e279979	0.16367139
18	0xbe220525	-0.15822275
19	0xbe033d8c	-0.12816447
20	0x3df57aa9	0.11986286
21	0x3d35d5f3	0.04439349
22	0xbdb3a619	-0.08771915
23	0xbd4d9d09	-0.05019859
24	0x3e30183b	0.17196743
25	0xb92639dd	-0.0001585255
26	0x3d81f8b2	0.06346263
27	0x3e2762b6	0.16346249
28	0x3de2ec25	0.11080197
29	0x3ddd7664	0.10813597
30	0xbdebeee8	-0.11520177
31	0x3cedb3ef	0.029016463
32	0x3d13f72f	0.036124405
33	0x3e1efb5d	0.15525575
34	0xbda762cb	-0.0817314
35	0xbc8eb2e2	-0.017419282
36	0x3de34c48	0.11098534
37	0x3d19d6f8	0.037558526
38	0xbc84f25c	-0.016228847
39	0x3d5e1cc0	0.054226637
40	0x3ddcd784	0.10783294
41	0xbc20d686	-0.009816771
42	0x3ddb565b	0.107098304
43	0xbe0d57e6	-0.13803062
44	0x3e1c5e7f	0.15270422
45	0x3e1e860e	0.15480825
46	0x3e1da521	0.15395023
47	0x3cc97a06	0.024594318
48	0x3db0ae07	0.08626943
49	0xbe1ac8e6	-0.15115699
50	0x3db55013	0.088531636
51	0xbe0ed522	-0.13948491
52	0x3cfd5646	0.030924927
53	0x3e02cac7	0.12772666
54	0x3e1ad64b	0.15120809
55	0x3d2985f0	0.0413875
56	0xbdf19843	-0.1179662
57	0x3c0e89c1	0.008699835
58	0x3cc2ecb6	0.023794513
59	0x3d8434f2	0.06455411
60	0xbd94288a	-0.07234295
61	0x3e1d8400	0.15382385
62	0x3b314d9e	0.002705432
63	0x3e1fe762	0.1561561
64	0xbc3b2f34	-0.011424828
65	0xbe2485a8	-0.16066611
66	0xbe360f72	-0.1777933
67	0x3e2fc857	0.17166267
68	0xbd9dc730	-0.077040076
69	0xbd702116	-0.058625303
70	0x3d76e786	0.06027939
71	0x3e082269	0.13294376
72	0x3e19cc3c	0.15019315
73	0xbd358035	-0.04431172
74	0xbe01f37b	-0.12690537
75	0xbd24066d	-0.04004519
76	0x3dc41f2b	0.09576257
77	0x3e3774e2	0.17915681
78	0x3d4876c8	0.048941404
79	0x3e1d2742	0.15347007
80	0x3cb7fc0f	0.022459058
81	0x3dd961b7	0.10614341
82	0x3dfcc998	0.123431385
83	0x3d001a00	0.031274796
84	0x3d032757	0.03201994
85	0x3d92ba1a	0.07164402
86	0x3d9f8349	0.077887125
87	0x3d64e964	0.05588664
88	0xbda71ea2	-0.081601396
89	0x3d85ebd1	0.06539119
90	0xbd978742	-0.07398845
91	0xbc883e77	-0.016631348
92	0xbe0efdbb	-0.13963978
93	0x3cbcadac	0.023032032
94	0x3b8f40bd	0.004371731
95	0x3e00e748	0.12588227
96	0x3e2ded7a	0.16985121
97	0xbe2156bf	-0.15755747
98	0xbdab828f	-0.083745115
99	0xbd8c440c	-0.068489164
100	0xbe02cecc	-0.12774199
101	0x3e42b4f7	0.19014345
102	0x3d9660d9	0.07342691
103	0xbd036e06	-0.03208735
104	0x3de02370	0.10944259
105	0xbd878156	-0.06616466
106	0xbe1c866f	-0.15285657
107	0xbd9e5ae5	-0.077321805
108	0xbb740761	-0.0037235843
109	0x3e186bf8	0.14884937
110	0x3e151579	0.14558972
111	0x3bf3fb66	0.0074457405
112	0xbc9b25e0	-0.018938959
113	0x3d9baa87	0.07600885
114	0xbe3cfc80	-0.18455696
115	0xbb975605	-0.0046184086
116	0xbe1de859	-0.15420665
117	0x3d83f964	0.06444052
118	0xbe4245cd	-0.1897194
119	0x3d54054f	0.051762875
120	0xbbc642ad	-0.006050429
121	0x3dc7b504	0.09751323
122	0xbd26561c	-0.040609464
123	0xbd0518c8	-0.032494336
124	0xbd7a0e1f	-0.061048623
125	0xba6bcf65	-0.0008995443
126	0xbaccaa28	-0.0015614675
127	0x3dd7e75d	0.10542176
128	0xbe324632	-0.1740959
129	0x3dc8ef5e	0.09811281
130	0x3dd4c3fb	0.10388943
131	0xbe0ac04a	-0.13549915
132	0xbd806a94	-0.06270328
133	0xbdc9d851	-0.09855712
134	0x3d66d364	0.05635394
135	0x3d9886e7	0.074476056
136	0x3e351987	0.17685519
137	0xbd559a2d	-0.052148987
138	0x3e32d12c	0.17462605
139	0xbd861496	-0.06546895
140	0xbe6786f1	-0.2261007
141	0x3da39eff	0.079893105
142	0x3e4fd38f	0.20295547
143	0xbe24d201	-0.16095735
144	0xbcc472b0	-0.023980469
145	0xbda96cc0	-0.082726955
146	0x3e58c146	0.21167478
147	0xbd04fd46	-0.032468103
148	0xbd11762e	-0.035513096
149	0x3d78a312	0.06070239
150	0x3bb5155b	0.0055262274
151	0x3de1c86b	0.11024555
152	0x3cd7dbad	0.026349867
153	0xbcb0b4bc	-0.021570556
154	0x3dca96d8	0.098920524
155	0x3c29c66c	0.010362249
156	0xbd398849	-0.045295987
157	0xbd6168bd	-0.055031527
158	0x3d5de6b1	0.054175083
159	0x3d9b1ac9	0.07573468
160	0x3d2056f6	0.039145432
161	0x3db3429e	0.087529406
162	0x3e03c590	0.12868333
163	0xbe1de8a7	-0.15420781
164	0x3e09fb7f	0.13474844
165	0x3c955cff	0.01823282
166	0x3e1b7fac	0.15185422
167	0xbdca4307	-0.09876066
168	0xbcd1746c	-0.02556821
169	0x3d9e9ca0	0.077447176
170	0x3cc2fcf4	0.023802258
171	0x3c753cf5	0.014968147
172	0xbd63f48c	-0.05565314
173	0xbe32b87c	-0.17453188
174	0x3e0f883c	0.14016813
175	0xbd86e173	-0.0658597
176	0x3ddfe895	0.109330334
177	0x3dcd2eb6	0.10018675
178	0x3cb27f4a	0.021789212
179	0x3d0a44ea	0.033757128
180	0x3e1caf5a	0.15301266
181	0xbd9234c0	-0.071389675
182	0x3c508b0d	0.012728465
183	0xbe132c46	-0.14372358
184	0x3e1de99c	0.15421146
185	0xbb5e8cd1	-0.0033958445
186	0x3e0f4a23	0.13993125
187	0xbd612081	-0.05496264
188	0x3c1cbe17	0.009566805
189	0xbdf097a5	-0.11747674
190	0x3e293bac	0.1652667
191	0xbdbb3866	-0.091416165
192	0x3e332d00	0.17497635
193	0xbdc90cd2	-0.098168984
194	0xbca96da7	-0.02068217
195	0x3d48d7fe	0.04903411
196	0x3dcee502	0.101022735
197	0xbdf877d7	-0.12132233
198	0xbe4027ea	-0.18765226
199	0xbd1edd89	-0.03878549
200	0x3e0617fd	0.13095088
201	0x3e48203d	0.19543548
202	0xbe1ab687	-0.15108691
203	0x3dc1312d	0.09433208
204	0x3cc1dfea	0.02366634
205	0xbe13a612	-0.1441882
206	0xbd884bc0	-0.06655073
207	0x3e31c222	0.17359212
208	0x3d67f5d2	0.056630917
209	0xbe381498	-0.17976606
210	0xbe3d2292	-0.18470219
211	0xbd9b1224	-0.075718194
212	0x3c6ce9cb	0.014460037
213	0xbcdcc980	-0.026951551
214	0x3cebe0a3	0.028793639
215	0xbdc231ba	-0.09482141
216	0xbe44b660	-0.19210196
217	0xbd4adf9b	-0.049529653
218	0x3d490098	0.049072832
219	0x3dba26e7	0.09089451
220	0xbdeab1e6	-0.11459713
221	0x3d438830	0.0477373
222	0xbd9ba7f5	-0.07600395
223	0xbd0f3d85	-0.03497078
224	0xbe00bd13	-0.12572126
225	0x3dacf7a4	0.08445671
226	0xbde9122b	-0.113804184
227	0xbe0e2abd	-0.13883491
228	0x3de7699b	0.112994395
229	0x3dd3d894	0.103440434
230	0x3d5c35b9	0.05376217
231	0xbd0ff86a	-0.035149015
232	0xbdacde39	-0.08440823
233	0xbe0ea3d4	-0.13929683
234	0xbe25c8c2	-0.16189864
235	0x3e1ac4b5	0.151141
236	0xbde9d1f4	-0.114169985
237	0xbb886ba0	-0.0041632205
238	0xbcbf364e	-0.023341324
239	0x3d18aef9	0.037276242
240	0xbd023fb4	-0.031799033
241	0xbc9bee7c	-0.019034617
242	0x3dab241d	0.083564974
243	0xbc94763e	-0.018122789
244	0xbd51aa3d	-0.051187743
245	0x3c3be3d0	0.011467889
246	0x3d8cebc4	0.06880906
247	0xbc1e3687	-0.009656555
248	0xbe1bcf47	-0.15215789
249	0x3e00bd9f	0.12572335
250	0xbd868a78	-0.065693796
251	0x3d09919b	0.033586126
252	0x3e265f7c	0.16247362
253	0x3b43f598	0.0029901024
254	0xbd644438	-0.05572912
255	0x3dc41c87	0.09575754

rnn.bias_ih_l0 f4 [32]
0	0xbbb2b3c5	-0.005453559
1	0xbdae739d	-0.08518145
2	0xbe2c60ef	-0.16833852
3	0xbc75c85a	-0.015001381
4	0xbda1c24c	-0.07898387
5	0xbdd13704	-0.102155715
6	0xbc560453	-0.013062554
7	0x3e1909b5	0.14945109
8	0x3d23a61d	0.03995334
9	0xbe2374a9	-0.15962471
10	0xbd0c2992	-0.034219332
11	0xbdafdb44	-0.085867435
12	0xbda5f3d5	-0.08103148
13	0x3db5c60a	0.088756636
14	0xbdebbef6	-0.11511032
15	0xbe092119	-0.13391532
16	0x3d29d511	0.04146296
17	0xbdb2f9dc	-0.08739063
18	0x3d9a2136	0.07525866
19	0xbdd61e72	-0.10455026
20	0x3dd19b76	0.1023473
21	0x3e0e72eb	0.13911025
22	0x3df2e0ab	0.11859258
23	0xbe0f3695	-0.13985665
24	0xbe149fcc	-0.14514083
25	0x3acb451e	0.001550827
26	0xbd1071ea	-0.035264887
27	0xbe085009	-0.13311781
28	0xbdc66a92	-0.096882954
29	0xbda3d14d	-0.07998905
30	0x3dad8f70	0.08474624
31	0x3c887186	0.016655695

rnn.bias_hh_l0 f4 [32]
0	0x3e1a2d70	0.15056396
1	0x3e25f4fc	0.16206735
2	0xbe25d519	-0.16194572
3	0xbcb90013	-0.022583043
4	0x3e08db6d	0.13364954
5	0xba613cc1	-0.0008592122
6	0xbe0210ef	-0.12701772
7	0xbdfe7e6c	-0.12426457
8	0xbdb3bf1b	-0.08776685
9	0x3e07cb50	0.13261151
10	0x3e199f40	0.15002155
11	0xbd0bce3d	-0.03413223
12	0x3c92844f	0.017885355
13	0xbd80b841	-0.06285144
14	0x3c978aa3	0.018498724
15	0x3e3a4be4	0.18193012
16	0xbda01a56	-0.07817523
17	0xbe1da265	-0.1539398
18	0xbd1d1c0a	-0.03835682
19	0xbd02d44b	-0.03194074
20	0x3d9bc6c8	0.07606274
21	0x3c7e548d	0.015523088
22	0x3d71bc31	0.059017364
23	0xbe1b565f	-0.15169667
24	0x3e2544c4	0.16139513
25	0xbdc082dc	-0.093999594
26	0x3df6b80c	0.12046823
27	0x3de33bb6	0.11095373
28	0x3d644ee3	0.055739295
29	0x3c8a395d	0.016873056
30	0x3d8c893b	0.06862112
31	0x3d486dd3	0.04893286

fc1.weight f4 [32, 32]
0	0x3d1c8c14	0.038219526
1	0xbdcb2ccc	-0.09920654
2	0x3c9ef688	0.019404665
3	0x3db00ef6	0.085966036
4	0xbe25d2a0	-0.16193628
5	0xbe098470	-0.13429427
6	0xbe259b4f	-0.16172527
7	0x3df3e666	0.119091794
8	0x3d3efdb0	0.046628654
9	0x3e203e81	0.15648843
10	0xbb5c9c00	-0.003366232
11	0xbdca758c	-0.098857015
12	0x3e2d38a9	0.16916145
13	0x3c08acb0	0.008341953
14	0x3d1c147c	0.038105473
15	0xbe06baf6	-0.13157257
16	0x3d4f29c8	0.050576955
17	0xbe260ae1	-0.16215087
18	0x3d949d0a	0.07256515
19	0xbd95e3a3	-0.07318809
20	0xbd30a450	-0.04312545
21	0xbd017d94	-0.0316139
22	0x3e0f9d0b	0.14024751
23	0xbdc8eb6f	-0.098105304
24	0x3db5dd66	0.08880119
25	0x3e0d17ef	0.13778661
26	0x3d9fd132	0.07803573
27	0x3da932ce	0.08261643
28	0x3bde86e0	0.0067909807
29	0xbc161a30	-0.009161517
30	0x3d8a1836	0.06742899
31	0xbc10f8f0	-0.008848414
32	0xbd92a50a	-0.07160385
33	0xbd178dd8	-0.037000507
34	0xbcc97f00	-0.024596691
35	0x3da50cea	0.08059104
36	0xbcc934a8	-0.024561241
37	0xbe2b9cae	-0.16758987
38	0x3ddee002	0.1088257
39	0x3de1430a	0.10999115
40	0x3de1982e	0.11015354
41	0x3dfe14d6	0.12406318
42	0xbd949bcb	-0.07256278
43	0x3e299835	0.16561969
44	0xbe0b9fef	-0.13635229
45	0x3c4dde70	0.01256524
46	0x3dd7c762	0.10536076
47	0x3d601c30	0.05471438
48	0xbd9192f8	-0.0710811
49	0xbe29dfbf	-0.16589259
50	0x3db104d2	0.086434975
51	0xbdd00f3d	-0.101591565
52	0x3e081441	0.13288976
53	0x3dfae11a	0.12249966
54	0xbe0512c8	-0.12995446
55	0x3e1a7af3	0.15085964
56	0x3dd2a016	0.1028444
57	0x3d8eb564	0.06968191
58	0xbe332886	-0.17495927
59	0xbd88e915	-0.06685082
60	0xbcbcca90	-0.023045808
61	0xbe29c9ce	-0.16580889
62	0x3d02d04c	0.03193693
63	0xbdcc85d2	-0.09986462
64	0xbb97dda0	-0.004634574
65	0xbdb778f0	-0.08958614
66	0x3cfa8ba8	0.030584171
67	0xbd63dbc2	-0.0556295
68	0x3de9558e	0.113932714
69	0x3cb85c18	0.022504851
70	0x388fb000	6.851554e-05
71	0x3e26239b	0.1622452
72	0xbdd94bf8	-0.10610193
73	0x3e02f457	0.12788521
74	0xbdaf1c5f	-0.08550333
75	0x3e20b739	0.15694894
76	0xbbb624c0	-0.00555858
77	0xbdb88666	-0.090100095
78	0x3bd86080	0.0066033006
79	0x3e1208cf	0.14261173
80	0x3d83e79e	0.06440662
81	0xbd34fdd4	-0.044187382
82	0xbe06dcba	-0.13170138
83	0x3d8c90b8	0.068635404
84	0x3dc401d6	0.09570663
85	0x3d79ea4c	0.06101446
86	0xbe2dd06f	-0.16974042
87	0xbe312463	-0.17299037
88	0xbcccbbc8	-0.024991885
89	0x3e10a8ad	0.14126845
90	0x3d6f9cec	0.05849926
91	0xbdf5bf17	-0.11999338
92	0xbde68eb0	-0.11257684
93	0x3dcc4e02	0.09975816
94	0xbc181200	-0.009281635
95	0xbab34e00	-0.0013679862
96	0xbe0eb9c4	-0.13938051
97	0x3c39ca10	0.011339679
98	0x3e1643af	0.14674257
99	0xbe0a28e0	-0.13492155
100	0xbe21f2cb	-0.15815274
101	0xbd1364ac	-0.03598468
102	0x3deee98e	0.11665641
103	0x3ddcad16	0.10775201
104	0x3e16ef53	0.14739732
105	0xbe15440b	-0.14576738
106	0xbe0a4684	-0.13503462
107	0xbcc0f0e0	-0.023552358
108	0xbe313c95	-0.17308266
109	0x3dd03d26	0.10167913
110	0x3d553758	0.052054733
111	0xbd461044	-0.048355356
112	0xbdc3ab33	-0.09554138
113	0x3d9b75ce	0.07590829
114	0x3d5d887c	0.05408524
115	0xbd302598	-0.043004602
116	0xbd726c44	-0.05918528
117	0xbc99eab0	-0.018788666
118	0x3cb12010	0.021621734
119	0x3dbf993e	0.093554005
120	0xbd79a964	-0.06095256
121	0x3e2377a1	0.15963604
122	0x3e2bbca3	0.16771178
123	0x3dffe6ee	0.12495218
124	0x3de60ad2	0.112325326
125	0xbd89d4c5	-0.06730036
126	0xbe04fa2e	-0.12986061
127	0x3de4e652	0.111767426
128	0x3c347f90	0.011016741
129	0xbda0baa7	-0.07848101
130	0x3d3e4278	0.04645011
131	0x3c721de0	0.014777631
132	0x3e2cee5f	0.16887806
133	0x3ccbe748	0.024890557
134	0x3d1cad00	0.038250923
135	0xbdd7c81f	-0.10536217
136	0xbd2eaab8	-0.04264328
137	0xbe0670a3	-0.13128905
138	0x3e2dfdf5	0.16991408
139	0x3c3bbaf0	0.011458144
140	0xbd8fd000	-0.07022095
141	0x3e164f8b	0.1467878
142	0x3d0fe2ec	0.03512852
143	0x3e1209d5	0.14261563
144	0xbc262ee0	-0.010143012
145	0xbe15b7a5	-0.14620836
146	0xbe328af8	-0.17435825
147	0x3dd66d86	0.10470109
148	0x3d54cd14	0.05195339
149	0xbe327c79	-0.17430295
150	0x3e1a8fd3	0.15093927
151	0x3cb974e8	0.022638753
152	0x3d3b5c40	0.045742273
153	0x3c8d6060	0.01725787
154	0xbde8b3c5	-0.11362413
155	0x3e0f0bbb	0.13969319
156	0xbe28995b	-0.1646475
157	0x3d99fa76	0.07518475
158	0xbe141692	-0.14461735
159	0x3c66c610	0.014085308
160	0x3d548330	0.051882923
161	0x3e23a22d	0.15979834
162	0xbd425b90	-0.047450602
163	0xbd995b38	-0.07488102
164	0x3d339bb4	0.043849662
165	0xbded9523	-0.11600711
166	0xbc6a6bd0	-0.014307931
167	0xbe273a2c	-0.16330785
168	0x3dd7f3ca	0.10544546
169	0xbdbbd9c2	-0.091723934
170	0x3cd17c78	0.025572047
171	0xbd7f4bbc	-0.062328085
172	0xbe04db4d	-0.12974282
173	0xbbe8ab60	-0.0071005076
174	0xbd85c60e	-0.065319166
175	0xbe28ac10	-0.16471887
176	0xbdc1370f	-0.0943433
177	0x3e112137	0.14172827
178	0xbe090700	-0.13381577
179	0x3ca255d8	0.019816324
180	0xbdbdeee2	-0.09274079
181	0x3cabef38	0.020988092
182	0xbc89c308	-0.016816631
183	0xbcaf16f8	-0.021373257
184	0xbd6f0d54	-0.05836232
185	0xbe262ec8	-0.16228783
186	0x3e00ccbd	0.12578101
187	0x3d1cef1c	0.03831397
188	0x3d12a538	0.035802096
189	0xbb7a5d40	-0.0038202554
190	0x3dc461ce	0.09588967
191	0xbde550b0	-0.111970305
192	0x3df41376	0.119177744
193	0x3d27282c	0.040809795
194	0xbe2bfdee	-0.16796085
195	0xbc4bc5f0	-0.012437329
196	0x3e11946f	0.14216779
197	0x3cce8460	0.025209606
198	0x3d3b85c0	0.04578185
199	0xbd27c7fc	-0.040962204
200	0xbdc63765	-0.096785344
201	0xbbf5e8e0	-0.0075045675
202	0xbe118264	-0.14209896
203	0x3dc90a02	0.09816362
204	0xbe123e60	-0.14281607
205	0x3dace4a2	0.08442046
206	0xbdd7afc5	-0.10531572
207	0x3b8a6c80	0.00422436
208	0xbe07b195	-0.13251336
209	0x3e0e64af	0.13905595
210	0xbd13760c	-0.03600125
211	0x3ddf58ea	0.10905631
212	0xbde9ffdb	-0.11425754
213	0x3e065097	0.1311668
214	0x3e199c79	0.15001096
215	0x3c31ea40	0.010859072
216	0x3e1ded1d	0.15422483
217	0xbd4f8d8c	-0.0506721
218	0x3b0b3e40	0.002124682
219	0x3c6ce710	0.0144593865
220	0x38523000	5.0112605e-05
221	0x3cf44050	0.029815823
222	0x3dbe846a	0.093026
223	0x3e16432d	0.14674063
224	0x3ca71118	0.020393893
225	0x3dbb8eaa	0.091580704
226	0x3e0daf4f	0.13836406
227	0x3e24013f	0.160161
228	0x3de5f2b2	0.11227931
229	0xbb8505e0	-0.0040595382
230	0xbd40e8d4	-0.047097042
231	0x3d29b670	0.04143375
232	0xba891b80	-0.0010460466
233	0x3ddf6a2e	0.10908924
234	0x3cb338f0	0.021877736
235	0xbdffe1dd	-0.12494252
236	0xbe28e5f9	-0.16493978
237	0x3daa6bf2	0.0832137
238	0x3d96319e	0.073336825
239	0x3db28a7e	0.087178215
240	0x3e1954f7	0.14973818
241	0x3e341e93	0.17589788
242	0x3c7ac1a0	0.015304953
243	0x3df2c376	0.118536875
244	0xbde478f2	-0.11155881
245	0xbcdedaa0	-0.027203858
246	0xbe2c23fd	-0.16810603
247	0x3df02716	0.11726205
248	0xbe292621	-0.16518451
249	0xbdb9c535	-0.090708174
250	0xbe148232	-0.1450279
251	0x3de36a1e	0.111042246
252	0xbd55b2d2	-0.05217249
253	0x3e001fc9	0.12512125
254	0xbdd34ace	-0.10317002
255	0xbe06bcd0	-0.13157964

fc1.bias f4 [32]
0	0xbc86e9a0	-0.016468823
1	0xbe074680	-0.13210487
2	0x3dbe71d2	0.09299053
3	0x3dc14366	0.09436683
4	0x3c173130	0.009228036
5	0xbd7b06d0	-0.061285794
6	0x3de24026	0.110473916
7	0xbcba8c38	-0.02277194
8	0x3e322563	0.17397074
9	0x3d861d8e	0.06548606
10	0xbe1d4b72	-0.15360811
11	0xbd30ca9c	-0.043161973
12	0xbd272b0c	-0.040812537
13	0xbd2e6e04	-0.042585388
14	0xbd39a988	-0.045327693
15	0x3c5c8c40	0.013461173
16	0xbd63b5d0	-0.05559331
17	0x3de38626	0.11109571
18	0x3d867882	0.06565954
19	0x3db486ba	0.088147596
20	0x3e000669	0.12502445
21	0xbd058010	-0.032592833
22	0xbdd53c00	-0.10411835
23	0x3c0753c0	0.008259714
24	0xbbf67ee0	-0.007522449
25	0xbd5b7b48	-0.053584367
26	0xbd9be677	-0.07612317
27	0xbd6f8194	-0.058473185
28	0x3c654da0	0.013995558
29	0x3dfbc7e2	0.12293984
30	0xbcbab610	-0.022791892
31	0x3d25672c	0.040381595

fc2.weight f4 [2, 32]
0	0x3d2ef6ae	0.04271572
1	0x3d2edf9c	0.04269372
2	0x3cb772b0	0.022393554
3	0xbd4d1dfe	-0.05007743
4	0x3d467cbe	0.048458807
5	0x3d1d277d	0.038367737
6	0xbd75fb2e	-0.060053997
7	0xbcb9b9df	-0.022671638
8	0x3d137e9e	0.036009423
9	0x3d656dff	0.056013104
10	0x3d9fcca7	0.07802706
11	0xbd7617f7	-0.06008145
12	0xbdbdbf7d	-0.09265039
13	0x3d7a5a12	0.061121054
14	0xbc8a0bd4	-0.016851343
15	0x3d9f8738	0.07789463
16	0xbcbd68ac	-0.0231212
17	0x3d75442e	0.059879474
18	0x3db0bd06	0.08629803
19	0xbd7e49c0	-0.062082052
20	0xbc97db24	-0.018537112
21	0xbd3a3271	-0.04545826
22	0xbc966e9b	-0.018363288
23	0x3d0c68c2	0.034279592
24	0x3c99fade	0.01879638
25	0xbd06afe1	-0.032882575
26	0x3d717967	0.05895367
27	0x3d8f3f78	0.069945276
28	0x3d4a95b9	0.049459193
29	0xbd5d661a	-0.05405245
30	0x3d56b88b	0.052422088
31	0xbc52811a	-0.012848163
32	0x3d5930d8	0.053025097
33	0xbd0c1cd4	-0.03420718
34	0x3d4fe491	0.050755087
35	0xbcbb14f1	-0.022837134
36	0x3c7d85c8	0.0154737905
37	0x3d8b41c5	0.06799654
38	0xbd1bf87d	-0.038078774
39	0xbb371e9a	-0.0027941824
40	0x3d7167de	0.058936946
41	0x3cbdf492	0.02318791
42	0x3d58adb6	0.05290004
43	0xbc7c30d9	-0.015392506
44	0xbd6374fb	-0.055531483
45	0x3d803739	0.06260533
46	0xbce9135f	-0.02845162
47	0xbcff5c50	-0.031171948
48	0xbd121d06	-0.03567221
49	0x3cda66ac	0.026660286
50	0x3d59afbe	0.053146116
51	0xbd7c29aa	-0.06156317
52	0x3d141bb1	0.03615922
53	0xbd42b94d	-0.047539998
54	0xbce3a62e	-0.027789202
55	0x3d656b0a	0.056010284
56	0x3c8e8180	0.017395735
57	0xbd0d2b3e	-0.034465067
58	0x3ca16486	0.019701254
59	0x3d1db443	0.03850199
60	0x3d134bc2	0.03596092
61	0xbc14ec44	-0.009089533
62	0x3ce5bb39	0.028043376
63	0xbd2babfd	-0.041912068

fc2.bias f4 [2]
0	0x3d198dca	0.037488736
1	0x3d2f3808	0.042778045
