models/10second_mfcc_h64.pth (torch, 257493 bytes, 8 tensors)

rnn.weight_ih_l0 f4 [64, 862]
00000000: 5945 c13c bbd0 4abd 050e 833d 9557 9dbd
00000010: ba44 bcbc 18dc ed3d c4b3 b2bd 9fbd 5c3d
00000020: 7106 be3d 0dd0 a03d c021 d6bc fa3b aabc
00000030: 20e6 c03d cb8f ec3b 0a0b 803c 59fd d93d
00000040: 06a4 143c 3b56 9d3d c05c cfbd b6ec fe3d
00000050: 63f1 14bc 5ae7 4cbc 9dee f73d 55ee 9abd
00000060: 664f 97bc 3d03 263d fcc2 c73d 3dad 1cbd
00000070: 32aa 0cbd 8483 eb3d c94c cc3d 0913 f33d
00000080: 034a b0bd 61ee 9d3d 83dd 48bd ff93 d83d
00000090: 0c7c 843d 7b4c 643d 982a 753d 6319 d1bd
000000a0: ab59 9ebc 0b28 c3bd 0564 dbbd f1e2 8cbc
000000b0: 00a0 edbd 2a84 ee3d 2d5d 943d aeb2 b0bc
000000c0: 2d30 4ebc 735b 333d 1e6c abbd 8d3f 943c
000000d0: 9b4a 3a3d 7764 fa3d ec35 2fbc a568 403d
000000e0: b2a4 eabd 774c c2bc b54f b03d 5396 d73d
000000f0: 2749 4f3d 46bc b13d 3fda 933d 4f05 d9bd
00000100: 9b73 a13d f7da 9abc 81e0 c63d 6ff4 3fbd
00000110: 56d3 27bc f4a2 bd3d 47e9 8bbd 8eb8 593d
00000120: 0935 a8bd c129 693c a513 de3c d5af cb3c
00000130: 5c2f 9a3d b784 d43d e7a6 f5ba 8455 a7bc
00000140: d598 3cbd 0f46 f4bd aca8 073c 5442 ba3d
00000150: 784b aabd 12b0 e2bd 58fa dbbd aedb ccbd
00000160: cdf2 0ebc 01af 7ebd 0ed7 bebd ca2d d5bc
00000170: 938a b13d 1a8e 8ebd ec91 edbd 32c9 e23d
00000180: fb24 afbd c8c6 313d b978 ed3c ae94 46bd
00000190: d12c 6ebd da76 77bd 71de 333a 17e7 d6bd
000001a0: 1e8b 52bd 1744 f0bc 1056 47bd 81ad 643b
000001b0: 7c33 44bd d34d 54bd 295d c83d 5481 0bbd
000001c0: fb03 d7bd 271f 033e 25f0 f23d 340d fe3d
000001d0: 41e2 bb3d eded 033e 4fbd 4a3d 7be6 09bd
000001e0: 66d5 9e3d 4be8 a63d ea54 36bb 6a72 1c3c
000001f0: 99ae 773c 8726 c0bd 23b9 193c 77b2 763d
00000200: 9a45 36bb 3775 7dbd 5a3f f53d ca3a c5bd
00000210: c0ba de3d 86ac 443b cdbe 1fbd 89c6 1c3d
00000220: f9c0 c0bd dcd7 d4bd 2ed5 2f3c 8070 b5bd
00000230: 4f6a 0bbd 4a23 aa3c 29f3 6f3a 286d 1d3d
00000240: 92a8 3a3c c894 e8bd 08df d43d aa9e 813c
00000250: 5bac 94bd 4d5c 843d c1c7 4dbd 3859 e0bd
00000260: a494 a4bd a553 bc3d 9310 8fbb 21df 07bd
00000270: 6b41 5b3c a283 e0bd 92b9 923d b6b9 f4bd
00000280: e847 263d 828a b53d 5f21 de3d 4146 4dbd
00000290: 41ea 2cbd b733 3a3d f31c e63d 75b6 c03d
000002a0: bca3 68bd fcf7 f6bc b476 ea3d afaf b1bd
000002b0: 6d32 c73b 8de0 cdbc 956a e63b 8818 f23b
000002c0: 5a79 eb3d 2100 003e 630a bb3d 00b8 a0bd
000002d0: f7dc be3d 00fb 45bd 7f2f 6b3c bca4 d83c
000002e0: fb0d a43d a2b6 51bc 2e00 c43d 108f cc3d
000002f0: 813b ea3d acef 99bb 471b 58ba 091e e13d
00000300: 93c9 fcbd e5e8 f4bd d3cf c63d c485 a43b
00000310: f07f b13d d660 5e3d ff4d fb3d 3ab9 de3d
00000320: dee2 2abc 9329 f83d c26a 2cbd f620 8b3d
00000330: e33c c5bc 6971 043b 0e9d d8bd 4b64 f0bd
00000340: fb92 a9bd c9c5 99bc f01a a1bd 97d0 863d
00000350: 9c08 ed3a 244a 23bc c9e8 5abd 1c61 0dbc
00000360: 4749 cbbc 0e0c 363c 88f9 0e3d ecbe c3bb
00000370: d67a 16bd df7b 8e3d e8b4 d0bd 6350 c13c
00000380: 106c e03d ec9c 9cbd aafe 55bd cec4 da3b
00000390: 96ce c4bd 1398 593c 210b 0ebd 2735 7fbd
000003a0: a173 dc3d 6fd2 bf3c dcee b2bc 33f4 06bd
000003b0: 6e1a 083d 7a1d 42bb 79b6 663c 5f5c e73d
000003c0: 6a34 c1bc 2aa3 b9bc 1b0d f83c 99cd 8a3d
000003d0: b217 e9bd c681 fdbd 5cab c53d 2e5e a43d
000003e0: f35c 9bbd a040 61bd d031 bfbd f038 bcbd
000003f0: ba08 aabd 75a4 88bc 3619 eb3c 27b3 cfbd
0.023592638 -0.049515467 0.063991584 -0.076827206 -0.02298199 0.11614245 -0.08725694 0.053891774
0.09278572 0.078521825 -0.02613914 -0.020780552 0.09418893 0.00721929 0.015630264 0.10644025
0.009072309 0.07682463 -0.101251125 0.12447493 -0.009090754 -0.01250633 0.12106059 -0.075649895
-0.018470477 0.040530432 0.09753987 -0.03825115 -0.034342 0.11499694 0.09975583 0.11868865
-0.086078666 0.07711483 -0.049039375 0.10575103 0.064689726 0.055737 0.059855074 -0.1020992
-0.019329866 -0.09529122 -0.107124366 -0.017198058 -0.11602783 0.11646302 0.07244334 -0.021569576
-0.012584728 0.043788385 -0.08370231 0.01809671 0.045481306 0.122261934 -0.010694008 0.046974797
-0.114571944 -0.023718102 0.08608953 0.10526719 0.050606873 0.086784884 0.072193615 -0.10596716
0.07883378 -0.018903239 0.097107895 -0.04686397 -0.0102432575 0.092595965 -0.068316035 0.05315452
-0.08213241 0.014231146 0.027108977 0.024864117 0.07528564 0.10376876 -0.0018741757 -0.02042652
-0.04604419 -0.11927425 0.008279961 0.09094682 -0.08315176 -0.11068739 -0.10741109 -0.10002838
-0.00872488 -0.062178615 -0.09318362 -0.02602281 0.08669009 -0.069606975 -0.11600098 0.11073531
-0.08551975 0.043402463 0.02898823 -0.048481636 -0.05814821 -0.06041608 0.00068614545 -0.10493296
-0.051402204 -0.029329343 -0.04866606 0.0034893455 -0.04790066 -0.05183203 0.09783394 -0.034058884
-0.10498806 0.12804852 0.1186221 0.12404862 0.09174014 0.1288373 0.049496945 -0.03366707
0.07755546 0.08149775 -0.0027821609 0.009548763 0.015117311 -0.093823485 0.009382519 0.06022879
-0.0027812482 -0.061879363 0.11974974 -0.09630354 0.108754635 0.0030010059 -0.03900032 0.038275275
-0.094118066 -0.103927344 0.010731978 -0.08859348 -0.03403693 0.02076878 0.000915336 0.038434178
0.011392729 -0.11356503 0.10394102 0.015822727 -0.07259437 0.064629175 -0.05023933 -0.10954517
-0.080361634 0.091956414 -0.0043659895 -0.033171777 0.013382296 -0.10962607 0.07164301 -0.11949484
0.04059592 0.08864309 0.10846209 -0.050115827 -0.04221559 0.045459475 0.112359904 0.09409801
-0.056796774 -0.030147545 0.11448422 -0.08676087 0.0060790093 -0.025131488 0.0070317485 0.0073881783
0.11497755 0.12500049 0.091328405 -0.07847595 0.093194894 -0.048335075 0.014354586 0.026445739
0.08010479 -0.012799891 0.09570347 0.099882245 0.11437131 -0.0046977606 -0.0008243811 0.10992057
-0.12343135 -0.119584836 0.09707608 0.005020829 0.0866698 0.05429157 0.12270736 0.10875173
-0.010430066 0.12117305 -0.042094 0.06793396 -0.024076885 0.00202092 -0.10576831 -0.11737879
-0.082799874 -0.01877107 -0.07866466 0.06582754 0.0018084231 -0.009966407 -0.053444657 -0.00862911
-0.024815215 0.0111112725 0.03490594 -0.0059736874 -0.03673824 0.0695722 -0.10190755 0.023597902
0.10958111 -0.07647118 -0.05224482 0.006676293 -0.09609716 0.013280886 -0.034678582 -0.06230655
0.10764242 0.023415772 -0.021842413 -0.03294773 0.03322833 -0.002961962 0.014081591 0.11296915
-0.023584563 -0.02266081 0.030279687 0.06777496 -0.11381473 -0.12378268 0.09651825 0.08025776
-0.07586088 -0.05499327 -0.09335673 -0.091905475 -0.08302446 -0.016679982 0.028698545 -0.101415925

rnn.weight_hh_l0 f4 [64, 64]
00000000: f65d ebbd 6a0b 86bd af38 92bd 6fc3 dc3d
00000010: 8a87 01be ff8e a73c bb7f a5bd dfbd d8bd
00000020: f51d d33d 0d6a a63d 085e 9d3d 08b8 e4bd
00000030: ba17 8e3c 3784 c2bd 3c5e bcbd 618b 8dbd
00000040: b1bc d03d e26c 6a3d 1cb5 c73d 7c3e ce3d
00000050: 6e07 56bd 74b6 133d 7038 c4bd f2c3 a83d
00000060: b99a adbd c989 f0bd 5f65 40bd 0909 1b3d
00000070: dba9 233c 08e2 a3bd 34e6 ca3c 9d71 dcbd
00000080: 8b24 943c 1bc2 9a3d e9c7 f03d c40d bebb
00000090: 6acc 96bd 9841 c6bd 2a35 043e 8158 883c
000000a0: fb6d a5bd 92b5 5a3c 45ad 963d c9d5 ae3d
000000b0: 351e babd 7b15 21bd 850a d4bd 1257 263d
000000c0: 5648 083d 7706 e03d e3ee 9ebd 424b 893d
000000d0: 359e 19bc bdf4 7d3d c859 d0bd 1924 d9bd
000000e0: c132 80bc cbd2 83bd bfd7 4ebb ec61 723c
000000f0: 7bd6 fa3d 62ca 7d3d ce51 6d3d 0d8f a7bb
00000100: 6f6f 93bd 3cf6 923d c69c 0cbe 3164 6fbd
00000110: 5b99 98bd 8e13 453d 436c 99bd 6499 a1bd
00000120: 90db 3c3c 3c51 c6bd a7f4 ffbd f777 35bc
00000130: fda8 bbbc fe5e b93d d285 ef3d db5f 213c
00000140: 51d1 4a3c cf0c cd3c 1984 4bbd 9762 b93c
00000150: ca4c ab3c 33a4 bebd a195 773c 16f1 e43c
00000160: bd8d 85bc 19e7 553d ed07 e6bd db0a 563c
00000170: cdef 343d b4c8 e1bd 2ae6 f7bb 9eaa e8bd
00000180: 4fc1 84bd b671 093e 601f 0dbc 4a2b e5bd
00000190: 47a4 d33c fdd1 d33d 3de8 36bd 57e5 e53d
000001a0: ffaa 40ba 0f2d de3d 26f9 9ebd e258 57bc
000001b0: 17f9 a43c 3e84 b2bd f03d d43d 7c45 fcbd
000001c0: f41b 213d 9847 3b3b 5f8e bb3a 7e84 c5bc
000001d0: 2be2 d3bd 7873 b13d 9a36 bd3d 1b5a a03d
000001e0: 5972 873c 5b60 edbc 520d ac3d a0c1 103d
000001f0: d15b d53d c484 323c c035 563c b6f1 0ebd
00000200: 0c05 65bc 9e96 a9bd c85f f7bd 5b27 b83d
00000210: 6555 bd3c 2f06 c4bd 60a4 593d 796c c63d
00000220: 9b63 623d 81ca b9bd 0766 0f3d a38d e9bd
00000230: a5b8 aabd 2be6 7cbd 5ed2 ebbd c70a afbc
00000240: 247f d63d 1e41 57bd 37ec 093d 9449 7f3c
00000250: d9ca a6bd b660 be3c 96dc 6b3d 4c82 17bd
00000260: de34 34bd 249f 4f3d b687 6abd 9ed1 14bd
00000270: 8345 c63d 89e6 df3d 725a c93d a2ab a3bd
00000280: 5047 94bd 128e 8f3d 7381 603d 2f48 d33d
00000290: 87d7 a3bd 84fa 1a3d 52d6 91bd a2b1 563d
000002a0: d240 d43d 2005 f73d e6fc 1b3d 2652 113e
000002b0: ad2a cdbd aea6 81bc 1d79 f2bd a1b2 3cbd
000002c0: 290a db3d 07b5 903c 4e4e 99bd 90f2 6d3d
000002d0: 0f4f 12bd 2e1d 503d 853f 833d 4e14 7f3d
000002e0: ecd6 a1bd ae72 783c 2091 c0bd 7963 983d
000002f0: da92 c0bd d9cb d43d 50dc ed3d 1bcc ddbb
00000300: 97bd d3bd 0452 0c3c dfdd cebd 35b3 e8bd
00000310: 45d1 c73d 3f50 9b3c e98d aa3d e2a7 b1bc
00000320: 847b 993d bc3c 02be 55e3 83bc b455 9abd
00000330: 13fd e9bc 3f88 b73d af2d c63d d2d0 013d
00000340: 04ed 713d 8909 d2bd 5ddd c8bd 3c6f 47bd
00000350: 1c80 99bd 8a65 66bd 82f6 acbd fde6 033e
00000360: 45ff aebc bd64 653d 74ec 7f3d 91a3 eebd
00000370: f10d a2bc 8b2d 0c3d 0f76 0abe abc5 f7bc
00000380: 490f b13d 49c8 503d 9f0b 983d f728 0c3e
00000390: b680 db3d d9f1 963d d42a 94bb 3db5 a23d
000003a0: 60f7 febc 8b90 073d a9f8 dc3c 90cc 733d
000003b0: c860 3abd 36f2 483b f1c2 ffbd c23c 993d
000003c0: 2242 ffbc c7cd f63d 6c69 06be 4e29 dc3d
000003d0: 9e64 f6bd cc07 323d 08ed 07bd 9fc2 393d
000003e0: 0ac2 50bd b2ca 003b 4055 7f3d 350a ebbd
000003f0: 63ba 8cbd 7ad5 ad3d 4acf d23b 4c6a 9bbd
-0.11492531 -0.06545146 -0.07139718 0.107794635 -0.1264936 0.020453928 -0.08081003 -0.1058309
0.10308448 0.08125696 0.07683951 -0.11167914 0.017345298 -0.09497874 -0.09197661 -0.0691135
0.1019224 0.057232745 0.09751341 0.10070512 -0.05225318 0.036062673 -0.09581077 0.082404986
-0.08476777 -0.117450304 -0.046971675 0.037850413 0.009989227 -0.080020964 0.024767973 -0.107638575
0.018083831 0.07556554 0.1175688 -0.005799981 -0.07363208 -0.0968048 0.12910905 0.016643764
-0.08077618 0.013348954 0.07357267 0.0853687 -0.09087793 -0.039327126 -0.10353569 0.04061038
0.03327211 0.10938733 -0.07760408 0.067038074 -0.009376098 0.06200098 -0.101733744 -0.10602588
-0.015649201 -0.0643669 -0.00315617 0.014793854 0.1224794 0.061960585 0.057939343 -0.0051134885
-0.07198989 0.07175872 -0.1373168 -0.05844516 -0.07451125 0.048114352 -0.074913524 -0.07890585
0.011526957 -0.09683463 -0.124978356 -0.011075965 -0.022907728 0.090513214 0.11695446 0.009849514
0.0123790065 0.025030522 -0.049686525 0.02263002 0.02091064 -0.09308662 0.015111358 0.02794699
-0.016302938 0.052222345 -0.112319805 0.013064112 0.044174004 -0.11024609 -0.0075652795 -0.11360668
-0.06482183 0.13422284 -0.008613437 -0.11189897 0.02583517 0.103427865 -0.044655073 0.11225384
-0.0007349699 0.10848438 -0.07762365 -0.01314375 0.020138307 -0.087166294 0.10363376 -0.123179406
0.0393333 0.0028576609 0.0014309398 -0.024111029 -0.103458725 0.08664602 0.0923893 0.07829686
0.016534017 -0.02897661 0.08400978 0.035340905 0.10417903 0.010895912 0.013074338 -0.034898482
-0.013978254 -0.08280681 -0.12078816 0.089918815 0.023112008 -0.09571492 0.053135276 0.09688658
0.055270772 -0.09071828 0.03500941 -0.11403968 -0.083359994 -0.061742943 -0.11514734 -0.021367444
0.10473469 -0.052552335 0.033672538 0.015581507 -0.08144159 0.023239475 0.057583414 -0.036989495
-0.04399573 0.050688878 -0.05725833 -0.03633272 0.09681227 0.10932643 0.09831704 -0.07991721
-0.07240164 0.0700952 0.054810952 0.10316502 -0.08000093 0.037836567 -0.071209565 0.052415498
0.10363926 0.120615244 0.03808298 0.14191493 -0.100179054 -0.01582655 -0.11839507 -0.04606879
0.10695297 0.017664446 -0.074856386 0.058092654 -0.035719927 0.050809078 0.064086 0.062275223
-0.07902321 0.0151640605 -0.094026804 0.07440848 -0.0940301 0.10390443 0.11614287 -0.006768716
-0.10338896 0.008564476 -0.10100912 -0.11362306 0.09756712 0.018959163 0.083278485 -0.021686498
0.07494262 -0.12718481 -0.016099611 -0.07535878 -0.028563058 0.08961534 0.09676682 0.031693287
0.059063926 -0.10255725 -0.09807847 -0.048690066 -0.07495138 -0.05624918 -0.08445455 0.12881084
-0.021361956 0.056004275 0.06248136 -0.116522916 -0.019782038 0.03422312 -0.13521598 -0.030245623
0.086454935 0.050972257 0.074240915 0.13687502 0.10717909 0.073703475 -0.004521707 0.07944725
-0.031123817 0.03309683 0.02697404 0.059521258 -0.045502454 0.0030661947 -0.12488354 0.07482292
-0.031159464 0.12050968 -0.13126153 0.10750066 -0.1203091 0.043464467 -0.033185035 0.04535162
-0.0509663 0.0019652066 0.06233716 -0.11476556 -0.06871488 0.08487983 0.006433402 -0.07588634

rnn.bias_ih_l0 f4 [64]
00000000: 7371 e7bc ca62 7b3d 0fdb 013c 5b94 143e
00000010: a3ae debd 60d1 9abd 40aa 803d bad8 17bd
00000020: e197 4e3d 7662 88bd b721 c23a 73d0 3e3d
00000030: 71cd 4ebc 82e3 11bd 71a1 803d a891 81bd
00000040: 0d1a f3bc 0c03 f63d c50c e83d 12ab fabd
00000050: 0473 8e3d 2712 2a3d 542e c0bc 4cce 0b3e
00000060: 42a9 e23d a7c2 f03d d8c7 28bd 9a51 013b
00000070: 8d8e c73d 2271 f0bd 01cd 883c 0b62 81bd
00000080: 4289 e73d b078 d13d cb59 913d 0818 70bd
00000090: f23e 503d af74 ac3d eff4 48bd bb01 d73d
000000a0: ef88 443d d994 dc3c 6a12 5bbd 1954 3ebc
000000b0: 44d5 95bd 08a7 b5bd da17 0e3d 4e57 98bd
000000c0: 724e 373d 7114 76bd 087f 763d aad7 9bbd
000000d0: 436c 063c 661e 523d 0304 9abd d6a0 61bd
000000e0: 5c14 87bd 2fe6 8dbd 116d 093e 5175 e2bd
000000f0: 8d0b b1bd c2c1 e2bd 91ee ccbd bbe6 37bd
-0.028252339 0.06137351 0.007925763 0.14509718 -0.10873153 -0.07559466 0.062824726 -0.03707192
0.05043781 -0.06659405 0.0014811073 0.04658551 -0.012622223 -0.03561736 0.062807925 -0.0632661
-0.029675508 0.120123 0.113305606 -0.1223966 0.06955531 0.041521218 -0.023459591 0.13652915
0.110674396 0.11755877 -0.04120621 0.0019732476 0.09743986 -0.11740328 0.016699316 -0.06317528
0.11305477 0.102280974 0.07097205 -0.058616668 0.05084128 0.08420693 -0.049061712 0.10498377
0.047982153 0.026926445 -0.053484358 -0.01161673 -0.07316068 -0.08869749 0.034690715 -0.07438527
0.044752546 -0.06007809 0.06017974 -0.07609494 0.008204523 0.05129852 -0.075202964 -0.055085026
-0.0659568 -0.0692867 0.13420512 -0.110575326 -0.08644781 -0.110721126 -0.100064404 -0.044897776

rnn.bias_hh_l0 f4 [64]
00000000: e224 54bd b08b efbc a4e1 bc3d a145 9bbc
00000010: 59df 1c3d 066e b2bd 7fa0 0b3e a78c cf3d
00000020: d7f8 043d 5338 c83d af1d 9cbc 63fd f0bc
00000030: 8cef b03c 4775 e93d bc41 083e affc 4cbd
00000040: 17ef fe3c b174 0dbb b574 ecbd 3aaf 12be
00000050: 4f26 1f3e 1f20 3c3d 5ab1 643d b3bd 633b
00000060: 6002 5ebd 2024 f3bc 27a6 153c 6297 0c3a
00000070: f92f af3d 4dd9 4e3d 7d07 dbbd 330b 8cbd
00000080: 0230 06bd 7d0b 143e 5bac a6bd 9343 dc3b
00000090: 04d3 a93c 6b02 f13d 0c11 973d 6299 72bd
000000a0: 90b4 29be c643 f9bc edd6 90bd b023 863d
000000b0: 59cd 0e3d fe51 0c3d 7113 f93b fe90 c93d
000000c0: 6dd2 f53d 4203 e2bd 767f 063e b381 913d
000000d0: aef6 4f3c 8b83 febd 55b7 e33c d1b3 073d
000000e0: 9d14 913d 711f 87bd daae c0bd 99cd 62bd
000000f0: 4b61 19bd 2e1d 4fbc 6786 df3d 2ed2 a7bd
-0.051792987 -0.029241413 0.09222725 -0.0189541 0.03829894 -0.087123916 0.13635443 0.10134249
0.032463875 0.09776368 -0.019057123 -0.0294177 0.0215986 0.11399322 0.13306326 -0.050045665
0.031119866 -0.0021584446 -0.115456976 -0.14324656 0.15541957 0.04592907 0.055833198 0.003475052
-0.054201484 -0.029680312 0.009133852 0.0005363134 0.08554072 0.050500203 -0.10694788 -0.068380736
-0.032760628 0.14457507 -0.08138343 0.0067219227 0.020730503 0.11768039 0.07376298 -0.05922831
-0.16572785 -0.030427825 -0.07072244 0.065497756 0.034863804 0.03425788 0.0076011945 0.09842108
0.12003026 -0.11035778 0.1313456 0.07104816 0.01269309 -0.124274336 0.02779738 0.03313047
0.0708401 -0.06597794 -0.0940835 -0.055371854 -0.0374463 -0.012641234 0.10914307 -0.081943855

fc1.weight f4 [64, 64]
00000000: 60aa b73b 16a3 f8bd a44b 61bd 9803 1a3d
00000010: 246e e7bd 027a b3bd 0061 9e3d 7888 c53c
00000020: 6c14 c4bd 1828 c8bc 50bd d03d 06b3 a8bd
00000030: 08f8 1a3d 58be c13c 6c51 70bd d031 c23c
00000040: 9c49 e13d 6c62 b13d fa0a fbbd 885d e1bd
00000050: 5a15 debd 1081 34bc 6c4d b5bd 48f1 c4bc
00000060: 6058 55bd 60b4 4ebd 7896 b73c b85e c5bc
00000070: 207e d73d e49c 4a3d 4a02 dfbd 50a9 f73c
00000080: 987c 3dbd d08e 1dbd 5ef9 83bd e4c4 c3bd
00000090: 1089 fa3c f40a 9d3d 388e 8cbd 5488 76bd
000000a0: ee47 fc3d f60f 8d3d 10f2 adbc dcf6 c3bd
000000b0: 8098 90bb eea5 b63d fc53 3f3d b0c4 8b3c
000000c0: 9455 c3bd fa42 d63d 622d ddbd 6867 80bc
000000d0: ba1e c8bd 0070 ebbd 4a35 e9bd 801e d5bd
000000e0: 50db d83c 9845 cf3d ce66 94bd 500d 103d
000000f0: 3462 7e3d 6052 aa3b bccb 6dbd 0885 28bd
00000100: 38a7 4cbd 7286 f23d d0ad 4fbc dc14 ed3d
00000110: e0ed 78bd 30ba ba3c 9ce9 a4bd 86f1 96bd
00000120: 308b ddbc 1638 a53d e8c9 28bd 4491 123d
00000130: 2090 f0bb b817 c9bd 50bc 673c 105b 913d
00000140: b825 64bd b845 c0bc c4cb c43d c077 28bd
00000150: 2a71 cf3d ee3a fbbd c0a6 cb3b e0ef 643c
00000160: 441b 363d 40f3 a93c 465a a83d 6ac9 913d
00000170: 98d0 3cbd c641 b03d a874 8dbc 2074 963b
00000180: 94f7 dfbd 728c b5bd f67f f23d dca8 48bd
00000190: 70c6 79bc c01b 47bb bc85 8a3d 70a0 cb3c
000001a0: 7c44 5fbd 8e26 fa3d 788c 323d 3239 8f3d
000001b0: 9e13 953d b464 89bd 7011 fbbc 5cfc ba3d
000001c0: 501e 1f3d c02d dd3d 8c1e 20bd f828 debd
000001d0: bca9 c2bd dc2f 693d 8000 413d aa5b f6bd
000001e0: acec e6bd e662 c73d ec97 1ebd b816 783d
000001f0: 7046 2cbc 908d 533c f882 ddbd 40cd a63d
00000200: 20f0 4b3d c020 8dbd 8c8f 6cbd 6809 abbd
00000210: 9091 b83c 60c4 d8bb 0882 b63c 280c f23c
00000220: 86ce ce3d 44e6 acbd 0c80 353d e87e d73c
00000230: d012 b43d acd9 393d 0056 09ba 2488 46bd
00000240: d82a 93bd dc3b 163d 480a a6bd 20cf 1b3d
00000250: d6e3 81bd d4a0 bfbd ec1a 39bd 0cb4 63bd
00000260: fc1d f6bd 281b efbd 10c1 8a3c 40a9 edbc
00000270: 40b0 e33c e8ca a3bc 062d a03d a82f d93c
00000280: a000 e23b 2acd e73d e060 1b3c 18dc 9fbd
00000290: a8fd a7bc 7620 9b3d 50f8 d9bc 2021 b73b
000002a0: 948b 6fbd e428 1a3d 40ba 79bc 1ee6 963d
000002b0: bcc2 093d acbd 49bd 6067 fe3b 9c39 e1bd
000002c0: 60c6 83bd 2099 9dbb f015 b6bd 50ce 5e3d
000002d0: d06f 9b3d 2ed0 bfbd 6416 033d 00be a5bb
000002e0: 9e52 8e3d e8bc 97bd 40b8 433c 008f f6ba
000002f0: 0096 d63d 286d 62bd d4fe 803d 70bf 01bc
00000300: d811 be3d 40bc 27bd 782e 643d 0413 523d
00000310: 90f7 723d e41a 403d 7c18 0a3d 80fb 853c
00000320: 4c8e a83d c89c a0bc a022 f33b b8e1 f53c
00000330: 6cc0 22bd 2c2a 76bd 3014 d2bd e49d 2bbd
00000340: d0ed 7f3c a8a6 de3d 80bb c63b fe12 a33d
00000350: 700a 5d3d ae60 b0bd 686d ebbd ec03 143d
00000360: 0a60 f1bd 2621 8b3d 000f 173a 60d6 6dbd
00000370: 2432 d7bd f0c0 bf3c aa1a e3bd e03a 7bbc
00000380: c0c0 dd3c 509c 9f3c aeba 8ebd 7035 7dbd
00000390: 6899 cdbc 64ec d63d 00d0 e73c 4036 54bb
000003a0: 60ed c8bb ae71 c0bd fcf8 61bd 203d 653d
000003b0: b0fc c93c 7046 9cbd b44b f4bd 5c53 ccbd
000003c0: b6ee a9bd 3668 bd3d b049 70bd e634 fdbd
000003d0: 7832 873d 8054 a63a d891 803c 706b 1d3c
000003e0: b090 303d ea41 fa3d c05d b73c 409c 49bb
000003f0: 2814 cb3d 485b ff3c 6044 88bb 7e99 c63d
0.005605027 -0.12140481 -0.055003777 0.037601084 -0.113003045 -0.087635055 0.07733345 0.024112925
-0.09574208 -0.02443318 0.101923585 -0.08237271 0.037834197 0.023650333 -0.0586714 0.023705393
0.11000368 0.086613506 -0.12257953 -0.11004168 -0.10843916 -0.011017099 -0.08852658 -0.024040833
-0.052086234 -0.050464988 0.022410616 -0.024093017 0.10522103 0.04946603 -0.108891085 0.030232102
-0.0462614 -0.038466275 -0.064440474 -0.09559038 0.030582935 0.07668105 -0.068630636 -0.060188606
0.12318407 0.0688781 -0.021233588 -0.09568569 -0.0044127107 0.08918367 0.046710953 0.017061561
-0.09537807 0.104619935 -0.10799672 -0.015674308 -0.097714856 -0.11495972 -0.11387117 -0.10406208
0.026471764 0.10120696 -0.07246171 0.035168946 0.062105373 0.005197808 -0.058055624 -0.041142493
-0.04996416 0.1184205 -0.0126757175 0.11576244 -0.06077373 0.02279386 -0.0805237 -0.07370286
-0.027043909 0.08067338 -0.041208178 0.035783067 -0.0073414 -0.09818977 0.014144018 0.07097447
-0.055700034 -0.023470744 0.09609178 -0.041129827 0.10129006 -0.12267099 0.0062149465 0.013973206
0.044459596 0.020745873 0.08220343 0.07118495 -0.046097368 0.08606295 -0.01726754 0.00459148
-0.10935894 -0.088646784 0.11840813 -0.04898916 -0.015245065 -0.003038153 0.06763789 0.024856776
-0.05450867 0.12214385 0.043590993 0.06993331 0.07279132 -0.06708661 -0.030647963 0.09130165
0.038847268 0.10799742 -0.03909163 -0.10847658 -0.095050305 0.056930408 0.047119617 -0.12029202
-0.1127561 0.0973566 -0.038719103 0.06056854 -0.0105148405 0.012912169 -0.10815996 0.08144617
0.049789548 -0.06891012 -0.057754084 -0.083514035 0.022530347 -0.0066152066 0.0222788 0.029546812
0.10097985 -0.08442357 0.04431157 0.02630563 0.08792651 0.045373604 -0.000523895 -0.048469678
-0.07185906 0.03667818 -0.0810743 0.038039327 -0.063422844 -0.093568474 -0.04519169 -0.055591628
-0.12017438 -0.116751015 0.016937762 -0.029011369 0.027794003 -0.019994214 0.078210875 0.026511982
0.006897047 0.11318429 0.009483546 -0.078056514 -0.020506695 0.07574551 -0.026607662 0.0055886656
-0.05848272 0.037636653 -0.015242159 0.0736811 0.03363298 -0.04925315 0.007763788 -0.10997316
-0.064343214 -0.0048095137 -0.08890903 0.054395974 0.07589686 -0.09365879 0.032003775 -0.00505805
0.06949352 -0.07409078 0.011945784 -0.0018810928 0.10477829 -0.05527988 0.062986046 -0.007919177
0.09280747 -0.040951014 0.05570838 0.051287666 0.059318125 0.046900645 0.033714756 0.016355276
0.08230266 -0.01960601 0.007419899 0.030014858 -0.03973429 -0.060098812 -0.10257757 -0.041898623
0.015620664 0.10871631 0.006064832 0.07962607 0.053965032 -0.0861219 -0.11495477 0.036136553
-0.11785896 0.06793432 0.0005762428 -0.058065772 -0.105076104 0.02340743 -0.1108907 -0.015333861
0.02706945 0.019483715 -0.069692 -0.06181854 -0.025097564 0.10494307 0.028297424 -0.0032380968
-0.006131813 -0.09396683 -0.05516909 0.055966496 0.024656624 -0.076306224 -0.11928502 -0.09976837
-0.082974836 0.09248392 -0.058664024 -0.12363605 0.06601423 0.0012689978 0.015694544 0.009608135
0.043106735 0.12219603 0.02238357 -0.0030763298 0.09915954 0.031171456 -0.0041585416 0.09697245

fc1.bias f4 [64]
00000000: 6a40 9cbd 600f f23b 5045 2bbc 9812 153d
00000010: a405 ce3d 9e3b ccbd 50da 68bc 00b6 173a
00000020: fc10 4f3d 10b6 d83c 7e81 8c3d 5414 be3d
00000030: dc45 003d f80b 1d3d 5814 2abd 585d e8bc
00000040: f8b8 f33c fe61 be3d be8b fc3d 88d8 283d
00000050: c456 babd 6a80 da3d 0ad2 b7bd 28d3 963d
00000060: 4c3e 2abd 988a c43c 80bd 9abc b014 84bc
00000070: fc52 c3bd 70ba 04bd 3444 09bd d827 4a3d
00000080: f067 45bd 9eab 88bd ba70 f7bd 68d5 5fbd
00000090: 643c a8bd 0016 12ba 0422 143d ac07 863d
000000a0: 98e6 7d3d a28e 8dbd 0274 be3d 60a1 8c3c
000000b0: 6cdf a3bd 7067 583d fe38 c9bd 483a d7bc
000000c0: e834 d0bd 96e6 fa3d 985e dabc 5c8b f6bd
000000d0: 065e af3d 80c7 f1bc 8ac5 fa3d a8af d0bc
000000e0: 9016 bf3c 1abf f43d 629c 8b3d 303a 273d
000000f0: 94ce e33d dc16 ca3d 2054 6cbc 3eb5 dd3d
-0.076294735 0.0073870867 -0.010453537 0.036394686 0.100596696 -0.099723086 -0.014212206 0.0005787313
0.050553307 0.026454002 0.06860636 0.09281221 0.031316623 0.038341492 -0.041523308 -0.028364822
0.029751286 0.09296034 0.12331341 0.041222125 -0.090985805 0.10669024 -0.08975609 0.073644936
-0.041563317 0.023991868 -0.018889189 -0.016123146 -0.095373124 -0.032404363 -0.03351231 0.049354404
-0.048194826 -0.066733584 -0.12082048 -0.05464688 -0.082146436 -0.0005572736 0.036165252 0.06544432
0.06198749 -0.06911971 0.092994705 0.017166793 -0.08001599 0.05283302 -0.098253235 -0.026272908
-0.10166341 0.12251012 -0.026656434 -0.120382994 0.085628554 -0.029514074 0.12244709 -0.025474384
0.023326188 0.11950512 0.06816937 0.040826976 0.11123386 0.09867641 -0.014424354 0.10825585

fc2.weight f4 [2, 64]
00000000: 460b 20bd f4f7 5a3d cfed a13c 25a0 f33b
00000010: dd49 8abb d2e9 7cbd 8dd9 4bbd 71cb 42bd
00000020: c8d5 3e3d a017 99bc e18f a63d db61 303d
00000030: 1641 babc 2804 4f3c 29d8 35bd f264 0bbb
00000040: 770b a4bc 7abe 813d ddd9 3d3d ce9e 1abd
00000050: 54ef 13bd 1c6d 103d 53e1 43bd ba93 18bc
00000060: 0def b6ba 70a5 abbb d1df b4bb a23c 863d
00000070: 1d52 16bc e5f4 373d 9ddf 2abd 8c4e 87bd
00000080: bf82 583d fbee 17bd 4905 a23d 4b5a 5d3c
00000090: 8d2c d73c a01d db3c a512 ccbc d046 18bd
000000a0: d958 823d 55c2 2dbc d96f c1bc aba7 7cbd
000000b0: 5a65 a1bd 86b8 023d 852e 643d 5dac 8ebd
000000c0: d0b1 6dbd 74e1 c5b9 4150 d4bc 5484 743d
000000d0: e211 933d d3ea 66bc a7bf 6fbd 21c9 b2bc
000000e0: 1794 5f3d f543 49bd 165c 4c3d 5a9d 023d
000000f0: 771c 8ebd f147 9aba f043 273d cf5f 2fbd
00000100: 6a6b 3abd 6e54 56bd 3555 403d cb85 443d
00000110: 7133 71bd 68d3 56bd 0853 723c c597 80bd
00000120: 02f7 fc3a 63cd 223d e3dd 2d3d 6927 e23c
00000130: 8735 21bd ee36 4c3d fc0f 11bc 8269 2e3d
00000140: ccef 91bd 7750 3d3d 1048 913d 57d8 6dbd
00000150: cc27 57bc 4b29 323d d2b9 84bd 1934 683d
00000160: 95d2 d0bc af53 553d c5aa 363d 7656 08bc
00000170: ac4b 2d3d 9901 c13c d372 39bc 3963 9ebd
00000180: 18a5 7bbc b062 fb3c 1245 343d 9e3d 023d
00000190: 9fbc 20bd 6550 983c e57f 9c3b 8ad7 593c
000001a0: 1747 883c 98ca 6fbd 39fb f43c 2ab7 efbc
000001b0: 8b5a 73bd 01a4 943d ef98 6b3d 6192 343c
000001c0: d641 b53b a757 29bd 8392 2f3d 7c46 ac3c
000001d0: 77e4 413c 4de6 69bd afcd 72bc 1670 88bd
000001e0: 0209 543d 0f9b 663b 9528 2f3d 1cf5 a43c
000001f0: 40a8 1b3d a306 26bd f04e 9d3d de4c 90bd
-0.03907325 0.053459123 0.019766716 0.007434862 -0.004220231 -0.061746426 -0.04976802 -0.047557298
0.046590596 -0.018688023 0.081329115 0.043062072 -0.022736114 0.012635268 -0.0443956 -0.0021269885
-0.020024998 0.06335159 0.04635035 -0.037749104 -0.036116913 0.035260305 -0.047822308 -0.0093125645
-0.0013956741 -0.0052382275 -0.005519845 0.065545335 -0.009174851 0.044911284 -0.04171716 -0.066067785
0.052859064 -0.037093144 0.07911164 0.013510297 0.02626636 0.026747525 -0.024911234 -0.037176907
0.063646026 -0.010605414 -0.023612903 -0.061683338 -0.078806594 0.031914257 0.055708427 -0.069664694
-0.058030903 -0.00037742744 -0.025917174 0.05969651 0.07181145 -0.014094072 -0.058532383 -0.021824421
0.05458459 -0.049137075 0.049892507 0.031888343 -0.06939023 -0.0011770708 0.040836275 -0.04281598
-0.045512594 -0.052326612 0.04695626 0.047979157 -0.05888695 -0.052447706 0.014790304 -0.06278948
0.0019299688 0.039746653 0.042447936 0.027606683 -0.03935769 0.049857073 -0.008853909 0.04258109
-0.07125816 0.046219315 0.07093823 -0.058067646 -0.013132047 0.04349641 -0.06480755 0.05669031
-0.025491038 0.05208176 0.044596452 -0.008321395 0.042308494 0.023560332 -0.01131888 -0.07733769
-0.015359186 0.030686706 0.044011183 0.031797044 -0.039242383 0.018593023 0.0047759884 0.013296017
0.01663546 -0.058542818 0.029904949 -0.029262144 -0.05941252 0.07257844 0.057518896 0.011021228
0.00553153 -0.041343357 0.042864334 0.021029703 0.011834255 -0.057104398 -0.014819547 -0.06662004
0.051766403 0.0035187637 0.04276331 0.020136409 0.038002253 -0.040533673 0.07681072 -0.07045911

fc2.bias f4 [2]
00000000: 0677 f93c e957 8e3c
0.030452263 0.017375903
