models/10second_mfcc_h12.pth (torch, 45333 bytes, 8 tensors)

rnn.weight_ih_l0 f4 [12, 862]
00000000: e94b 673e a642 c1bd e235 40be 6a8b 11be
00000010: fb84 ec3d 4ab5 2ebc ae05 f1bd 15b2 563e
00000020: 100d 8cbe c62e 6f3e 198a 53be d747 823e
00000030: ed79 7dbe 49ca 77be 5d28 403e f588 583e
00000040: e98e 8e3d e497 d83c 909e 363e 1882 4b3e
00000050: 391e fa3d 16c4 fd3d 9325 34be 17da ed3d
00000060: 38db 293e 4a33 a8bd 3aa9 433e 5b31 c0bd
00000070: 3959 11be 594b a4bd 0b46 933d ac84 18be
00000080: dcb3 94bd 63b9 263d 53bd 323e 65d6 4abc
00000090: 6025 073d 9004 5abd f43e 6bbd 3e44 4dbe
000000a0: 2912 09be 3c24 68be 5576 3d3d ef98 9cbe
000000b0: 5b92 843e 2ee1 0c3e e4cb 573d 517b d3bd
000000c0: cb86 813e ffd7 78bd f82b 003e 011f 17be
000000d0: 34c9 4f3e d9ca 27bd 2758 6ebe 229b d8bc
000000e0: 0796 233d 7dcc 1d3e 1482 92be 4565 653e
000000f0: 1d4c 92be 7e82 0a3e efe1 e43d 6ff8 8ebe
00000100: 3733 32bd f4c9 31be 2ac1 36be c622 84be
00000110: f3e7 813e c0e8 2abe 08f7 6f3d 3de4 c0bd
00000120: 823e 82be e39d 03be d1d0 553d e514 61be
00000130: 13cc 093e e8f1 01bd 36fa 84bd 2b60 91be
00000140: 6fb9 8fbe 5790 2c3e 80fd 64bd 1905 3cbe
00000150: 5165 9ebe 624f 0d3e 6978 7fbe 3d6e 25bd
00000160: 9816 9dbe 95fc e83d 09d6 8fbe 55c8 873c
00000170: bdaf 8bbe c419 703e fcfa 053e 94de 92be
00000180: 443b 4e3e a6f2 5c3e 6468 e73d ec35 7ebd
00000190: ea75 2a3d 9ae0 77bb 9981 b1bd 4934 07be
000001a0: 2eac 6c3e 6872 55be 17bc f4bd 7e52 863e
000001b0: ba7e 623d 1926 8c3e 9798 0b3e ff28 43be
000001c0: 35ba 7ebe 0ead c63b 7095 003e f12b acbd
000001d0: b4af 60be 4d6d 0f3e f8d5 93be eb02 733e
000001e0: 9e9a e1bc be49 82be a388 353e 648b f93d
000001f0: 00d1 b7bd 3b55 ff3d fbef 9ebe 54a9 e13d
00000200: 48b5 70be 6dae a2bd a3c5 43be c2be 89be
00000210: 4f95 263e dba9 61be fc63 5d3e fa11 8cbd
00000220: 2bfc 803d 6e0b 48be 2fdd b6bd da03 6c3d
00000230: 8a8b 3f3d 0d2d 04be 7911 313d b500 e1bd
00000240: 7c91 793d c18c 643e 6c06 4b3e 5911 14bd
00000250: 9676 15bd b238 83be 88ea 493e ee96 b0bd
00000260: d279 423d fa06 e93d 047d 533d 2024 203b
00000270: 497c 86be 7c35 3b3e e067 51bc d787 18be
00000280: fd6e 3d3d 798f 1cbd a803 42be 9030 3d3e
00000290: af59 f03b 3ae3 d33c c019 9b3d 1828 2e3e
000002a0: 7e1e 7ebe ade2 9ebd 2684 4e3e 033c 873e
000002b0: a30d 5e3d 2abb f7bd c805 e1bc c2b0 a0bd
000002c0: 8fb8 823e 0ed7 d93c a2e9 863d c5d9 633d
000002d0: 928a 34bd 7331 f93d 6bea babd 3319 80be
000002e0: 93f3 4dbe 7793 85be c1b7 92bb ce28 a23b
000002f0: f8d7 d2bd 392b 863e 9e9b cb3d 406a 433d
00000300: 649a 603e dd0a 993d 2c75 ef3d 4558 843e
00000310: 3f33 863c 1e8c 903e 2a67 26be 8973 8abe
00000320: ea89 333e a528 83be f26b 0f3e 99c6 0e3e
00000330: 0070 823e 3cc6 e3bd 19ac 1a3e 3070 343e
00000340: 0e02 0bbe d1c6 203d 1896 1abe 5fa4 233e
00000350: c0c0 243e 5648 8bbe 8ded 613e 0257 923c
00000360: 61c9 babd 1559 863e 45fd 183e 2002 aa3b
00000370: 4af9 16bd 812d 4bbc a6cb c2bd 3afa 193e
00000380: 880d 59be 3419 573e d836 72bd 66fc 7e3e
00000390: a8d4 8cbe aa91 833e 9709 5b3d c5a9 983d
000003a0: 005e 843e c177 063e 1c88 f83d 10e7 82be
000003b0: 3f37 03be cc61 893e d3f8 4bbe 167a 5f3e
000003c0: ae96 b63d 437b 83be 2be5 5dbe d817 3bbe
000003d0: bb7f 0ebd 4b57 2e3e bcda 813e 7f86 b6bd
000003e0: d540 b4bd 14fe 64be 089b 423e 3de3 853e
000003f0: fa7f 143e 5ae0 003e 7fb7 26be f36c 4cbe
0.22587551 -0.0943654 -0.18770555 -0.14213338 0.115488015 -0.01066334 -0.117686614 0.2096637
-0.27353716 0.23357686 -0.20658149 0.25445434 -0.24753542 -0.2419826 0.18765397 0.21145995
0.06960852 0.026439615 0.17833924 0.19873846 0.12212796 0.12390916 -0.17592458 0.11613863
0.16587532 -0.082129076 0.19107524 -0.09384414 -0.14194192 -0.08022184 0.07191094 -0.1489436
-0.07260868 0.040704142 0.17455034 -0.012380217 0.032994628 -0.053227007 -0.057433084 -0.20045564
-0.13385834 -0.22670072 0.04625543 -0.3058543 0.2589291 0.13757774 0.05268468 -0.10326255
0.2529815 -0.060752865 0.12516773 -0.14757921 0.20291597 -0.040964935 -0.23275815 -0.02644116
0.039938 0.15410037 -0.28614867 0.22401913 -0.28573695 0.13526341 0.11175906 -0.27923915
-0.043505874 -0.17362195 -0.17847124 -0.2580778 0.25372276 -0.1669035 0.058585197 -0.09418533
-0.25438315 -0.12853198 0.052201096 -0.21980627 0.13456754 -0.03172484 -0.064930364 -0.28393683
-0.28071162 0.16851936 -0.05590582 -0.1836132 -0.30936673 0.13799813 -0.24948277 -0.040388335
-0.306813 0.11376301 -0.28092983 0.016575018 -0.27282515 0.23447329 0.13084024 -0.2868544
0.20139796 0.21576938 0.11299208 -0.062063143 0.041616358 -0.0037823082 -0.08667297 -0.13203539
0.23112556 -0.20844424 -0.11949938 0.26234812 0.055296637 0.27372816 0.13632427 -0.19058608
-0.2487572 0.00606311 0.12557006 -0.08406819 -0.21942025 0.14006539 -0.28874183 0.23731582
-0.027539548 -0.25446886 0.17727904 0.1218479 -0.089754105 0.12467428 -0.31042466 0.11018625
-0.23506653 -0.07943425 -0.19118361 -0.2690335 0.16267894 -0.22037451 0.21620172 -0.06839366
0.06298097 -0.1953561 -0.08928906 0.05762086 0.046763934 -0.1290781 0.043229554 -0.10986463
0.06092976 0.22319318 0.19826669 -0.036149357 -0.036490045 -0.25629193 0.19718373 -0.086225376
0.04747946 0.11378284 0.051632896 0.0024435595 -0.26266697 0.18282121 -0.012781113 -0.14895569
0.046248425 -0.038222764 -0.18946707 0.18475556 0.00733491 0.025865186 0.07573271 0.17007482
-0.2481632 -0.07758079 0.20167598 0.26412973 0.054212224 -0.120962456 -0.027468577 -0.07846214
0.25531432 0.026591804 0.06587531 0.055627603 -0.044077463 0.12167635 -0.09126743 -0.25019225
-0.20112447 -0.2608907 -0.0044774716 0.004948712 -0.10295099 0.2620485 0.09941791 0.04770875
0.21933895 0.07472775 0.11692271 0.25848594 0.016381858 0.282319 -0.16250291 -0.2704127
0.17533079 -0.25616947 0.14006022 0.13942946 0.25476074 -0.111217946 0.15104713 0.17620921
-0.13575003 0.039252106 -0.15096319 0.15980671 0.16089153 -0.27203625 0.22063275 0.017863754
-0.09120441 0.2623984 0.14940365 0.0051882416 -0.036858834 -0.012400986 -0.09511499 0.1503686
-0.21196568 0.21005708 -0.059134334 0.2490097 -0.27505994 0.2569707 0.053475942 0.07454256
0.25852966 0.1313162 0.12135336 -0.25566912 -0.12814043 0.26832426 -0.19919138 0.21823916
0.089154586 -0.2567998 -0.21669452 -0.18270814 -0.034789782 0.17025487 0.25362194 -0.08912372
-0.08801428 -0.22362548 0.19004452 0.26149932 0.14501944 0.12585583 -0.16280936 -0.19963436

rnn.weight_hh_l0 f4 [12, 12]
00000000: ab61 6abe 9632 373e 02b3 8fbe accc 93be
00000010: aede 1abe 6d59 a33d daaa 09be 6bb2 c73d
00000020: f257 963e ef26 c5bd dcfa 60be 93a1 cbbc
00000030: 0379 60bd 04aa f13d 8e0f 803e c888 77be
00000040: da0a 8fbe e594 96be 59e2 d4bd f00c 8d3e
00000050: 8a6b d8bd 498a 83bd af5f 4bbd 86ff ffbd
00000060: 2603 fbbd 78d6 5e3e 5c96 23be 3c83 debd
00000070: 3628 57be ab25 033e f71b 1fbe 299b b33d
00000080: d5c0 d5bd 9094 c1bd 2d3c 483e 522c 293e
00000090: ca4a 6cbe 8aa7 54be 0f62 debd d082 b7bd
000000a0: 5976 5b3e 6186 43be 9b6a 5b3e c7a4 203e
000000b0: 97f5 35be 4101 863e 44af 52bd 7e15 71bd
000000c0: 12d1 513e f976 93bd 0f39 6abd 4a94 14be
000000d0: 40ed 4c3d 3813 96bd 79ac 8e3d a2a2 bf3d
000000e0: 7dbc 2abd 7419 48be 3398 0bbe 814b 5bbd
000000f0: a5e9 21bd 3985 6abe f519 4ebe 2db6 c4bc
00000100: 5fd7 02bc 27ca 78bd cff2 7dbe b1e3 99be
00000110: c85d 043e 8581 203e 7602 90be cb8c c33d
00000120: 6433 913c 327a 44bd 9251 1f3c ea34 65be
00000130: b751 ae3d a038 3dbe 77f5 893e 0c49 023d
00000140: d7ff 073e fadc 8c3e 4eb0 04bd 4f0c 3dbe
00000150: 80f0 3a3e 99e9 a8bd a808 9c3d 968a 8e3e
00000160: 1c3e bebd 81ad a7bd 2861 01be bbd6 d0bb
00000170: e3e3 c3bd e487 183d a74c eabd 4c49 8c3e
00000180: b281 6b3e 7ac8 49be 3783 0b3e dbf9 16bd
00000190: 531f aebd c59a 7e3e c4ec 3dbd e513 58be
000001a0: eedc 8e3e a136 073e e9ed 1b3e 67a8 893e
000001b0: 980d ee3d 2686 37bd 1d1d 593d 4109 0cbe
000001c0: f14d 85be b023 333d 4ee3 2c3e 087d d33d
000001d0: 2374 6dbe 6b84 fd3d ccb3 bcbd fb21 9f3d
000001e0: b075 62be 622f 2bbe b855 683e 68c0 80be
000001f0: 8927 513e 1222 7c3e 1d11 35bd 3cf4 3abe
00000200: 1eb8 9a3e c06c 8e3e 851b 433e f411 98bd
00000210: fd9a 003c da4e 8dbe 99c6 523e 2189 d63d
00000220: dd14 1a3c 008b 3d3e 50f1 36bd b4da 56be
00000230: 9c86 75be 8897 92be 481f 5e3e 3d81 6c3e
-0.2288882 0.17890391 -0.2806626 -0.2886709 -0.15124008 0.07976041 -0.13444081 0.097508274
0.29363972 -0.096265666 -0.21970695 -0.024857318 -0.054802906 0.11800006 0.25011867 -0.24173272
-0.27937967 -0.29410473 -0.10394735 0.27548933 -0.105673864 -0.0642286 -0.049651798 -0.12499909
-0.1225646 0.21761501 -0.15975326 -0.10864875 -0.21011433 0.12807338 -0.15538011 0.08769829
-0.104371704 -0.09452164 0.19554205 0.16520813 -0.23075405 -0.20767036 -0.10858547 -0.089604974
0.21431865 -0.1909423 0.21427386 0.15687858 -0.17769466 0.26172832 -0.051436678 -0.058858387
0.2048991 -0.072004266 -0.05718332 -0.14509693 0.050030947 -0.073278844 0.0696649 0.093571916
-0.041683663 -0.1954096 -0.13632278 -0.053538803 -0.03952946 -0.22902383 -0.2012709 -0.02401265
-0.007985919 -0.060739662 -0.24799655 -0.30056527 0.129264 0.15674408 -0.28126878 0.095483385
0.0177247 -0.047968097 0.009724038 -0.22383466 0.085116796 -0.18478632 0.26945087 0.031807944
0.13281189 0.27512342 -0.0323947 -0.18461727 0.18255806 -0.0824768 0.076188385 0.27840108
-0.0928919 -0.0818739 -0.12634718 -0.006373254 -0.0956495 0.03723897 -0.114404015 0.2739967
0.22998694 -0.19705382 0.13624273 -0.036859374 -0.08502068 0.24863727 -0.046368375 -0.21101339
0.2790293 0.13204433 0.15227474 0.26886293 0.116236866 -0.04480567 0.05300628 -0.13675405
-0.26036027 0.043735206 0.16883585 0.10326582 -0.23188834 0.12378772 -0.09213981 0.07770153
-0.22115207 -0.16717294 0.22688949 -0.25146794 0.20425238 0.24622372 -0.044205774 -0.1825723
0.30218595 0.27817345 0.19053467 -0.07425299 0.007849452 -0.2759922 0.20583571 0.10475374
0.009404388 0.18510056 -0.044663727 -0.20981866 -0.2397713 -0.28631234 0.2169162 0.23096175

rnn.bias_ih_l0 f4 [12]
00000000: 8164 95be a7c6 f9bd 1438 81be 442f 14be
00000010: 5832 f73d 0b0b c13d 3e3a 273e 4f37 0bbe
00000020: 6bc9 74be 1200 933e 0baf bd3d 10a6 963e
-0.2917824 -0.12196093 -0.25238097 -0.14471155 0.12070149 0.094259344 0.16330811 -0.13595317
-0.2390496 0.2871099 0.092619024 0.2942357

rnn.bias_hh_l0 f4 [12]
00000000: 6f1b 9a3d 8282 31be 4633 9f3d f549 48be
00000010: 34a8 a6bd 43c6 05be 6005 8e3d 5aa0 493e
00000020: 5e3f b03d c1c1 8bbe d7b6 2cbe 7cbc 3f3c
0.07524764 -0.17334941 0.077734515 -0.19559462 -0.08137551 -0.13063912 0.06934619 0.19690076
0.08605836 -0.2729626 -0.16866623 0.011702653

fc1.weight f4 [12, 12]
00000000: 5dfd 6dbe ad29 16be 047a c4bd 1876 bebd
00000010: d624 f1bd feca 393e 1a4c 453e 70f8 663e
00000020: 1eb9 1fbe 1c8e 30be c605 263e 8465 eb3d
00000030: f8f7 87be 6034 b33c f09d a93c 40ec febb
00000040: 907d 24be 0991 01be 62e9 babd 50ba 073e
00000050: 1c20 de3d 245d ba3d b4e1 d9bd 0a29 56be
00000060: 5086 babd 4abc 57be f87c 653e 54b6 7a3e
00000070: b496 d73d 9c91 923d 88a4 763d fce7 44bd
00000080: 10ce c73c f47d 2a3e 3025 3b3d ec67 3e3e
00000090: f0e2 3a3e c467 ce3d d466 703e aa4a 823e
000000a0: 0013 48bc aacc 32be f8f9 913e 216a 39be
000000b0: 3a0e 503e 4056 ce3b 2bd0 86be 78d2 053e
000000c0: f8bf 15be ceee 6cbe 7ec9 98bd 802d 113e
000000d0: 0816 7b3e 0032 6e3e ace8 733e 7f06 91be
000000e0: 7efb 8f3e d8f7 4bbe defc 8cbe 22d7 8e3e
000000f0: acea 753e 6a07 4b3e 182b 50bd a459 bfbd
00000100: 7342 56be 104a 953d fed9 83bd a0c0 243d
00000110: bc77 16be f840 08be 9043 153d 4096 093d
00000120: e04d 5c3d f61d 333e 80f3 183b 4450 b53d
00000130: 406a c43b 7cbd 423e 7cb0 8dbd d094 0dbd
00000140: 4296 863e 0098 4c3b 1a58 10be 8043 a83b
00000150: 66b3 45be 756f 41be aa60 183e a8e5 be3d
00000160: a87f 29bd c2fc 6abe 04a9 ce3d 68e6 22be
00000170: d29b 863e 906a 6b3e b89c 593d cc55 323e
00000180: d021 ed3c 8c1a 4a3e 9080 4e3e 3485 a93d
00000190: bb9d 21be d8a7 2cbe cb90 78be ae19 3cbe
000001a0: 64f5 4a3e 74da 8b3d ac79 f8bd c6ea 033e
000001b0: 1675 8abd 0e70 8b3e 2a58 65be 6c06 6dbe
000001c0: f851 5e3e 0981 86be 5ba4 0cbe 4050 753e
000001d0: b018 823e 829f 07be 92e7 323e 28c8 2cbe
000001e0: 8c05 813e 50b9 81be 8e2b e5bd 6aad 883e
000001f0: 6e20 863e e3fc 23be a829 ff3d 9789 80be
00000200: 00d5 853d b475 d83d 7c3e 933e 78c6 a0bd
00000210: 2cf1 34bd 3043 cdbd d94a 8fbe 0072 223d
00000220: 80e1 183e b888 53bd 087c f63d 7201 fbbd
00000230: b067 4d3d 088c 30bd a825 413e 8a74 47be
-0.23241182 -0.14664336 -0.09593585 -0.09299868 -0.11774604 0.18143842 0.19267312 0.22555709
-0.1559796 -0.1724171 0.1621314 0.11493972 -0.26556373 0.02187556 0.020705193 -0.007779628
-0.16063523 -0.12652983 -0.091265455 0.13254666 0.10845968 0.090997964 -0.106387526 -0.20914093
-0.09107649 -0.2106792 0.22410953 0.24483615 0.10526791 0.07156679 0.060215503 -0.0480728
0.02439025 0.1664961 0.04568976 0.1859433 0.18250632 0.100783855 0.23476726 0.2544759
-0.012211561 -0.17460886 0.28511024 -0.18106891 0.20317927 0.006296903 -0.26330695 0.13068569
-0.14624012 -0.23137972 -0.074603066 0.14177513 0.24520123 0.23261261 0.23819226 -0.2832527
0.2812156 -0.19918764 -0.27536672 0.27898508 0.24015301 0.19827047 -0.050822347 -0.093432695
-0.20923786 0.07289517 -0.06438063 0.040222764 -0.14694113 -0.13306034 0.036441386 0.033590555
0.053785205 0.17491898 0.0023338497 0.088532 0.0059941113 0.19017595 -0.06918427 -0.034565747
0.26286513 0.0031218529 -0.14096108 0.0051349998 -0.19306716 -0.18890174 0.14880624 0.09321147
-0.041381508 -0.22947982 0.10090831 -0.15908206 0.26290756 0.22989869 0.053127974 0.17415541
0.028946787 0.1973669 0.2016623 0.082773596 -0.15782826 -0.16860902 -0.24273984 -0.18369171
0.19820172 0.06828776 -0.12132582 0.12882528 -0.067606136 0.27233928 -0.22396913 -0.23146981
0.21710956 -0.2627032 -0.13734572 0.23956394 0.2540946 -0.13244441 0.1747115 -0.16873229
0.25199544 -0.25336695 -0.11189948 0.26694804 0.26196617 -0.16014437 0.12459117 -0.25104973
0.06534767 0.10569325 0.2875861 -0.07850355 -0.044175312 -0.100225806 -0.27986792 0.0396595
0.14929771 -0.051644057 0.12035376 -0.12256135 0.050147712 -0.043102294 0.18862021 -0.1947805

fc1.bias f4 [12]
00000000: 2881 3dbe bab7 cbbd 7048 3b3e e4b3 863d
00000010: c875 50bd fcde 6f3e 2077 28bd d4c3 5f3e
00000020: c8d5 0a3e d98c 91be b6bf 483e a01a 1d3c
-0.185063 -0.099471524 0.18289351 0.0657728 -0.050893575 0.23424906 -0.04112923 0.21852046
0.13558114 -0.2842777 0.19604382 0.009588867

fc2.weight f4 [2, 12]
00000000: 024d 89bd 3432 1a3d 88df 98bd 7181 88bd
00000010: c1c5 663d b00d 90bd 5a3d f63c 07e7 f73c
00000020: 544f cd3c e128 253d 54dd 1dbd 6774 41bd
00000030: 9ab1 8bbd 3f03 483d 7b1d 1dbd 0845 f63c
00000040: aa7f 8a3d 30b5 98bc 3969 533d 75de 0abc
00000050: 3655 c43c 49f6 0e3d b980 053c 18cc e4bd
-0.06704141 0.037645534 -0.0746451 -0.06665314 0.056340937 -0.07033861 0.030058552 0.03026153
0.02506224 0.04032219 -0.038541153 -0.04723015 -0.06820984 0.04883122 -0.038358193 0.030062214
0.06762631 -0.018641084 0.05161402 -0.008475889 0.023966413 0.034902845 0.008148366 -0.1117174

fc2.bias f4 [2]
00000000: 1488 963c c179 593d
0.018375434 0.05309463
