models/10second_mfcc_h8.pth (torch, 30933 bytes, 8 tensors)

rnn.weight_ih_l0 f4 [8, 862]
00000000: 9806 9bbe 3ea0 8ebe ba46 9dbe a2f8 b43d
00000010: f5ac 2d3e 1615 26be 52b6 8e3e b6a6 6d3e
00000020: f3e8 b2be f9b0 8dba 8e65 57be 43d4 9f3e
00000030: a15d cd3d 982e 6abe 3644 633e 1649 773c
00000040: 020d 713d cc0b 8fbe d35d 42be ee16 4d3e
00000050: e3b9 5bbe e187 87be a725 8ebe 1d0d 9d3e
00000060: f029 67bd b8b7 1e3e 40dd 963d 546f b1be
00000070: fb2c c13d 8bb2 503e e74f 9c3e 8f26 afbe
00000080: fe08 9fbe 7a70 873d 19f4 343e 6f31 7cbe
00000090: 3adf 183e 9520 a83d 3644 d6bc 2f52 ac3e
000000a0: 6677 7b3c 8c74 d43d b71d 03be 542d 0c3e
000000b0: 5a3a d13c c7f2 64bc d445 9a3b f9b6 a5be
000000c0: 54da 333e 5400 aa3e 80be 073d 1fb5 a0bb
000000d0: 3256 37be f7b6 9d3e c404 1c3e 902d b63e
000000e0: 63ae 6ebe 2664 debd 11b2 90bb ae4e 08be
000000f0: f2e3 bcba 576c 4f3d 71f2 723e bbaa 9f3e
00000100: 17bc e33d d9df 733e 729a b03e 887b 43bd
00000110: aadc 23be e1b5 c2bd 289b 8aba f48b 39be
00000120: 1cae b9bd 52f0 0f3e ea0d abbe b7b8 4fbe
00000130: b8f1 afbe 370e a3bd 79df b1be 9c84 d1bc
00000140: 1ec6 46be 79d5 b13e 2a7f 913e ad1b 0d3e
00000150: f050 783e 74ca 9f3e 3070 93be 2f76 a13e
00000160: 84d7 883e e184 a4be 9831 81bb c091 0bbd
00000170: 3cad 30bd 54e1 0ebe 61f5 b0be f866 aabe
00000180: 2e51 5fbe 2a81 ba3e 5851 7a3e 7ea8 8bbe
00000190: b0b5 903b 1f9a 86be a329 ad3e be00 f6bc
000001a0: 4082 233e f4c4 41be da71 3cbe 5df0 073e
000001b0: b998 a83d 9f6f a8bc 9f50 ca3d dfb0 6b3e
000001c0: 8442 e2bd a2bb 563e 1ab7 32be d928 b0be
000001d0: 5b41 2ebe 7d12 783d 13c7 e93c 4cb2 4f3d
000001e0: 4f2c 87be ffd0 923e 3bb7 26be 69ec 833d
000001f0: 0a1f 2f3e 5792 53be 0754 a1be d2fe 393e
00000200: 33d8 f53d 9abb 9c3e 61c7 973e 2bd2 82bd
00000210: 78bc 333e a330 d03d 5a3a f3bc a8b3 a83c
00000220: 6527 66be ac9a 8ebe 9f8a a23e 8eaa 7ebe
00000230: 4a93 673e 37f0 33be f2b8 aabe 0a40 043e
00000240: 62b0 013e 9906 333e 3139 073e 26a3 7ebe
00000250: 4693 983e 6317 e23d 3d1c 23be d5bb 6ebe
00000260: 33f6 91bd dde5 efbb 8b6e 643e bdcd 933e
00000270: 3fe6 a93e 0a7c f9bd 9539 513e 600a b43c
00000280: 4824 cb3d f869 c2bd e80a 1abe 4b2f 26be
00000290: 75ce c6bd d173 b4bd b966 5cbd d7a1 f6bd
000002a0: cf7f 613d 1a34 47bd 110a d7bd a985 183e
000002b0: c839 a03c 09b6 3e3e 6e98 2dbe 9e90 8a3e
000002c0: b053 03be 40e1 dc3d 8fcf 5a3d f53a 4c3a
000002d0: ccf8 2cbe 2566 013e c3d3 cbbd b3d9 69bd
000002e0: 835a 8c3e 21e7 113e 7069 853e 5416 10be
000002f0: 2382 8d3e cef5 98be 43ed a13c 5338 8cbe
00000300: d455 19be e389 8abe 0090 263e 0201 5a3d
00000310: 7be4 abbd d5ae e4ba 05d4 7d3d a52b 6ebe
00000320: 7e1c 46be 6fee 403e 427e ba3d 0fee 893e
00000330: 010b 8fbe 7035 80be 1ab2 64be fcdc a8bd
00000340: 0efb 2dbd bc0c 343e 229c 70be 418b 873e
00000350: 1cd3 76bc ded8 ed3d fc63 89be 44ed a33e
00000360: b774 893d a2db d2bd 10d8 90bd 134d 05be
00000370: 4423 5fbe 5921 193e caa3 aebe a103 abbe
00000380: 0828 a6bc 5c4d 5b3e 20e1 8b3e 5280 12be
00000390: 9b86 84bd 472f 55be b4b4 65be 3f03 60be
000003a0: 8153 153c 986b 98be aa3c b2be a47d 4e3c
000003b0: 1756 9c3e 626a 453d 9324 e43b a05a 8abe
000003c0: cc35 313e a903 923e c243 5dbd 833f 2b3e
000003d0: c06f a7be a00a 0ebe 9e98 12be e1b5 473e
000003e0: 477c 063e 44d2 483e cd08 233e c6db dabd
000003f0: 82e8 6bbe aacf 52be 8359 8fbe b78f bebb
-0.30278468 -0.2785663 -0.30718023 0.088364854 0.16960509 -0.16218981 0.27873474 0.23208126
-0.3494335 -0.0010810188 -0.21034834 0.3121663 0.10027624 -0.22869337 0.22193989 0.015093109
0.058850296 -0.27938688 -0.18981104 0.20028278 -0.21457629 -0.26470855 -0.277631 0.30674067
-0.05643648 0.1549977 0.07366419 -0.3465525 0.094324075 0.20380609 0.3052971 -0.34209105
-0.31061548 0.0661325 0.17671241 -0.24628232 0.14928904 0.082093395 -0.026155572 0.3365645
0.015348291 0.10373792 -0.12804304 0.13689166 0.02554052 -0.013973898 0.004708031 -0.3236616
0.17563754 0.33203375 0.03314066 -0.004904404 -0.17903975 0.30803654 0.15236193 0.35581636
-0.23308711 -0.108589455 -0.0044157584 -0.13311264 -0.0014411195 0.05064043 0.23725297 0.31184945
0.1111986 0.2381586 0.34492832 -0.04772523 -0.16002145 -0.09507347 -0.0010574805 -0.18119794
-0.09066412 0.14056519 -0.33409053 -0.20285307 -0.34364104 -0.07961696 -0.3474081 -0.025575928
-0.19411513 0.3473318 0.2841733 0.13780089 0.24249625 0.31209147 -0.2879653 0.3153548
0.26726925 -0.3213263 -0.0039426796 -0.034074545 -0.04313396 -0.13953143 -0.3456221 -0.33281684
-0.21808311 0.3642667 0.24445093 -0.27276987 0.00441619 -0.2628946 0.3382083 -0.03002965
0.15967655 -0.18922788 -0.18402806 0.13275285 0.082322545 -0.020561038 0.098786585 0.2301669
-0.11047843 0.20970014 -0.1745266 -0.34406164 -0.17017119 0.060564507 0.028537309 0.050707147
-0.26400992 0.28675076 -0.16280834 0.06441576 0.17101684 -0.20661293 -0.3150942 0.18163612
0.12004127 0.3061188 0.29644302 -0.063877426 0.17552364 0.10165527 -0.02969091 0.02059348
-0.22475965 -0.2785238 0.31746385 -0.24869749 0.2261478 -0.17572103 -0.33344227 0.12915054
0.12664941 0.17482986 0.1320541 -0.24866924 0.2979986 0.11039617 -0.15928741 -0.2331384
-0.07127037 -0.007321103 0.22307794 0.28867903 0.33183476 -0.12181862 0.20432122 0.021977603
0.099190295 -0.09492868 -0.15043223 -0.16228978 -0.09707347 -0.08811153 -0.0538089 -0.12042587
0.05505353 -0.048633672 -0.10499967 0.14894737 0.019558802 0.18624128 -0.16952679 0.2706346
-0.12824893 0.107851505 0.0534206 0.00077907677 -0.16891783 0.12636621 -0.099525 -0.05709238
0.27412805 0.14248325 0.26057005 -0.14071018 0.2763835 -0.29875034 0.019766456 -0.27386722
-0.14974147 -0.27058324 0.16265869 0.053223617 -0.083931886 -0.0017447124 0.061969776 -0.23258837
-0.19346806 0.18840955 0.09106113 0.26939437 -0.27938083 -0.2504077 -0.22333565 -0.082452744
-0.042475753 0.17582983 -0.2349706 0.2647343 -0.015064981 0.1161363 -0.26834095 0.32016957
0.06711715 -0.10295798 -0.07072461 -0.13017683 -0.21790797 0.14954127 -0.34109336 -0.33401206
-0.02028276 0.21416229 0.27320194 -0.14306763 -0.064709865 -0.20818816 -0.22432214 -0.21876238
0.009114147 -0.29769588 -0.34811908 0.012603197 0.3053443 0.048197158 0.006962368 -0.27022266
0.17305678 0.28518417 -0.054019697 0.16723447 -0.32702446 -0.1387124 -0.14316031 0.19502975
0.13133346 0.1961146 0.15921326 -0.1068645 -0.23037913 -0.2058703 -0.2799798 -0.005815472

rnn.weight_hh_l0 f4 [8, 8]
00000000: 7164 a33e dd21 a2be f384 1c3e ad84 833e
00000010: eba1 01bc 3b19 923e 180c 3cbe dcc7 acbe
00000020: b1f0 5f3e 2077 13bc 6193 2e3e 2fc9 3f3e
00000030: 34a6 86be a70a e63d 2659 573e ac98 25be
00000040: 2abc 883e 964b 94be 8c11 14be 652c a63e
00000050: 26d5 ab3e 9d93 75bd 2403 cebd 4ff0 97be
00000060: 5920 ea3d 238e 65be 52fc 28be b536 b53d
00000070: 4953 67be f921 a83e 479e 91be ffde 823e
00000080: 1824 b0be 26e6 4abe 9cf5 dfbd 552b 76be
00000090: 0187 efbc 488a 5f3e 48b9 adbd 31ab 4a3e
000000a0: 2691 d9bc 6839 98bd 10c2 b1be 1131 4cbe
000000b0: 1476 fa3c 201c 443e 549c 2fbe 161b 5f3e
000000c0: 303b 8f3e 33f4 35bd 6916 c8bb 9710 bebc
000000d0: 2d7f 91be 0257 92bd 5f2e 983e 2494 16be
000000e0: 16cd 1bbd c7c3 ad3e fecd 8f3e 8785 b53d
000000f0: 683b a63e f6e1 d1b7 e26a 353e c913 183e
0.31912568 -0.3166646 0.15285091 0.2568716 -0.007912139 0.28534874 -0.18363988 -0.3374623
0.2186916 -0.00900057 0.17048408 0.18729089 -0.26298678 0.112325005 0.21030101 -0.16171521
0.26706058 -0.28963917 -0.14459819 0.32455745 0.33561057 -0.059955228 -0.10059193 -0.29675528
0.11431951 -0.22417502 -0.16502503 0.08848325 -0.22590365 0.3283842 -0.2844107 0.25560758
-0.34402537 -0.19814357 -0.10935518 -0.24039967 -0.02923918 0.21830094 -0.08482605 0.19791867
-0.02655847 -0.074328244 -0.3471837 -0.19940592 0.030573882 0.19151354 -0.17149478 0.21787676
0.27974844 -0.04442234 -0.006106187 -0.02320127 -0.2841734 -0.07145502 0.29722878 -0.14704949
-0.038037382 0.3393843 0.28086847 0.08863359 0.32467198 -2.5019963e-05 0.17716554 0.14851297

rnn.bias_ih_l0 f4 [8]
00000000: 54a8 c8bd c639 043d 6a19 b03e d0aa c2bd
00000010: fa02 3bbe f345 653e ba2b b63e 0549 68be
-0.09797731 0.03228166 0.3439439 -0.09505236 -0.18262854 0.22389965 0.35580236 -0.22684105

rnn.bias_hh_l0 f4 [8]
00000000: b520 97be 40c1 a03e 1795 8c3e 46f1 ac3e
00000010: e1d7 90bd d9a1 903e 254d c73d 21dd 843e
-0.2951714 0.31397438 0.27457497 0.33777827 -0.07072426 0.2824848 0.09731511 0.25949958

fc1.weight f4 [8, 8]
00000000: f8a2 6dbd f6bd 6b3e bdbe 8d3e f36b a7be
00000010: f526 a3be 9217 0f3e 9ebf 2abe b3d2 5ebe
00000020: 09c4 8a3e 5741 803e 52c6 3f3e d05a 9e3c
00000030: 2dbf 30be be46 303e 8c42 ad3d e0fc 483d
00000040: 802d b2bc be7c 2a3e f8ca 97be d0ed e7bc
00000050: 00b4 de3c 227e 5f3e 3749 64be 381f 7f3d
00000060: 2886 1cbd c09d a13d e9d4 b43e fa7b 7ebe
00000070: 607c 803d d558 17be 8c77 903d 96e6 65be
00000080: 6cad 0a3e 542d 18be afc7 86be 78af 2fbd
00000090: c5f5 963e f845 f13d 7457 b53d a6c5 7d3e
000000a0: 13f9 b03e 841a 05be 5478 ea3d 3221 793e
000000b0: a156 a53e 323f 46be e563 a23e 5881 22be
000000c0: 6579 1fbe 5067 27bd 7fa7 b33e ca8f 183e
000000d0: 406d 8d3c fe71 b4be ba1b 533e 00d3 2bbb
000000e0: efb3 ae3e d073 073d f5c3 35be 5b4c 48be
000000f0: 8015 8a3c 6a6a 4b3e e790 2cbe bb6f 29be
-0.058016747 0.23021683 0.27684584 -0.32699546 -0.3186566 0.13973835 -0.16674659 -0.21760063
0.27102688 0.2504985 0.18727997 0.019330412 -0.17260428 0.17214486 0.084599584 0.049069285
-0.021750212 0.16649148 -0.2964704 -0.02831164 0.02718544 0.2182546 -0.22293554 0.062285632
-0.03821388 0.078914165 0.35318688 -0.24851981 0.06273723 -0.1477998 0.07054052 -0.22451243
0.13542718 -0.14861041 -0.26324221 -0.04289195 0.29484382 0.117809236 0.08854571 0.24782428
0.3456503 -0.12998396 0.11448732 0.2432907 0.32292655 -0.19360045 0.31716838 -0.15869653
-0.15573652 -0.04087001 0.35088727 0.14898601 0.017264009 -0.3524322 0.20616046 -0.0026218295
0.34121653 0.03306943 -0.17750533 -0.19560377 0.016855955 0.19864812 -0.16852151 -0.16546528

fc1.bias f4 [8]
00000000: f806 813d c048 153d 7aa6 763e 289b 4cbe
00000010: d48c 973d ab2d 2cbe c0c5 99bb dca2 043e
0.06300157 0.036446333 0.24086943 -0.19981062 0.07399908 -0.16814296 -0.004692763 0.12952751

fc2.weight f4 [2, 8]
00000000: 2029 acbc b9c8 313d 0110 b7bd dc00 163c
00000010: d9d7 dd3d cec9 02bd f0fc 09be 483c b93d
00000020: 0fb9 c4bc 598e 123d 6292 12bc aedb c2bc
00000030: 49e9 1d3d 9be2 603d 9c8f fc3c 0362 b5bd
-0.021015704 0.043404315 -0.089385994 0.009155478 0.10832185 -0.031930737 -0.13475394 0.09044701
-0.024014024 0.035780285 -0.008946033 -0.023786392 0.038552556 0.054903608 0.030830197 -0.08856585

fc2.bias f4 [2]
00000000: 311b 713d 1ef7 783d
0.058863822 0.060782544
