models/10second_mfcc_h16.pth (torch, 60309 bytes, 8 tensors)

rnn.weight_ih_l0 f4 [16, 862]
00000000: ac3d 6f3e e1da 0cba 1844 53be 6a1f 21be
00000010: 6102 54bd 30a1 57be d26e 7d3d c340 c93c
00000020: e3a1 133d 184b ac3d 76c6 b9bc 1b64 853d
00000030: 37fb 5dbe 16ff 7abe c9bc c43d 3333 523a
00000040: 1faa 80be 63db bcbd 151a f4bd 8353 f0bd
00000050: 1625 febd 6302 76be c5e1 7f3c 5b61 c6bc
00000060: 61be 70be 480e b9bd 98a5 273e 0a6b 98bd
00000070: 4072 6fbe 3902 d8bd 236c 7b3d b16d fe3c
00000080: cf1c 8b3c 8461 613e 07ac 34be b3bd bf3d
00000090: fca1 363e 2f12 0abe 6758 ac3c d501 7bbe
000000a0: fd54 393e 5351 48be f3d1 973d b640 f33c
000000b0: b2d7 bb3d 10ac 413e 7927 5b3e 3933 ed3d
000000c0: ec30 77be e6ae 70be edd9 40be d6bf 62be
000000d0: 20c4 0dbe c9ab cf3d 33a7 d0bc 91d9 97bd
000000e0: af32 77be 6b6a 0a3e 3046 47be 5aee f73d
000000f0: 3fca c63d 4919 0abe 630f 633d 259f 2cbe
00000100: c183 423d 9dbb 023e 02bf 273e d739 84be
00000110: 9298 493e d246 febd 86ce 82be 78a6 dc3d
00000120: 963d 7d3d dac7 323e 0aca b43d 4eaa 76be
00000130: 8d19 1ebe 7fca 50be 75b9 50be 9c3e 363c
00000140: 9bc0 393c 7746 26be c283 71be ffc7 4e3e
00000150: 119a e5bb bc1e 12bc 9d35 fd3d 77c8 f23d
00000160: c8d9 873d 55af 00be f160 1abd c007 423e
00000170: 159a 82be 6518 b93d ed6e b4bd b8e6 7fbe
00000180: 6979 b1bd 0c5b b73d 8679 75be 6e1f bcbd
00000190: 95dd a13d ab23 f03d eed1 613e e433 99bd
000001a0: 6a66 61bd ae6d 86bc 7676 633e 3f07 4e3e
000001b0: 4ee0 283d 24ab 5bbe fc88 473e e980 49be
000001c0: c2af ac3b 2de7 613d ccee 85bd 51dd 82be
000001d0: 536f db3d d0cd 103d b79b 07be f24f e33d
000001e0: 31ad e93d c57b 963c d92d b63d bfc6 e4bc
000001f0: 4243 6ebe 94a8 413e 2ac7 b33d 0789 0cbc
00000200: 5205 0c3e 2472 14be 04ae 38bd 6f77 61be
00000210: 8c62 fb3d 1c3e d13d ad73 823c 5681 63be
00000220: 673a 063e 2b51 823d e07e 5b3e cfe9 223e
00000230: 80da 86bd 6d87 353e af39 2c3e dadd b53d
00000240: 5064 2dbe 44ed bb3d c2b3 5abe f98b 2e3e
00000250: a899 73bd 99f5 913d f15f 42be ed8e 14be
00000260: 12b4 ccbd ba50 7ebd 5156 71bd 4265 b9bd
00000270: bda9 47be 24e1 2dbe 3785 24be a568 a3bd
00000280: 5a9d 4abe 9897 743d 0c1d 153e c912 dcbd
00000290: 2da0 9abd dba3 ec3d 3b15 fb3d fe85 24bd
000002a0: d8eb 653c 6d24 3a3e 76be 2fbe bb8a 73be
000002b0: f5d3 ca3c 28ee 373e 2486 493e f271 543e
000002c0: 3e63 03be 2a24 b2bd 510b 873c 0c6d 53be
000002d0: 6ade 37be 5ad6 98bd b848 bdbd 35ea 413e
000002e0: b6ce 883c 1df3 00bc 69c2 66bd 1612 1b3e
000002f0: 8286 cabd e8fd 30be 76c6 75be 6efa 8fbd
00000300: ec48 713d 075c 42be ecb1 85bd 92c6 e6bd
00000310: 8d9a e7bd 4cf9 9b3c a006 353d c05d a13d
00000320: a65a 57be d0c4 65bd d545 eabd ce36 59be
00000330: 3a69 1fbe 3a35 183e 213b 563d 8090 4f3e
00000340: 008b 7ebe ff97 2dbd fd36 703d 5e37 db3d
00000350: 5aff 01bd 9ea7 6bbc ebc0 e8bd f742 50be
00000360: 0880 003e b857 babd a404 803e 6ec4 8d3d
00000370: 2d91 243e d5eb cabc 84dd e83d 02c3 513e
00000380: 2019 00be c627 7f3d 55a4 19be 0052 d43d
00000390: 1fe1 ad3d 6cd1 383e e804 2b3e 1465 0fbd
000003a0: 4c13 a53d 4572 403e 95c6 24be e5fd 333b
000003b0: c1d2 56be 6a39 94bd 59e0 00be 711f 0cbd
000003c0: 82fd b3bd bf26 483e e4f2 2a3e b20f 063e
000003d0: 12ad 83be 7fd7 373e f43b 43be 0bc4 663e
000003e0: 62b1 673c f23b 49bd ba36 9b3d 1ed9 66be
000003f0: 0382 3fbe bc34 e63d 5c33 6bbe 73c9 073e
0.2336337 -0.00053731917 -0.20631444 -0.1573464 -0.05176008 -0.21057582 0.061873265 0.024567014
0.03604306 0.084127605 -0.022677641 0.06513234 -0.21677862 -0.2451137 0.096063204 0.00080184935
-0.25129792 -0.09221532 -0.11919037 -0.117346786 -0.12409417 -0.24024348 0.0156177925 -0.024216345
-0.23510124 -0.09035927 0.16371763 -0.07442291 -0.23383427 -0.10547299 0.061382424 0.031058164
0.01698151 0.22009856 -0.17643748 0.09362354 0.1783523 -0.13483499 0.021038247 -0.24512418
0.18098827 -0.19562273 0.074130915 0.029693943 0.09172 0.18913293 0.21401776 0.115820356
-0.24139756 -0.23504218 -0.18833132 -0.22143492 -0.13844347 0.10140187 -0.025470352 -0.074145444
-0.24140428 0.13517158 -0.19460368 0.12106009 0.09706544 -0.13486208 0.055434596 -0.16857584
0.04748893 0.12766881 0.16381457 -0.25825378 0.19687107 -0.12415852 -0.2554819 0.10773939
0.06182631 0.1745905 0.088275984 -0.24088404 -0.15439434 -0.20389746 -0.20383246 0.011123326
0.011337425 -0.16237818 -0.23585418 0.2019348 -0.0070068915 -0.00891846 0.123637415 0.11854642
0.06633335 -0.12566884 -0.037690107 0.18948269 -0.2550818 0.09037856 -0.0881022 -0.24990356
-0.08665735 0.08952913 -0.23972139 -0.09185682 0.079035915 0.11725553 0.22052738 -0.074806005
-0.05502931 -0.016409721 0.22213158 0.20119952 0.04122954 -0.21452004 0.19485849 -0.19678082
0.0052699754 0.055152107 -0.065396875 -0.25559476 0.10714593 0.035352528 -0.13242994 0.11099233
0.11409987 0.018369565 0.088954635 -0.0279268 -0.23267844 0.18911964 0.08778222 -0.008577592
0.13673905 -0.14496666 -0.04508783 -0.22018217 0.12274656 0.102169245 0.0159243 -0.22217306
0.13108216 0.06363138 0.21435118 0.15909503 -0.06584644 0.17727442 0.1681888 0.088802055
-0.16932797 0.09176114 -0.21357635 0.17045583 -0.05947271 0.07126922 -0.18981911 -0.14507647
-0.09995283 -0.062088706 -0.05892021 -0.090525165 -0.19498344 -0.16980416 -0.16066442 -0.07978944
-0.19786587 0.059714884 0.14561862 -0.107457705 -0.07550082 0.115546905 0.12259909 -0.040166847
0.01403328 0.18177958 -0.17162499 -0.2378339 0.024759272 0.17961943 0.19680077 0.20746592
-0.12830827 -0.08698304 0.016484888 -0.20647067 -0.17955938 -0.07462759 -0.092423856 0.18936999
0.01670013 -0.007870463 -0.056337748 0.15143618 -0.098889366 -0.17284358 -0.24001488 -0.070301875
0.058907434 -0.18980418 -0.065280765 -0.11268343 -0.11308775 0.019039772 0.04419577 0.078792095
-0.21030673 -0.0560959 -0.11439101 -0.21212313 -0.15567484 0.14864054 0.052302483 0.20269966
-0.24857712 -0.042381283 0.05864619 0.1070392 -0.031737663 -0.014383225 -0.11364921 -0.20338045
0.1254884 -0.09098762 0.2500354 0.069222316 0.16071005 -0.024770657 0.11370376 0.20484546
-0.12509584 0.06229379 -0.15004094 0.10367203 0.08490204 0.18048638 0.1670109 -0.035008505
0.08060321 0.1879359 -0.16091378 0.0027464565 -0.20978834 -0.07237513 -0.12585582 -0.034209672
-0.08788587 0.1954603 0.16694218 0.13091925 -0.2571798 0.17953299 -0.19065839 0.22535722
0.014141412 -0.049129434 0.07578798 -0.22543761 -0.1870194 0.11240527 -0.22968811 0.1326044

rnn.weight_hh_l0 f4 [16, 16]
00000000: 1e85 c4bb c3dd f83c 2941 9bbd b5d1 eabd
00000010: f9cd d9bd cc5b 34be 6f6c 2cbe c20d 68be
00000020: 50f8 673e f4d8 84bd dfa9 92bd cc42 48be
00000030: 2fd3 2ebe 72ee 133d a397 82be b446 61bd
00000040: a311 91bd d0d6 803e bb8e d8bd 06d4 723a
00000050: 855a 3abe bdfb 9dbd d683 2cbe 5381 f6bd
00000060: c02e 0fbe c2e2 3f3e 5704 1ebe f8db 85bc
00000070: ef80 873d 88da acbd 5356 bf3d fcba 363e
00000080: b9f5 3f3e 3f27 823e 05c4 efbd 6c8b 07be
00000090: 5a28 29be ff98 303e 3363 62be 0499 883d
000000a0: 3bf7 413d ca49 20be f1d0 fcbc 0d05 6a3e
000000b0: c322 013d 51e5 143d 7c4e 1cbe 3e4a 86be
000000c0: 76b2 4cbe 3fbc bebc 2a79 ce3d 967c 973d
000000d0: 45ee e6bd 221e 563e b4fc 31bd a30c 54bd
000000e0: 7cf2 803e 248b f7bd 8123 003d 0150 3bbd
000000f0: 4abd 1dbe b510 4a3e 23f8 dcbd 0d8c 713e
00000100: 1f0e 763e 894e 393d d792 5abd 7c17 69be
00000110: 74ea c8bd b738 24bd 12d5 77bd 556d bc3c
00000120: 2287 68be 292b f0bd 3b30 533e 9eab 38be
00000130: 1112 aa3d 8c48 463e b7c2 0abe 98a5 1fbe
00000140: f486 18be d2ac 20be 2c76 52be ee36 e7bd
00000150: 4dd5 41be bb63 5fbe 5d46 0fbe 6746 33bd
00000160: f4d9 5f3e 3835 653e 28b8 74bd 7b4f 6bbe
00000170: eb6a a7bd f4ab 4bbe 13fe bf3d 1d51 70be
00000180: d64e 313e f9bd 4f3e d979 443e c7a9 d6bd
00000190: 197f 97bd 1b98 d83d 7158 42bd 70bc 2ebe
000001a0: 0f0a 643b 2229 2f3c a840 e8bd e52b 0cbe
000001b0: 012d 07be b923 26bd 77eb 75be b6f5 643e
000001c0: d325 f2bb e75c ac3b 8880 093e 8348 bb3d
000001d0: 697f 4b3e cda2 ae3d a319 d6bd 0c6d 0e3e
000001e0: 31e8 593e badc 863d 2cff a63d d2bb abbd
000001f0: 20fa 503e a37b fcbd 436d fb3d 3f16 04be
00000200: 4e80 acbd 84bc 8ebb e6c4 8c3d 58a1 b83c
00000210: 67d1 7dbe 6799 f2bd 4d17 edbd aa08 593e
00000220: 310f 40be 716e 693e 7f6e 643e ca7c 433d
00000230: 910b a9bc 0c77 70be cdfa 863d 542d 38be
00000240: 3a0e 43bd 3b70 a6bd b121 6d3c a759 813d
00000250: 2348 683d 2146 5ebe 5206 693e e187 90bd
00000260: 8029 383e 625a 2fbe 0a6a 023e d098 f53d
00000270: ae41 2a3e e916 693e c1d8 833d c689 5abe
00000280: 4ee0 f13d bfd1 303e 138d 303e 10bf 13bd
00000290: 93ac 18be 0c10 303e 5a51 5c3e 527a 883d
000002a0: a313 9ebb a9c0 9fbc de87 6fbe bd9e b73d
000002b0: 767b 883a 3c58 c33d 559c 03be 7546 1e3e
000002c0: beb9 803d a0fa b4bc 0ea5 33bb f54c 263e
000002d0: 1af2 0ebe ecbe 1b3e f6ea 053e af83 113d
000002e0: 9e30 8c3e 0204 bdbd bc57 2cbe a5fb 243e
000002f0: 17ec 13bd e20b 37bd e8a0 5cbe f935 193d
00000300: b63f 7b3e 368a d03d de89 f1bd da5c 463d
00000310: 43ba 263e 2b98 96bb 123a 80be c858 c53c
00000320: e22e d93d 0440 84bd 61b3 493e 6e6b 4bbd
00000330: 975b 5c3e 2f7b 213e 2250 4d3e bb4c 0bbe
00000340: 4f02 5e3d 752c 9ebd 5a55 b33b a267 193e
00000350: 17a7 33be 6fc0 4ebd e582 39be 9aeb 863c
00000360: d6fc 2abe 6bf8 603e 1172 20bd 49f1 a53d
00000370: bdc3 493e bba9 be3d d11d ba3c 8f46 b8bc
00000380: 8d7c 1ebe f5d5 e13c 1921 293e c5df 3d3e
00000390: 7024 a93d 2450 84bc 5a20 72bd 0acf ea3d
000003a0: df72 ca3d 22a2 c6bd 018d 893d 460c 59bd
000003b0: 21fb 82bc 7761 a7bc b884 173e ce09 b83d
000003c0: af43 fcbd bdb4 87bd 38fc 6dbd 4355 223d
000003d0: 0e8f a4bd 1341 813e 1eca 4fbe 1e82 143e
000003e0: 587c 91bd 2093 843d c061 debd 503b 393e
000003f0: eb60 81be 3782 be3d cc96 273d ef84 fb3a
-0.005997314 0.030379182 -0.07580788 -0.1146578 -0.10634989 -0.17613143 -0.16838239 -0.22661498
0.22653317 -0.06486693 -0.071613066 -0.19556731 -0.17072748 0.03611607 -0.25506315 -0.05499907
-0.07083442 0.2516389 -0.10574099 0.00092631613 -0.18198593 -0.07714031 -0.16847166 -0.120363854
-0.13982677 0.18738845 -0.15431343 -0.01634024 0.06616389 -0.08440119 0.09342637 0.17844766
0.1874608 0.25420567 -0.1170731 -0.13236779 -0.16519299 0.17245863 -0.22108154 0.066698104
0.047354918 -0.15653148 -0.03086135 0.22853489 0.031527292 0.036351506 -0.15264314 -0.26228517
-0.19989952 -0.023283122 0.10081704 0.0739681 -0.11275915 0.20909932 -0.043453887 -0.051769864
0.25185 -0.12087086 0.03128386 -0.045730595 -0.1540424 0.19732936 -0.10789516 0.23588581
0.24028824 0.045240913 -0.053362694 -0.22762865 -0.098103434 -0.04009315 -0.060505934 0.023001352
-0.22707799 -0.11726982 0.20623867 -0.18034217 0.08304227 0.19363612 -0.1355084 -0.15590513
-0.1489523 -0.15690926 -0.20552891 -0.11289774 -0.18929024 -0.21815388 -0.13991685 -0.043768313
0.21860486 0.22383583 -0.059745938 -0.22979538 -0.0817469 -0.19889814 0.09374633 -0.23468442
0.1731523 0.20287313 0.19187106 -0.10481601 -0.07397289 0.10575887 -0.047447626 -0.1706407
0.0034796034 0.010690959 -0.11340457 -0.1368862 -0.13200761 -0.04056141 -0.24015604 0.22359356
-0.007389763 0.0052600983 0.13427937 0.0914469 0.19872822 0.085271455 -0.104541086 0.13908786
0.2127998 0.06585069 0.08154139 -0.08385433 0.20407915 -0.12328269 0.122766994 -0.12899111
-0.0842291 -0.004355969 0.06873493 0.022537872 -0.24786912 -0.118456654 -0.1157671 0.21194711
-0.18755795 0.22796036 0.22307776 0.04772643 -0.020635398 -0.23482913 0.06590805 -0.17986041
-0.04762099 -0.08126875 0.014473365 0.06315928 0.05670942 -0.2170644 0.22756317 -0.07057167
0.17984581 -0.17124322 0.12735763 0.11992037 0.16626617 0.22762646 0.06437827 -0.21341619
0.11810361 0.17267512 0.17241316 -0.036070883 -0.14909582 0.17193621 0.21515408 0.06663956
-0.004824118 -0.019501047 -0.23391673 0.08965824 0.0010412771 0.09538314 -0.12852605 0.15456565
0.062854275 -0.022092164 -0.0027411613 0.16240294 -0.13959542 0.1520955 0.13077912 0.035525974
0.27380842 -0.0922928 -0.16830343 0.1611162 -0.036113825 -0.044689067 -0.21545756 0.037404988
0.24536023 0.10182612 -0.11793874 0.048428394 0.1628199 -0.0045957766 -0.25044304 0.024090186
0.10604645 -0.064575225 0.19697334 -0.049663 0.21519314 0.15769647 0.200501 -0.13603489
0.05420142 -0.07723323 0.005472821 0.14980939 -0.17544208 -0.050476488 -0.18116339 0.016469765
-0.16698012 0.21969764 -0.039171282 0.08102662 0.19703574 0.09309717 0.022719296 -0.022494582
-0.154772 0.027567843 0.16516532 0.18542393 0.08258903 -0.016151495 -0.059112884 0.11465271
0.09885191 -0.09698893 0.067163475 -0.05299022 -0.015988888 -0.020432217 0.14796722 0.08986245
-0.12317597 -0.0662627 -0.058101863 0.039632093 -0.08035098 0.2524496 -0.20291945 0.14502761
-0.07103795 0.06473374 -0.10858488 0.18089032 -0.25269255 0.0930218 0.040915295 0.0019189398

rnn.bias_ih_l0 f4 [16]
00000000: 69df 08be e3a8 37bd 6162 29be c427 1ebe
00000010: ad37 5c3e edb8 6a3e ce64 30be 7dd3 5f3e
00000020: b2d5 17bd a180 eabd 4a38 5b3d b8bb ee3d
00000030: 63c1 263e eb8e ae3d 364e 9cbd 48ab 443e
-0.13366474 -0.044838797 -0.16541435 -0.15444857 0.21505614 0.22922106 -0.17225954 0.2185802
-0.03706903 -0.11450315 0.05352048 0.11656898 0.16284709 0.08523353 -0.07632105 0.19205964

rnn.bias_hh_l0 f4 [16]
00000000: 1943 c53d 0f4a 913d 11d3 07be f4a0 60be
00000010: 2f7d 74be 1bd3 593e 698b cabd f348 2f3e
00000020: 1c89 c1bb 1b61 c03d 7f84 163e 2921 f7bd
00000030: db4a e23c 459b e03d 67e7 12be f090 863d
0.096319385 0.07094204 -0.13264109 -0.21936399 -0.23875879 0.21271937 -0.098898716 0.17117672
-0.0059062373 0.093935214 0.14698981 -0.12066872 0.027623584 0.10967115 -0.14346085 0.065706134

fc1.weight f4 [16, 16]
00000000: 3a64 62be 5ef5 19be 9ec2 133e 7427 343e
00000010: cc71 793e 3cbc 95bd a079 053c 5c3e 47be
00000020: f0f1 da3d 5406 3ebe a063 623d 2e53 7bbe
00000030: 1068 d3bd 665b 673e 384b edbd f454 e9bd
00000040: 48ea a13d 989e 7dbe 6273 25be e83c 91bd
00000050: e0f9 9dbd d008 04bd 4ca4 d63d de62 30be
00000060: 06a7 263e 80cd c0bd 1460 95bd 3450 61be
00000070: 40d6 303c b895 4d3d 38a4 60be a80a 463e
00000080: e430 ec3d 225b 34be f48b a43d e2d2 523e
00000090: 381e 163d b43b eebd 001b c3bc 70fa 71be
000000a0: c012 5cbe b0a2 8abd 7641 403e 7e0f 5dbe
000000b0: 9e4f 26be 30c8 7dbe 662e 5cbe 9caa 4b3e
000000c0: 78f0 34bd 4ec3 4dbe 7252 603e 58e0 223e
000000d0: 5ccf 423e 2027 713d 9431 463e 9065 7a3e
000000e0: fe59 50be 8c3e 33be 66ba 633e e0ac 23be
000000f0: 8ced c2bd 72b9 263e 389e a83d b69b 2abe
00000100: 5c23 35be 0058 6cbc b891 523e 9c3e 963d
00000110: 809f 0dbe e0ae 3c3d e676 21be 4602 1f3e
00000120: ac7a 8f3d 3422 25be 1079 d2bd 50c5 29be
00000130: b4e3 5b3e e271 11be 0c89 7cbe 7c26 eb3d
00000140: 72f2 2a3e 1e08 78be 7c27 9fbd 0210 45be
00000150: 6623 683e a04f 3cbc b2f5 6b3e 8405 843d
00000160: 1abb 4bbe 1028 b23c b08d 0b3d 3445 c7bd
00000170: fc2c 6e3e 4466 11be c037 6dbe 04dd b5bd
00000180: 6854 ed3d 7805 31be 106b 8bbc b449 1cbe
00000190: 5c86 e9bd 98e0 68be 4637 72be 2800 abbd
000001a0: d413 c13d 923c 28be b07a b23c a867 2e3e
000001b0: c0a4 54bd 7870 45be 90ac 90bd 8444 54be
000001c0: 70bd 783d 8e0e 18be 06a7 173e 3014 cdbd
000001d0: ee47 003e aa02 143e 88f6 2d3e 5001 b3bd
000001e0: 1090 41bd 04e4 9a3d 76fe 7b3e aae0 1e3e
000001f0: 3a1f 093e dccf 233e a07d 20bd e601 7c3e
00000200: 6c69 f53d 666e 4e3e f0c7 f53c 404c f5bd
00000210: 487d 3b3e 08b1 473d 96d0 763e 18b7 a73d
00000220: 5a2b 1fbe d0cf ee3d 6076 26bd 60dc 52bd
00000230: 90a7 3e3e aaef 783e 90f5 b23d 1026 7b3d
00000240: 0065 5c3c 5cad dd3d fefb 053e 90aa 46bd
00000250: a020 34be 20c7 73bc 2412 49be 1823 0d3e
00000260: e836 683e 32cd 10be 40fa ee3d 5c04 0fbe
00000270: 4c4b 0ebe 4851 d7bd a86c 943d 38f8 d0bd
00000280: 1e2d 4abe 06b2 633e aa6c 043e 8ee6 4abe
00000290: ac9c 483e 3000 2f3d 10f8 4dbd 80cc 74be
000002a0: b6b4 063e dad1 21be 38c4 34bd 52c5 573e
000002b0: 4cf2 103e a2fd 753e 2009 a1bc 2069 34bd
000002c0: e421 873d f0c8 55bd baf5 1c3e 6248 283e
000002d0: 6a81 20be 205b febc be19 7bbe 50a5 823c
000002e0: 5239 63be 784a bebd 6c9e 643e 8009 243d
000002f0: 309f cabd 7cfb 763e 8040 823c 3824 aabd
00000300: 6027 ab3c 2c85 073e 2a9d 183e 6e49 113e
00000310: f4cd 00be f662 0dbe 6088 29bc f01a a6bd
00000320: 1cd4 c7bd f453 5cbe 5649 5b3e 6693 353e
00000330: 5618 58be b01f 92bc c8a1 13be a003 1fbe
00000340: 0032 44ba b64f 4e3e f60f 03be da1e 453e
00000350: 56cc 303e 600d 143d baac 43be 16db 7ebe
00000360: 00ac 3cbc b6eb 61be 90dc 71bd 9c01 f63d
00000370: 18d5 6fbd d42e dfbd 7010 783d 1061 82bc
00000380: ec90 c5bd 48be 09bd 089d 65be 7051 6d3d
00000390: 6475 9e3d e417 7e3e b079 71be 7cdd a1bd
000003a0: a0a5 68bc 1c95 22be 0611 723e 1055 6a3d
000003b0: 6060 373c 0499 3c3e 98ef 3e3d 8038 65bc
000003c0: 107d 6ebe f02f b43d ceb7 44be 3061 d43d
000003d0: fc9e d43d e44e e5bd 6ed6 3bbe 3027 fbbc
000003e0: 6089 fb3d 7a5b 2cbe 226e 403e 6000 633e
000003f0: 54e8 8ebd c4ce 99bd c825 8a3d 10f0 37be
-0.22108546 -0.15035006 0.1442971 0.17593175 0.24359816 -0.073112935 0.008146673 -0.19457382
0.10690677 -0.18557101 0.05527079 -0.2454345 -0.10322583 0.2259346 -0.115866125 -0.11393157
0.07906014 -0.2476753 -0.16157296 -0.07091695 -0.077136755 -0.032234967 0.10480556 -0.17225215
0.16274652 -0.09414196 -0.07293716 -0.22003251 0.010793269 0.05019161 -0.21937644 0.19340003
0.11532763 -0.1761289 0.080345064 0.20588258 0.036649913 -0.11632481 -0.023816586 -0.2363069
-0.21491528 -0.067693114 0.18774971 -0.21587941 -0.16241309 -0.24783397 -0.21502075 0.19889301
-0.04417464 -0.20094034 0.2190645 0.15905893 0.19024414 0.058875203 0.1935485 0.24452806
-0.2034683 -0.17504328 0.22239074 -0.15983915 -0.09517965 0.1628168 0.08233303 -0.16660962
-0.1768927 -0.014425278 0.205634 0.073361605 -0.13830376 0.04606521 -0.15768012 0.15528211
0.0700582 -0.16126329 -0.10276997 -0.16579175 0.2147358 -0.14203599 -0.24661654 0.1148195
0.16694048 -0.24221846 -0.07771203 -0.19244388 0.22669753 -0.011493593 0.23042944 0.064463645
-0.19895592 0.021747619 0.03407067 -0.09729996 0.23259348 -0.14199167 -0.23165798 -0.08880046
0.11588365 -0.17287242 -0.017018825 -0.1526249 -0.1140258 -0.22741926 -0.23653898 -0.08349639
0.0942761 -0.16429356 0.021787018 0.17031729 -0.05191493 -0.19281185 -0.07064164 -0.20729262
0.060727537 -0.14849302 0.14809808 -0.10013616 0.12527439 0.14454141 0.16988575 -0.08740485
-0.04725653 0.07563022 0.24608788 0.1551539 0.13390818 0.15997261 -0.039182305 0.24610099
0.11982998 0.20159301 0.030002564 -0.11977434 0.1830951 0.048752815 0.24103007 0.08189219
-0.15543881 0.11660731 -0.040640235 -0.051479697 0.18618608 0.24310175 0.087382436 0.061315596
0.013451815 0.10824081 0.13084409 -0.048502505 -0.1759057 -0.014879018 -0.19635826 0.13782918
0.22677195 -0.14140776 0.11668825 -0.13966507 -0.13895911 -0.1051355 0.07247287 -0.10203594
-0.19743773 0.2223588 0.12932077 -0.19814512 0.19591016 0.04272479 -0.0502854 -0.23906136
0.13154873 -0.15802708 -0.04413244 0.21071365 0.14154929 0.24022534 -0.019657671 -0.044045568
0.06598261 -0.052193582 0.15328112 0.16433862 -0.15674368 -0.031049311 -0.24521539 0.015947968
-0.22189835 -0.092915475 0.22326058 0.040048122 -0.09893644 0.24119371 0.015899897 -0.083076894
0.020892799 0.13234395 0.14903703 0.14188167 -0.12578565 -0.13807282 -0.010347456 -0.08110607
-0.097572535 -0.215164 0.21414694 0.1773201 -0.21103033 -0.017837375 -0.14417183 -0.15528727
-0.0007484257 0.20147595 -0.12799057 0.1925005 0.17265448 0.036145568 -0.19108859 -0.24888262
-0.011515617 -0.22062573 -0.059048235 0.12012026 -0.05855283 -0.10897604 0.06056255 -0.015915424
-0.09646782 -0.033628732 -0.22423184 0.057938993 0.07737234 0.24813801 -0.23581576 -0.07903573
-0.014199644 -0.15877193 0.23639306 0.05721003 0.011192411 0.18417746 0.046615213 -0.013990521
-0.23289895 0.08798206 -0.19210741 0.103700995 0.10381886 -0.11196688 -0.18343517 -0.030658334
0.122820616 -0.1683177 0.18792012 0.22168112 -0.06977907 -0.075101405 0.067454875 -0.1796267

fc1.bias f4 [16]
00000000: 54a9 d63d a83b 0bbe 1206 61be 5245 65be
00000010: 509b f2bd 749b 61be 5897 07be 122b 423e
00000020: 9cd5 193e 08c3 2a3e 2004 cc3d c6eb 3dbe
00000030: b84c f93d 88bd 453e d8ee 0cbd dc7e 78be
0.104815155 -0.13596976 -0.21974972 -0.22389725 -0.1184603 -0.22031957 -0.13241327 0.18961743
0.15022892 0.16675961 0.09961724 -0.18546972 0.12172836 0.19310582 -0.034407467 -0.24267143

fc2.weight f4 [2, 16]
00000000: 93f0 1d3d d8a7 dd3c 09e5 5dbd a391 343c
00000010: 1de0 a73c 3982 30bd 8258 bb3c 2376 eebc
00000020: 4259 ecbc 44f1 f13b 1730 6d39 6dd5 e7bc
00000030: adfa f4bc 65da e3bb f365 86bc 2aa7 63bc
00000040: 6d1b f33c 13f7 24bd 5c85 23bd 85fb 1b3d
00000050: 604a 9abc 9026 90bc ad0c 8b3c 8703 52bd
00000060: 9aac 1cbd aaf7 213d 7a37 1e3d 6c31 c4b7
00000070: 291c 7abc b48f a13d 92b1 07bd d043 293a
0.038559508 0.027057573 -0.054173503 0.011021051 0.020492608 -0.04309294 0.022869352 -0.029109066
-0.028851155 0.0073834974 0.00022619996 -0.028300012 -0.029904688 -0.006953525 -0.016406035 -0.0138948355
0.029676164 -0.04027469 -0.039922103 0.038081665 -0.018834293 -0.017596513 0.016973818 -0.051272895
-0.038250543 0.03954283 0.038627125 -2.3388035e-05 -0.015265503 0.07888737 -0.03312833 0.0006456943

fc2.bias f4 [2]
00000000: 22e8 4e3d 83f1 673d
0.050514348 0.056626808
