models/model_state_dict.pth (torch, 93987 bytes, 18 tensors)

lstm.weight_ih_l0 f4 [80, 128]
00000000: 1c0e 383e 12c5 153e 1466 d2bd eb32 533e
00000010: c806 a0bd a029 debc 6ae0 0c3e 29c4 843c
00000020: 887c 163e 5457 9abc 9665 393d be15 06be
00000030: 2bcc c5bd 6d34 773e 3143 dcbc 8106 073e
00000040: f1a9 223e 075a 753d 18e5 1e3e 3391 d2bc
00000050: c7c3 133e 68fa b03c a4a5 ca3b e279 f03d
00000060: 6bda 373c 9fce b33d 5af7 18bd f2d3 21bd
00000070: a391 b1bc f2ca cfbd 605c bfbd 18e0 d03c
00000080: 2062 d13d 4927 37be 12e7 aabc 6f30 09be
00000090: 12b0 4bbe cb84 693e 8fb2 b3bd ce3a 26bd
000000a0: c5a4 45be b22c d9bd 6afc 413e 81a0 3b3d
000000b0: 3955 f03c 1a9a 153e d329 3d3e 2320 c2bd
000000c0: c290 7c3d 3fd2 843d 92fc 193d 166f 633e
000000d0: c566 333d 9c35 663d d778 cc3d 2a29 41be
000000e0: d42d 553d 3f8f 9e3d 9a25 bc3d c622 8b3d
000000f0: 678f de3d 512e a2bc 895b 0c3e 5cdd dd3d
00000100: 9054 4abd 5ebc d5bb 906a 3a3e 5a8e e03d
00000110: 482b c63c 893b 2e3e 87de 8b3a ef78 4fbd
00000120: 8edb 423e d699 203e 104c 0f3e 82c8 43be
00000130: b112 14bd 0496 e23d 8223 7f3d 2db9 ec3d
00000140: e5f0 29be 448a 00be 95e7 49be 796d eabd
00000150: 32b1 773d df2f 35be d9ad db3d 35d0 81be
00000160: 8471 b43d 7a29 80be 23f9 f13d 71de 0ebe
00000170: 71a9 ebbd 5d98 2cbd 3ae0 3d3d c44e 0f3c
00000180: ea6e e4bd be7b 2dbe 319d 29be 33bb 0bbe
00000190: 8f68 d53d 9e97 2fbe 1efb 2ebd e280 f8bd
000001a0: 499d 213d d331 403d 49c7 9bbd e3d6 1ebe
000001b0: e3cd 753d 0dc6 163e 1e0e 453e 6382 b83d
000001c0: 6ca3 053e f317 f5bd 3d4c 89be 689a 6bbe
000001d0: 4e65 083d a0f3 b9bd b32e 433c f2e1 5c3e
000001e0: 3b02 f03c 3a17 9f3d f6fe de3d 9bfb 493d
000001f0: b4a0 2d3e a7a7 923b 65a0 92bd cefd 37be
00000200: d911 0fbe 87ef f5bc 91cb b4bb 526e dcbd
00000210: a2e6 1b3e 9377 69be 5f0b 103d 0d50 fcbd
00000220: 4e7f 43bd 6f81 583e 1875 043e b5a1 85bd
00000230: baf2 bf3d efcb 75bd 1229 4e3c 6b67 59be
00000240: 14c5 d4bc 4220 653e 5b48 19be d85a bf3d
00000250: c438 8c3e 4ca5 12be 2090 a2bd b969 3d3d
00000260: 6159 a7bc bcd9 cf3c e9ed 253e 5314 06be
00000270: 5636 aabd 7a39 7d3e 46fb 9ebd edc4 98bd
00000280: d5a3 f33d db4b cabd 3b48 bf3d d952 443e
00000290: 9568 65bd 7434 113e cc60 453e 7096 d2bc
000002a0: b246 7ebd 68a7 023d 5afa 10bd e785 8a3d
000002b0: b024 123e cb8b d3bd 5114 043e 0eb4 013e
000002c0: 955c 83bd 18bc c2bd d92e c8bd 1e02 133e
000002d0: 1970 79bd 84ff 5dbe 9cf8 093e 03b8 d5bd
000002e0: 9189 a7bd 14cd 30be 6515 9b3d 0f00 45bd
000002f0: 614b 1ebd c59c e13d e951 cdbc f778 c3bd
00000300: 63d5 c83d f3b8 b9bd 4184 02bd 27b3 193e
00000310: 6c82 eb3d a7cc 7c3e 2dab 5e3e e814 ff3d
00000320: b934 323e a9e3 81bd f494 d23d f306 093e
00000330: 2728 35be 4bfd e6bd 3980 803d c47c 173d
00000340: e590 38be e429 5dbd 54c6 31bd 2fb6 b23d
00000350: 0f09 0bbe 1da5 343e fa63 2d3e 5334 62be
00000360: 176a 3abe 4620 af3c 64fb a0bd 81cd 2dbe
00000370: d770 14bd c4a3 eebd a98e 343c d40c 64be
00000380: 3cdc 8bbc 45e8 233e 94ff 7a3d 484c cdbd
00000390: 8c85 de3d abcc 0e3e fba4 033e 13c3 5abe
000003a0: 2bb0 293e 0de3 033e 8d39 4bbd bf84 0c3e
000003b0: 9095 fcbd 4219 32be 4573 e73d 1374 88bd
000003c0: a453 c1bd 3faa 3fbe 7377 ebbd f090 d6bd
000003d0: 6312 1cbe 161b 0cbe 1d6c 8bbc bea0 293e
000003e0: c5a4 bb3d 8aeb 883d 8a7f c13d 7936 883d
000003f0: 3b9f 2b3e e561 06be 6941 0b3e 8891 233e
0.17974132 0.14625958 -0.10273376 0.20624892 -0.078137934 -0.027119458 0.13757482 0.016206818
0.14695942 -0.01884047 0.045262896 -0.13094231 -0.096580826 0.24141093 -0.026887508 0.13186075
0.1588514 0.05990031 0.1551708 -0.025704002 0.14430152 0.021603778 0.0061842967 0.11741997
0.0112215085 0.08779644 -0.037345268 -0.039508767 -0.02167589 -0.101461306 -0.09343791 0.025497481
0.10223794 -0.1788608 -0.020862136 -0.13397382 -0.19891384 0.22804563 -0.08774292 -0.040583424
-0.19301136 -0.10604228 0.18943945 0.045807365 0.029337512 0.14609566 0.18472986 -0.09478786
0.06166149 0.06485414 0.037594385 0.22210345 0.04379918 0.05620347 0.09983986 -0.18863359
0.05204566 0.07742166 0.091868594 0.06793742 0.108671956 -0.019797476 0.13706793 0.108332366
-0.04939705 -0.0065226993 0.18204713 0.109646514 0.02419056 0.17014898 0.0010671177 -0.05065244
0.19029066 0.15683684 0.1399386 -0.19119456 -0.036150638 0.110637695 0.062289722 0.11558757
-0.165958 -0.12552744 -0.19717248 -0.114466615 0.06047172 -0.17694043 0.10726518 -0.25354162
0.08810714 -0.25031644 0.11815097 -0.13952042 -0.11506928 -0.042137492 0.046356417 0.0087468065
-0.11153968 -0.16941735 -0.1656387 -0.1364563 0.104203336 -0.17147681 -0.042719953 -0.121339574
0.03945664 0.046922516 -0.0760637 -0.1551166 0.060010802 0.14723988 0.19243667 0.09009244
0.13050622 -0.119674586 -0.26815978 -0.2300812 0.033299737 -0.09079671 0.011912989 0.21570566
0.029297939 0.07768102 0.10888474 0.049312215 0.16955835 0.004475552 -0.07159499 -0.17967913
-0.13971652 -0.030021442 -0.005517431 -0.107632294 0.15224698 -0.2279952 0.035167094 -0.12319956
-0.04772883 0.21143125 0.12935293 -0.06524984 0.09372468 -0.06000894 0.012583034 -0.21230857
-0.02597288 0.22375587 -0.14969008 0.09343499 0.2738706 -0.14320868 -0.07937646 0.046243403
-0.020428361 0.025372379 0.16204037 -0.1309369 -0.08311145 0.24728957 -0.0776277 -0.074594356
0.11896483 -0.098777495 0.09339949 0.19172229 -0.05600794 0.14180166 0.19275206 -0.0257065
-0.06207914 0.031897932 -0.035395004 0.06763821 0.14271808 -0.10329398 0.12898375 0.12666342
-0.06414143 -0.09508532 -0.097745605 0.14356276 -0.06089792 -0.21679503 0.13473743 -0.10435488
-0.081805356 -0.17265731 0.0757244 -0.04809576 -0.038646106 0.110162295 -0.025063472 -0.095445566
0.09806325 -0.090684794 -0.03186441 0.15009747 0.114994854 0.24687444 0.21744986 0.124551594
0.17402925 -0.06342251 0.10282317 0.13381557 -0.17691098 -0.112787805 0.062744565 0.03698422
-0.18024023 -0.05399503 -0.04340203 0.08726155 -0.13577674 0.1764111 0.1693267 -0.22090273
-0.18204533 0.021377694 -0.07860449 -0.16972925 -0.036240425 -0.116523296 0.011020341 -0.22270519
-0.01707279 0.16006573 0.061278895 -0.10024315 0.10865316 0.13945262 0.12855904 -0.21363477
0.16571109 0.12879582 -0.04961543 0.13722514 -0.12333214 -0.17392448 0.11301283 -0.066627644
-0.09439781 -0.18717287 -0.114973925 -0.104768634 -0.15241389 -0.13682207 -0.017019326 0.16565225
0.09162287 0.066855505 0.09448154 0.06651015 0.1675996 -0.13123281 0.1359917 0.15973485

lstm.weight_hh_l0 f4 [80, 20]
00000000: c139 3fbe 4fc6 213e 6f60 05be 421f d93d
00000010: 2443 0cbe c70e 1f3d ab28 7e3d bd04 c03d
00000020: 753f a63c be1a 053e 75c6 53be 027d 823e
00000030: 7e97 693e 4866 50bd ffc7 d43c 2fb6 383c
00000040: 5aea 99bc 1e3c 263c a0bd 50be fc53 c63c
00000050: 28bc 263e 5088 25be 2fd8 b5bd 0908 443e
00000060: bdb8 ecbc ca84 0d3e a6cb 03be 18c5 55be
00000070: 9697 fe3d 745a 04be e787 1e3e 0639 c63d
00000080: e938 c83c 1079 213d 8ed6 3cbd e458 a93c
00000090: 8ad7 70be 6199 653d a35f f7bb e781 9abd
000000a0: 1a53 24be 9587 91bd d4b5 4d3e 29c1 e43d
000000b0: 1b25 c4bd b1ac b5be 22ab 9a3c b0be e23d
000000c0: eed4 56bd a9a8 ebbd 809d 5cbe 11e4 04be
000000d0: f0db 6ebd 783f 4bbd 5110 203e c91e 40be
000000e0: 6b36 3a3e 5800 09be ecea 6d3e 1342 443d
000000f0: b495 3cbe 293b 843d 2f71 fabb a20e 57be
00000100: ca84 033e a57e 2bbd 879c aebd aa75 8ebb
00000110: 351e 9abd e546 e5bd 60e8 e83c 84cf bdbd
00000120: 301d 9b3d 6291 73be f29e 4d3d bf11 12be
00000130: 595e f3bd 141b 27bd a97a 0f3e c84a 24bd
00000140: 364f 56be 5e79 313e 6a94 10be ad91 a73c
00000150: f596 33bd 8e4b 85bd 8664 3fbd fc99 95bd
00000160: 688b 813d a2aa 0d3e ef99 07be 91ee 363e
00000170: b414 b8bd 6418 333e 9d46 46be 088d f0bd
00000180: 56d9 22be 0094 e7bd 32f2 843c 89d8 18bd
00000190: 7f5b 103e 31e5 563e 47bf 2b3e 4d7d 063d
000001a0: e2e0 adbd 2507 12be 8f05 913e 32ef ff3c
000001b0: 93bb 433e aa4a a53c 1ed6 2e3e 3985 c1bd
000001c0: 8df3 8b3c edfb 683e 8d03 56be 554c 093e
000001d0: 17b0 dfbd f5cb 923d 80d9 14be 8c48 413e
000001e0: 7efa 36be 72cb 913d f02f 273e bf88 82bd
000001f0: 208e a7bd 5c44 4ebe f183 0dbe 7ab4 07be
00000200: 95b1 373e ca29 27be d2c9 53be 6515 0e3e
00000210: bb66 503d 77f4 f43d 8a6c 29be 27f5 893d
00000220: c442 133e c947 9bbd f76c 583e 362c 87bd
00000230: 6e2a 123e a51e 00be 08aa 55be 3c75 04bc
00000240: 3d85 1abe 4230 0e3e 69a7 3dbe 91a2 8fbd
00000250: de66 fcbc 34dc 573e a80b edbd d73d 263e
00000260: 18eb 2fbe 8956 00be 86b5 16bd 4fa3 24be
00000270: d60a ddbd 41b6 34be 8df2 fc3c 05d7 61be
00000280: 1c25 7e3e d4f0 003e f88d 3f3e 0ff3 25be
00000290: e58b 013d f022 923e 766b 88bc 1b86 40bd
000002a0: 96f4 21be 31ac 073e 62af fdbc 7463 51bc
000002b0: a0c1 44be f552 05be 7bf3 6d3d 5109 1bbd
000002c0: fca7 243d d18f eabd e46e 0a3e 3927 44be
000002d0: 50aa b13d 1354 983d e2ed 33be 3ff7 183d
000002e0: f1e9 ae3d 7284 763e 9773 9f3c f353 aabd
000002f0: c3a1 51bd c07e 463e 70ad 283d ca43 20bd
00000300: a2df 493e b99f 78be 7b06 53be 5b20 41be
00000310: 2ae6 453e da2b 3a3e 5904 c63d 2cce 303e
00000320: d294 403e 87e8 f6bc 2d2e 4a3e f86c ccbd
00000330: 78ca b63d 3b40 81bd ca8b e3bc f268 1abe
00000340: 27ad bc3c 4860 c83c cbf2 443e 1451 10bc
00000350: f988 b0bb 3d62 0e3e 670c 16be 4e12 59be
00000360: cc4a 16be c01a 6ebe b62e 093c 3184 ebbd
00000370: d11e 1ebe 9483 2ebd 1c7e 73be 7b51 253e
00000380: 5b2d 433d 1aa5 e6bc 42e9 47bc e885 07bc
00000390: 7d2b 833e afd2 e9bc a04c acbd 6d7f 1c3e
000003a0: dc8a 6bbd ec6a aa3b 5466 833e 4e63 87bd
000003b0: ab16 52bd 9599 f3bd f448 1ebe 2c68 183e
000003c0: 251c 80bd efb4 0e3e 9e9a 1d3e 3fd3 14be
000003d0: 957c dcbd 12e9 99bd 12d9 893e 73f2 403d
000003e0: aa28 3b3d 212f 123d 1911 d1bd a55b 343e
000003f0: 9a12 39be b9e8 613d d4a5 633c 53be 58be
-0.18674375 0.15798305 -0.13025068 0.10601665 -0.13697487 0.038832452 0.062050503 0.09375904
0.02029393 0.12998483 -0.20681174 0.25485998 0.22811696 -0.050878793 0.025974272 0.011273905
-0.018788505 0.010146169 -0.20384836 0.024209969 0.16282713 -0.1616528 -0.088791244 0.1914369
-0.028896684 0.13820186 -0.12870654 -0.20875967 0.124312565 -0.1292513 0.1548153 0.09678845
0.0244412 0.039422095 -0.046103053 0.02067227 -0.23519722 0.056054477 -0.0075492426 -0.07544308
-0.16047326 -0.07105938 0.20088893 0.11169655 -0.0957739 -0.35483316 0.01888043 0.11071527
-0.05244916 -0.11506779 -0.21544456 -0.12977625 -0.058315217 -0.049621075 0.15631224 -0.18761744
0.18184821 -0.13379037 0.23234147 0.047914576 -0.18416482 0.064565964 -0.007642887 -0.21001676
0.12843624 -0.041868825 -0.08525949 -0.0043475227 -0.07525293 -0.11195163 0.028431118 -0.09268096
0.075739264 -0.23785928 0.05020041 -0.14264582 -0.1188323 -0.040797308 0.14011635 -0.04011038
-0.20928654 0.17331454 -0.14119115 0.020455206 -0.043845136 -0.065085515 -0.046726726 -0.07304761
0.06325418 0.13834623 -0.13242315 0.17864443 -0.08988324 0.17489773 -0.19362874 -0.117456496
-0.1590322 -0.11307526 0.016228769 -0.03731588 0.14097403 0.20985867 0.16772185 0.03283434
-0.084901586 -0.14260538 0.28324553 0.031241987 0.19114523 0.020177204 0.17073867 -0.09449238
0.017083907 0.22752352 -0.20899792 0.13408025 -0.10922258 0.07167808 -0.14536095 0.1887533
-0.17868993 0.07118882 0.1632688 -0.063737385 -0.08181405 -0.20143265 -0.13819863 -0.1325244
0.17938836 -0.16324535 -0.20682457 0.13875349 0.05087922 0.119606905 -0.1654531 0.06736212
0.14380938 -0.07582051 0.21135317 -0.066002294 0.14273998 -0.1251169 -0.20865643 -0.0080845915
-0.15089889 0.13885596 -0.18520893 -0.07013429 -0.03081077 0.21080095 -0.11574489 0.16234528
-0.17179525 -0.1253301 -0.036794208 -0.16077922 -0.107930824 -0.1764765 0.030877376 -0.2205468
0.24818844 0.12591869 0.187065 -0.16206001 0.031627554 0.2854228 -0.016652804 -0.047002893
-0.15815958 0.1324928 -0.030967418 -0.012780059 -0.19214487 -0.13019927 0.05809353 -0.03785068
0.040199265 -0.11453212 0.13518864 -0.19155587 0.08675063 0.07437911 -0.17571214 0.037345167
0.085407145 0.24073961 0.019464297 -0.08316793 -0.05117966 0.19384289 0.041181028 -0.03912715
0.19714215 -0.2427968 -0.20607941 -0.18859999 0.19326082 0.1818079 0.09668798 0.17266148
0.1880677 -0.030140175 0.19744177 -0.09981722 0.089253366 -0.06311079 -0.027776618 -0.15079096
0.023031784 0.024459973 0.19233243 -0.008808393 -0.005387422 0.13904662 -0.14653169 -0.21198389
-0.1467697 -0.23252392 0.008372953 -0.11499823 -0.15441443 -0.04260595 -0.23778576 0.16144364
0.047650676 -0.028154898 -0.012201609 -0.008271672 0.25619116 -0.028542845 -0.084130526 0.15282984
-0.057505473 0.0052007344 0.25664008 -0.06610738 -0.05129115 -0.11894528 -0.15457517 0.14883488
-0.06255368 0.13936208 0.15391013 -0.14533709 -0.1076595 -0.07515158 0.26923424 0.047106218
0.045693077 0.035689477 -0.10208339 0.17613085 -0.18073502 0.055153582 0.013894517 -0.21166353

lstm.bias_ih_l0 f4 [80]
00000000: 289c 8c3d 9db7 e9bd 3933 ad3d 9e4f 6a3d
00000010: d815 bdbd d4cc 803e 40b4 0c3e 206c 20be
00000020: e4cc f53d 7d53 cb3d feee 86bc 80a8 3d3e
00000030: 79b1 3ebe 3abc 99bc 191e cabd 757f 1fbc
00000040: 9fa1 393e 1cf2 d03d 5103 fd3c 2f11 0ebe
00000050: 0a0b 96bd f0be a23d 1d6a 353d 4c3e d73d
00000060: 9e93 1ebd 301c 01bd 9b40 1c3e d45f 093d
00000070: b492 25be ec68 5d3d f3ed d7bd 98ec 4c3e
00000080: 6221 493e e20c 1b3e c67e aa3d 3917 9f3d
00000090: 4e90 fabd b4c2 cc3c 6a4d c03d 50b6 a43d
000000a0: ef0a 4dbd 4f4b 2dbd e204 00be 44db b83d
000000b0: dfd8 bcb9 6cf0 3f3e a522 0f3e 4b3e 20bd
000000c0: 2257 5e3e 4056 8abd edc1 3e3e bed6 fa3d
000000d0: 991a a43d 701c 4e3e 87bd 65be 651d 273e
000000e0: 0db4 003d 6f25 3c3d 9206 c5bd c940 80bd
000000f0: d68a fe3d efa9 133e 3341 a03a acea 41bb
00000100: 11a2 f7bd c790 123e 32b0 88bd 8bd7 38be
00000110: 034b b5bd b66b 9bbd e4b1 d13d 03e8 0e3e
00000120: 48f8 dd3d f1eb 32bc a0e3 d0bd e385 36be
00000130: 4885 113e 6213 243e 210f da3d f110 84bd
0.06865722 -0.114119746 0.084570356 0.057204835 -0.09232682 0.2515627 0.13740635 -0.15666246
0.120019704 0.099280335 -0.016471382 0.18521309 -0.18622388 -0.018766511 -0.09869022 -0.009734978
0.1812806 0.10202429 0.03088537 -0.13873743 -0.07326324 0.07946575 0.04429065 0.10509929
-0.038714997 -0.031521022 0.1525902 0.033538654 -0.16169244 0.05405514 -0.10543432 0.20012128
0.19641641 0.15141633 0.08324961 0.07768101 -0.12234555 0.024995185 0.093897656 0.08042586
-0.050059255 -0.042308148 -0.12501863 0.090261966 -0.00036019736 0.18744057 0.1397806 -0.039121907
0.21712926 -0.06754732 0.18628664 0.1224799 0.080128856 0.20128036 -0.2243558 0.16319807
0.03142171 0.045934137 -0.09620394 -0.06262357 0.124288246 0.14420293 0.0012226462 -0.0029589338
-0.120914586 0.1431304 -0.066742316 -0.18050973 -0.08852198 -0.075889036 0.10239008 0.13955693
0.108383715 -0.010920511 -0.10199666 -0.17824511 0.14210999 0.16023019 0.10647417 -0.06448544

lstm.bias_hh_l0 f4 [80]
00000000: c479 693c 4706 bb3d 3d94 aa3d 1044 db3d
00000010: 9aef d9bd b783 063e c35e 203d 1e09 aa3d
00000020: 11da 4cbd b7e3 4c3e 0c92 1d3e c478 403e
00000030: dbbe 6d3d a4ae 423e ce5b 78bd 8c83 473e
00000040: ae9d 003d d8fc 24bc e907 62bd b1cc 5f3e
00000050: 8480 f9bc 32c0 28be 63e1 583e bfa8 083e
00000060: f80a 1c3e d0b6 c23d e5d4 2c3e bb45 5a3e
00000070: f9aa 863d 9e61 69be cb98 133e e081 06be
00000080: 1412 203e bc00 0abe 38f6 063e 10a5 39be
00000090: 8e30 a6bd 3f66 683d a4d2 053d 985d 64be
000000a0: 1801 dbbd 07c4 ef3d c750 6a3e fee2 563e
000000b0: be43 133e 420f be3d 1f48 263e e93c 1f3e
000000c0: d5a9 90bc f2ed babd b5e8 5d3e d28a 6a3e
000000d0: 0392 f63d c45b 483e 6115 08be faab 2ebd
000000e0: 443e c5bd 7b89 583b 6e8e 64bc 7dcd ddbd
000000f0: e137 363e 9737 1f3e 778f 7e3c 1bc5 693e
00000100: e615 2abc 6b7b 8ebd 8c2a 1f3e 4031 d4bd
00000110: 2d7e eb3d de8a 21bd 1e94 4e3d df85 773d
00000120: 15a9 3b3e 6779 d1bc 1c69 cf3d f368 2dbe
00000130: 4847 bf3d f6d1 27be b31c 89bd cc7f c7bb
0.014250223 0.09132057 0.083290555 0.10706341 -0.106414035 0.13136183 0.03915287 0.0830252
-0.05001265 0.20008741 0.15387744 0.18796068 0.058043342 0.19011933 -0.060634427 0.19483775
0.031400375 -0.010070048 -0.055183325 0.21855427 -0.030456789 -0.16479567 0.21179728 0.13345622
0.15238559 0.09507525 0.16878088 0.21315663 0.06575579 -0.22791144 0.14413755 -0.13135481
0.15631896 -0.13476843 0.13179862 -0.18129373 -0.0811473 0.056738134 0.032671586 -0.22301328
-0.10693568 0.11707311 0.22882377 0.20985028 0.1438131 0.09280254 0.1623845 0.15550579
-0.017659107 -0.09127416 0.21670802 0.22904518 0.12039568 0.19566256 -0.13289405 -0.04264448
-0.09631017 0.003304093 -0.0139499735 -0.108302094 0.17794754 0.1554855 0.015537134 0.22829096
-0.010381198 -0.06957134 0.15543574 -0.10360956 0.114986755 -0.039439075 0.050434224 0.060430404
0.18326218 -0.025570584 0.1012747 -0.16934566 0.09339768 -0.16388687 -0.06694927 -0.0060882326

lstm.weight_ih_l1 f4 [80, 20]
00000000: 6448 21be f90b 49be bf44 063e ae8a 09bd
00000010: 69f9 273e 9b0c a53d c5fd 003e 8235 24be
00000020: b5b4 41bd d53e 08be 415c 493e bc92 2abe
00000030: a842 873c 6316 b73c 6cd7 083e 3714 fbbc
00000040: 5caf 893d e1a2 59bc 8bb0 203e 659c 4d3e
00000050: f68b 42bd 6d43 9c3d 5c54 4b3e 2885 72bb
00000060: 2397 3abe 8096 50bd 020e 423e 1e63 8ebd
00000070: ce8b f2bd 1524 ccbd 7007 d23d ee97 25bd
00000080: 82f5 2abe d544 0f3e 5235 1e3e e1eb b4bd
00000090: 2a6c 4fbe 2bc8 57be 3bea 8c3d 7825 83bd
000000a0: 88f5 89bd 55c0 463e 286d 8a3e 4cfc c53d
000000b0: 6d9b 12be a6e3 f0bd 287e c6bd 61b0 c43d
000000c0: 61ba 04bc d925 b63c 92ea 5ebd e813 213e
000000d0: 380a f03d 4829 d8bd fddf 25bd cabf 5fbe
000000e0: 3cf9 8d3c d6ec 5e3e 5e85 343e 3d2d abbd
000000f0: e314 cc3d 33fd eb3d 99d9 09be d6be 983c
00000100: 15ac 36bd 7a47 b9ba 662a 75be 7fe0 69bd
00000110: 62af 7bbe 5433 723d 2242 1dbe 67e9 94bd
00000120: 066a 3fbd 79aa 4d3e 7202 2f3d bc7e 4d3e
00000130: 2266 00be 647a 44bd 6e76 613b fe83 80be
00000140: b7d5 5c3d 46a5 3c3d 34af 493e d998 613e
00000150: 1e0e 423e c7ca 8d3d 0dc7 023e 2714 56be
00000160: 9b5f fa3d a401 80bd 98c5 2e3e 349b 4bbe
00000170: 3536 87bc d0a5 72bc b19c 0b3d 45e2 243e
00000180: ea38 543e 5984 7d3d aa23 dfbd 95af 0e3a
00000190: e546 41be 80ca 323e 86a2 cdbd 7ea4 513c
000001a0: 4cb0 043e 9efe 3c3d 99c3 6b3d c91a 203d
000001b0: 01ff 1dbe 988d 183b 2067 b8bc 336f 64bd
000001c0: 5204 23be ae6b d33d 35ed 39be ed57 53be
000001d0: 0670 c0bd 21ea 68bb c383 60be 570e 413e
000001e0: a1f6 cc3d 6975 38bd 4fcf 98bc d3f8 c23d
000001f0: 3724 2abd e8bb 4abe 4e75 c53c 058f c3bd
00000200: a11d 3d3e a8c0 d4bb 2e92 ee3d bfcf f73c
00000210: 6b3d 443e 1ae5 3d3e af58 343d f4e9 b0bd
00000220: 4601 f9bd 1e51 cf39 7a5b e13d 2028 af3d
00000230: 0fdf a0bc e31c 3bbe 557c 34be 8929 cbbd
00000240: 423c 143e bf2c 0b3e e6f4 10be 1297 e73c
00000250: b1e2 5abe 5457 30be 6f1c dd3a f091 ab3d
00000260: 1d48 42be 4fd6 eabd a126 b03d c19b 253e
00000270: 1089 cc3d 4a74 b93d f253 9c3c bbd8 e03d
00000280: 205a 6c3d f4a2 4f3d 49df 26bd e8e7 3cbe
00000290: 8202 e93b 5f00 6bbe 05f0 8cbc 74eb 1e3e
000002a0: 4e17 3c3c c7f4 443d 7480 febd 2c7b a63d
000002b0: 5032 04be c498 9cbc 88f4 c0bd bf3b 293e
000002c0: fb3e 933c e229 90bd 9261 af3d 3806 a13d
000002d0: 7859 42be 404b b83d cfd8 033e af10 20be
000002e0: 903f a0bd 6d12 7fbd a060 afbd 22d2 63be
000002f0: 77d8 39be 7e54 8abd 86f9 413e dab9 233e
00000300: 71e7 433e 249c 40be 5dba dbbc f511 483e
00000310: 3f92 693d 9018 02be fa9e 5fbe 417c 21be
00000320: 65b9 23be 4174 253e a39a 73be ca9e 193e
00000330: 3d33 15be c691 e73d 12bf 3abd 05cd 2fbe
00000340: 2c05 273d 0105 3c3e f0b2 333e 98a8 d83d
00000350: 64da 6abe 8250 9e3d 6873 983d de5d 06bd
00000360: 6bbb 08be 9784 ea3d 5cbd 5dbe a2fd 2b3e
00000370: 4f33 983c e75e 77be 4b27 3e3e c00a aebd
00000380: aec3 75bd 7a5c 223e 2c55 a63d bb13 eb3b
00000390: 23d7 153e 4d56 673d 356a 1dbe a9af de3d
000003a0: 3266 2ebe 5309 943d 0c00 f4bd ea66 ff3d
000003b0: da1c 98bd e27c 9c3d e9ad aabd 37a5 7fbe
000003c0: cfc5 6dbc 8fca 51bc 14be 04be 75f1 b63c
000003d0: c7c9 62bd b751 7f3d 0fb2 253e 9ed9 dabd
000003e0: 13ea 58bd b025 083e 3d91 0ebe 1c18 f83d
000003f0: f3d6 1dbe f689 92bd 43e3 5fbe c873 33be
-0.15750271 -0.19633473 0.13112162 -0.03357952 0.16403736 0.08059045 0.12596805 -0.16036037
-0.047291476 -0.13305219 0.19664098 -0.16657537 0.016511276 0.022349542 0.13363427 -0.030649288
0.067229 -0.013283462 0.15692346 0.20079191 -0.04749676 0.07630048 0.198564 -0.0037005637
-0.18221717 -0.050924778 0.18950656 -0.06952499 -0.11843072 -0.099678196 0.10255325 -0.040428095
-0.16695216 0.13991101 0.15450028 -0.08834053 -0.20256105 -0.21072452 0.068806134 -0.06403631
-0.067362845 0.19409306 0.27036405 0.096672624 -0.14317103 -0.117621705 -0.09692031 0.09603954
-0.008101077 0.022234844 -0.054422922 0.1573025 0.11720699 -0.10554749 -0.040496815 -0.21850505
0.017330758 0.21770033 0.17629 -0.08358238 0.09964921 0.11522903 -0.13461913 0.018645685
-0.044597704 -0.0014135682 -0.23941955 -0.05709886 -0.24578622 0.05913098 -0.15357259 -0.072710805
-0.04673197 0.20084561 0.04272694 0.20067877 -0.1253896 -0.047968283 0.0034402865 -0.25100702
0.05391475 0.046056055 0.19695741 0.22030963 0.18950698 0.06923442 0.12771244 -0.20906125
0.122252665 -0.06250313 0.17067564 -0.19883424 -0.01650534 -0.014810041 0.03408498 0.1610194
0.20724836 0.061893795 -0.10895474 0.0005443034 -0.188747 0.1746006 -0.100407645 0.012795566
0.12957877 0.04614126 0.057559583 0.039088044 -0.15429308 0.0023277756 -0.022510111 -0.05577011
-0.15919617 0.10323273 -0.18156894 -0.2063901 -0.09396367 -0.0035539942 -0.21925263 0.18853126
0.10007978 -0.045033846 -0.01865354 0.09520116 -0.041538443 -0.19798243 0.024103787 -0.09548763
0.18468334 -0.006492693 0.11648975 0.030250428 0.19164054 0.18544427 0.044029888 -0.08638373
-0.12158446 0.00039542554 0.11003776 0.08552575 -0.019637613 -0.18272738 -0.17625554 -0.099200316
0.14476112 0.13591288 -0.14155921 0.028270278 -0.21375538 -0.17220813 0.0016869436 0.08377445
-0.18972822 -0.11466657 0.08601118 0.16172697 0.0998708 0.090553835 0.019082997 0.10978838
0.057703137 0.050692514 -0.040740285 -0.1844784 0.0071108947 -0.2294936 -0.017204294 0.15519506
0.011480166 0.048085 -0.12426844 0.08128962 -0.12909818 -0.019115813 -0.09421641 0.16526698
0.017974367 -0.070392385 0.08563532 0.07862514 -0.18979442 0.08998728 0.12875675 -0.15631364
-0.078246236 -0.06227343 -0.08563352 -0.22248128 -0.18148981 -0.06754397 0.18942842 0.15988865
0.19131257 -0.18809563 -0.026822263 0.195381 0.057024237 -0.12704682 -0.21837988 -0.15770055
-0.15988691 0.16157629 -0.23789458 0.1500198 -0.14570327 0.11307101 -0.045592375 -0.17168052
0.040776417 0.18361284 0.17548728 0.10579032 -0.22934872 0.077301994 0.07443887 -0.032804362
-0.13352744 0.11451071 -0.21654266 0.16795972 0.018579153 -0.24157296 0.18569677 -0.08498144
-0.060001068 0.1585559 0.08121714 0.007173983 0.1463285 0.056478787 -0.15372546 0.10873348
-0.17031172 0.07228341 -0.119140714 0.12470801 -0.07427378 0.07641007 -0.08333952 -0.24965368
-0.014512493 -0.012804641 -0.12963134 0.022331933 -0.05536821 0.06233379 0.16181205 -0.106860384
-0.052957606 0.13295627 -0.13922592 0.121139735 -0.15414028 -0.0715522 -0.21864037 -0.17524636

lstm.weight_hh_l1 f4 [80, 20]
00000000: 198d 283e 2a94 ee3d 4b8f 0dbe e117 58be
00000010: 6973 223e 9a48 bd3c 7c14 1c3e 2ddf 4b3d
00000020: 2e03 3cbe 2d94 1ebe 90b0 df3c f2c9 31bc
00000030: b5d5 1fbe 14cf a63d 9522 1c3e 500a c13c
00000040: 718d 3f3d 39fc 463e d888 2fbe 1822 6b3e
00000050: 2847 0cbe b6e7 bd3d a71b d4bb 630a 20be
00000060: c53d 523e a03d 133d fb00 b4bd 9b4b 853d
00000070: 3d79 123e 7b66 af3d f475 033e 59f7 ce3d
00000080: 45e0 54be e6b6 03bd 96d8 0bbe 9ce0 27bb
00000090: cdf7 233d 7260 793e 9de7 773d 9ff9 10be
000000a0: b164 d93d 7ade 503e 14f3 01bd 7050 d03d
000000b0: 3434 85bb 028a e33b 5e9e 3bbd 5a33 c5bd
000000c0: 88b3 81bd 900e 463e 02e7 dcba b459 6cbd
000000d0: 8656 35be b5a6 113e e9aa 16be d6fe c9bd
000000e0: 979c ccbd eb1b 40be 8972 65be 8e84 7c3d
000000f0: c4d1 bd3d e62c 813c fcf1 813e 85b5 66bd
00000100: ec3e 83bd 3f99 fa3c c302 5fbe 766e 8cbc
00000110: e0cc 403e 486c 9cbd caef 1d3e 2a9a aabd
00000120: fd46 e93d 71a2 07be 1ed7 093d d2fb de3c
00000130: 869c a0bd f703 e7bd c6b8 38be 8fe6 48bd
00000140: fa7e c9bd d8c9 d53d adb8 183e 5e08 113e
00000150: 4986 8dbc 6c48 9e3c b093 373e d687 063e
00000160: 1d75 a7bd 7558 2e3e a7d8 1bbe b3ae 14bd
00000170: dded 0bbe 951a 17be 97e8 ce3d 4d15 e33c
00000180: da6d 19be 1d9b 883c 82f8 0abe 5391 573e
00000190: 0eaf 72bd 6560 57be 2d81 1c3e d504 843e
000001a0: db94 cdbd 947a 343d b620 5cbe 50fb b43c
000001b0: 935e 053d 7f11 393e 1d70 133c 2034 53be
000001c0: 3748 433e cbc7 123e 4a0d d53d 87ec 143e
000001d0: 1dd3 6a3e 272d 523e 4a3f a83c 324a 7cbd
000001e0: 3edb f9bc ef72 52be 435b 45bc 5095 a33d
000001f0: 0b2c 3f3e 4e88 34be a13e bfbc f956 32be
00000200: 78e8 a7bc 7244 aabd 6ae2 b4b9 6370 c0bc
00000210: 0c8c c0bd c3eb 12be 4989 63bd d8d9 893d
00000220: a795 073d 9c93 fabd 0d60 613d 0a73 ccbd
00000230: 22b6 2f3d fe2d afbd d5be 433e 46e5 1cbe
00000240: a9c0 07be e8d2 a7bd 33e3 f03c f93e 1bbd
00000250: 9d6f e1bd 29ef 18be 4da5 483d 6adb a33d
00000260: 1c76 193e 4ecc 01bc 5da7 fcbd e922 3f3b
00000270: adfb 2b3b 9516 eebd fe8c cebc 1376 5dbc
00000280: fb89 143e 502b 813d 0847 003e ed20 2dbe
00000290: 45dd 4abe 67da 2ebe 80de a13b 6bde 05bd
000002a0: 54f2 bbbd 103b 71bd 0a62 9fbc 0a5f f7bc
000002b0: 34e0 bb3d 1c4b ddbd 1100 49be 5d43 bfbd
000002c0: 3b11 093e 637e d8bb a3fa 653d ce49 633e
000002d0: 7f20 c03d 752b 0ebe 0354 1cbe 4a09 b0bd
000002e0: db68 2bbe 6180 2c3e a33e 1c3d 5bab ff3d
000002f0: d689 57be 4da8 c83d fcd8 5dbe 196c 27bd
00000300: 0271 0ebe 6802 e1bd 6331 0d3d 2c1b 63be
00000310: 30ac c8bd 4f33 bb3d 2f1d 55be 417d cb3d
00000320: 5edf 9e3d c2cb 1a3e 457e 7e3c f8fd 1dbe
00000330: b9bd 553e 9e6a 243c d474 a8bd deb5 173d
00000340: cbb0 dbbd 3a24 373e 5da4 23bc a059 0bbe
00000350: 577d adbd 85fa 9d3d cdde 513d 8446 593e
00000360: 8850 43be 0fc7 ac3c 8036 18bd 9a6c 1bbe
00000370: 06c1 1bbe bc32 d63d a7fa 4dbe 2214 9e3d
00000380: 1fc7 473d f1ce 2b3e 56d7 bbbc d583 e7bd
00000390: dacc 56bd ef54 9ebd 23ec d63b 03d1 bdbd
000003a0: 3085 bebd e4d1 96bd 343f ccbd 671d cd3c
000003b0: 6049 34bc 6594 8c3c a2a5 313e 038a 3d3e
000003c0: a670 3d3e 266a 033d 11d4 243d 86aa bebd
000003d0: bc5f 19bd 0f85 5ebe 074b 3c3d 3c2e 94bd
000003e0: a229 0dbe d94a 29bd dc3b 2a3e 10c3 5c3e
000003f0: 80d5 a33d 79a1 6e3e acca abbd fb0f a8bc
0.16460074 0.11649354 -0.13824193 -0.21102859 0.15864338 0.023105908 0.15242189 0.049773384
-0.18360588 -0.15486212 0.027305871 -0.01085137 -0.15608867 0.08144966 0.15247567 0.023564488
0.04676575 0.19432153 -0.17142045 0.22962224 -0.13699019 0.09272711 -0.006473023 -0.15628962
0.20531376 0.035947442 -0.087892495 0.06508561 0.14304061 0.085644685 0.12837964 0.101057716
-0.20788677 -0.032156847 -0.1365684 -0.0025616055 0.040031243 0.24353197 0.060523618 -0.14157723
0.106149085 0.20397368 -0.031725958 0.10171592 -0.004065061 0.006943942 -0.045805328 -0.09628935
-0.06333071 0.19341493 -0.0016853514 -0.057702735 -0.17708787 0.1422375 -0.14713635 -0.09863059
-0.09990805 -0.1876065 -0.22406973 0.06164985 0.09268525 0.01576848 0.25379932 -0.056325454
-0.06408486 0.030590652 -0.21778397 -0.017142516 0.18828154 -0.076378405 0.15423504 -0.08330186
0.11390493 -0.1324556 0.033652417 0.027219687 -0.078423545 -0.11280053 -0.18039235 -0.049048003
-0.09838672 0.10438889 0.14914198 0.14163348 -0.017275946 0.019321643 0.17927432 0.13137755
-0.081766345 0.17025931 -0.15219365 -0.03629942 -0.13664956 -0.14756234 0.10102957 0.027720118
-0.14983311 0.016675526 -0.1357136 0.2105153 -0.059248976 -0.21032865 0.15283652 0.25784937
-0.100381576 0.044062212 -0.21496853 0.022092491 0.032560896 0.1807308 0.008998898 -0.20625353
0.19070517 0.14334027 0.10402925 0.14543353 0.22932096 0.20525037 0.020537991 -0.061594196
-0.03050005 -0.20551656 -0.012045684 0.079874635 0.18669145 -0.17630121 -0.023345293 -0.1741599
-0.020496592 -0.08313836 -0.00034500967 -0.02349109 -0.09401712 -0.14347748 -0.055550847 0.067310035
0.033101704 -0.122351855 0.05502324 -0.099828795 0.042898305 -0.08553694 0.19115765 -0.15321836
-0.13257088 -0.08194524 0.029405212 -0.037901852 -0.11007617 -0.14934982 0.048985768 0.08000834
0.14986461 -0.007922245 -0.123366095 0.0029165095 0.002624254 -0.11625401 -0.025213715 -0.013516921
0.1450576 0.06307089 0.12527096 -0.16907091 -0.1981097 -0.17075501 0.004939854 -0.032682817
-0.0917708 -0.058894217 -0.019455928 -0.030196685 0.09173623 -0.108053416 -0.19628932 -0.093390204
0.13385479 -0.0066068633 0.05614723 0.22196123 0.09381198 -0.13883765 -0.15266423 -0.08595522
-0.16739218 0.16845848 0.038145673 0.12483855 -0.21048674 0.09797726 -0.21664804 -0.040874574
-0.13910297 -0.10986787 0.034470927 -0.22178334 -0.09798467 0.09140646 -0.20811914 0.09936
0.07757448 0.1511679 0.015533035 -0.15428913 0.20873155 0.010035185 -0.08225408 0.037038676
-0.1072708 0.17884913 -0.009987918 -0.13608408 -0.08471172 0.077137984 0.05123787 0.21218306
-0.19073689 0.021091012 -0.03716135 -0.15178147 -0.15210351 0.104588956 -0.20115148 0.07718684
0.04877388 0.1677816 -0.022929829 -0.11304442 -0.052441455 -0.077310435 0.0065589114 -0.092683814
-0.09302747 -0.07364252 -0.099729925 0.025038434 -0.011003822 0.017160604 0.1734834 0.18509679
0.18500003 0.032083653 0.040241305 -0.093098685 -0.037444815 -0.21730445 0.04596999 -0.07235381
-0.13785413 -0.041331146 0.16624397 0.21558785 0.07999706 0.23303784 -0.08388266 -0.020515433

lstm.bias_ih_l1 f4 [80]
00000000: 75ea 02be 2db6 c8bc c605 0e3e b41a 5d3d
00000010: ad8d 003e 38d8 8fbd 50e9 0ebe a6a0 febd
00000020: ce3c e93d d40b fdbd 648d 38be 61ed c43d
00000030: 5579 b63d 2f5b df3c 8264 30be 1ace 0d3e
00000040: 549d 0b3c 3b62 df3d 60c0 a5bd 9576 40be
00000050: 8915 10be cdfe 05be 5a4b d5bd d8d5 563e
00000060: fc95 0f3e 329a 30be d0d3 3dbe 821a 213c
00000070: 28f6 613c e17a ea3c 9919 b0bc 710e 5fbd
00000080: 4e94 773e cc15 a43d 4046 5c3e f624 96bd
00000090: 1699 133e fc5a 603e fce9 e03b 5276 073e
000000a0: 9f1f 573e 17b6 28be dd0e bd3c b5a4 083e
000000b0: 4ee9 fabd 547e 7cbd 9809 8d3d 3248 c2bd
000000c0: 2f0f 803e 588d 05be 5423 643e 98f6 2b3e
000000d0: 4a33 03be 219e 453c 86b4 633e 5022 88bc
000000e0: 670d 20be cdef d73d cac4 4b3e de27 803e
000000f0: 578b 8a3d 8787 443c 5516 44ba 878d 313e
00000100: 86a1 1f3e b0d5 b73c d1ed 583e 79c3 f1bc
00000110: 7222 c43c 918e 373e b84c 37be 7fe6 e1bd
00000120: 37a3 2bbe 2cf9 49be 563c 1bbe a1ac f83d
00000130: b30a 133e 2d55 2cbe 9c41 0fbd 4202 fa3d
-0.12784751 -0.02450093 0.1386939 0.053980544 0.12554045 -0.07023662 -0.13956189 -0.12432985
0.11388551 -0.12355772 -0.18022686 0.09615589 0.08909861 0.02726516 -0.1722584 0.13848153
0.008521397 0.10907408 -0.08093333 -0.18795235 -0.14070715 -0.1308548 -0.10414763 0.20980012
0.14022058 -0.17246321 -0.18537831 0.00983298 0.013791598 0.028623046 -0.02149658 -0.05445713
0.24177667 0.0801197 0.21511173 -0.073312685 0.14413866 0.21909708 0.0068638306 0.1322873
0.21008156 -0.16475712 0.023078376 0.13344081 -0.122515306 -0.061643913 0.068865955 -0.094864264
0.25011584 -0.130422 0.22279102 0.16793287 -0.12812534 0.012061627 0.22236833 -0.016617924
-0.15630113 0.10543785 0.19899288 0.25030416 0.06764858 0.011995203 -0.00074801344 0.17339145
0.1558896 0.022440761 0.2118447 -0.029512154 0.023942206 0.17925479 -0.1790036 -0.11030292
-0.1676148 -0.19723958 -0.15159735 0.12142301 0.1435955 -0.16829367 -0.03497468 0.12207462

lstm.bias_hh_l1 f4 [80]
00000000: 51fc 7fbd 046c a8bd 88ad 4dbe 3410 473d
00000010: f372 48be afdf 223e 1b85 f53d b93d e1bd
00000020: 70e1 30ba 309f 403d 6c25 30be cd52 38be
00000030: 460b 06bd 7746 593e 24f2 49be 5ef6 033e
00000040: 4de4 2dbe 1b0b 373e c893 093e 77f2 203e
00000050: 016f 3cbd 9994 2d3e bb68 493d 79ed a8b9
00000060: c303 a93d 4038 62be 70f1 723c f0c3 913d
00000070: d63e 3a3e 7c54 c2bd 4fbe 263e 1d14 28be
00000080: 548d 2e3c 6c4a 623e 45fe f03d 36b9 9fbd
00000090: aa93 623d 0706 e23c ba80 9fbc ed5b fcbd
000000a0: d147 233e cc14 41bd 7a92 13be 751c 20be
000000b0: 6413 b7bd cad8 393e f078 12be 0a52 b33d
000000c0: 7705 17be 34aa 443e b40a 00be a03f 3abe
000000d0: a770 d73c 1fc0 b43d a47b 20be 726e 323d
000000e0: eb6d 383d 574e 63be e873 f53c a1d1 2fbd
000000f0: 6d22 633e 6c52 4c3e e2da d13d fff2 6fbd
00000100: 6b75 3e3b 9a5b f33d f9dd 2fbe 3096 a6bc
00000110: 0a0d 88bc 35ba d0bd 583d 0b3e 280a 33be
00000120: 524e c2bb 7bcc a23d c2de 36be cfc8 ed3d
00000130: 597e 823d 4895 76bd ba4c 31be d43c 093e
-0.062496487 -0.08223727 -0.20085728 0.048599437 -0.195751 0.15905641 0.119882785 -0.10998101
-0.000674746 0.047026813 -0.17201775 -0.18000336 -0.032725595 0.21218286 -0.19721276 0.1288695
-0.16981621 0.1787533 0.1343528 0.15717493 -0.0460043 0.16951217 0.049172144 -0.00032220388
0.082526706 -0.2209177 0.014828071 0.0711745 0.18188033 -0.0948877 0.16283534 -0.16413923
0.010653812 0.22098702 0.11767248 -0.07798998 0.055316605 0.027590765 -0.019470561 -0.12322221
0.15945365 -0.047138974 -0.14411345 -0.15635855 -0.08939245 0.18149105 -0.14303946 0.08755882
-0.14748178 0.19205552 -0.12504083 -0.18188334 0.026298834 0.08825707 -0.15672165 0.04356236
0.0450267 -0.22197853 0.029962495 -0.042924527 0.22181101 0.19953316 0.10246827 -0.05858135
0.0029061686 0.11882706 -0.1717452 -0.020335287 -0.01660778 -0.10191766 0.1359762 -0.17484343
-0.0059297467 0.07949158 -0.17858413 0.11610567 0.06371755 -0.06020096 -0.17314425 0.1340211

lstm2.weight_ih_l0 f4 [80, 20]
00000000: 75a3 423e 1ecc a03c e926 373e 6c70 883c
00000010: 88da 903d 059d 2a3e fb6b bb3c 8697 9e3d
00000020: 6662 283e 852c 793c ec32 4c3e 277a 24be
00000030: e1f7 ca3d ecc8 2cbe 922e ee3d 96f1 1a3e
00000040: 862b d9bc fa81 023e d01b d3bd cd70 f93d
00000050: 53a8 123e 5528 893e 32f9 17bd 8f83 78be
00000060: 7eea 46be ff18 a8bd 4f16 3fbe 072e 87be
00000070: 1cc8 703e e404 003d 4073 06be e62f b1bd
00000080: 3f15 ae3c 8f49 ac3d 800b 993d 140d 07be
00000090: 1701 22bd 5906 49be 5d79 2f3e ee0d 21be
000000a0: 7d11 1abe 63e9 983d 1201 493e 80bd 2dbe
000000b0: 7ce8 11bd 7bbd 2e3d 1b90 1b3e 040d d4bd
000000c0: e98a fcbd 4977 0d3e abfe 43be 9d38 053c
000000d0: b45b 45bc d755 66be e859 ebbd f22e 673e
000000e0: b323 f03d 066f 22be c2ef 53be bcc8 973d
000000f0: 2440 c73d a412 523e 4977 0a3c b103 81bd
00000100: e0c2 36be 0f4c f3bd 5e36 20be 0188 28bd
00000110: 7c58 903d ef80 3a3e 4704 f2bd cdb7 a9bd
00000120: 37cc 2f3e bda4 30be 64a9 a13d 6614 233b
00000130: 7823 333d 70ae 5f3d 876b 47be 0ee8 97bc
00000140: 3a78 23be 835c 883d 2d98 8cbd 1522 dc3d
00000150: a614 e1bc b2de 67be 011b 2b3e 57dc 1bbe
00000160: 9c51 f83d 0c0b 2e3e e6ec b8bc 8063 84bd
00000170: d2ce 1f3e 14c2 603e 555d 873c b236 1bbe
00000180: 6565 58bd ea38 023e ecac 0ebd 24e1 a7bd
00000190: 652f 2f3e 798d 4f3e d452 0dbd 5e45 19be
000001a0: 2d29 07be 2240 3dbb ff63 5f3d 2dba 7c3c
000001b0: 3f39 0abd b722 be3d 4987 0b3e 12b2 07be
000001c0: cf28 f53c 6ef8 fabc 701f e43d 8ccd 5fbe
000001d0: 0ab3 03bd 2b0a 963d f1eb d9bd 185e 3c3d
000001e0: 1e01 87bd a9d7 1cbb 623f 413e 4b8c 1a3e
000001f0: 5f85 02be 9f3b 333e 69ba 8cbd 2597 4b3e
00000200: 468d babd e2c1 2f3c fa90 4fbe a338 983d
00000210: a855 c2bd 6841 903d 07f3 4d3d 0bb6 1abe
00000220: 965a 3cbe 4a1e 1e3e 4a1e b0bd 7afe e03d
00000230: 6c61 733e 7393 55be 2fe4 10be cbac 61be
00000240: 8253 86be 7569 923d 123a 1cbe a916 42be
00000250: 9397 d6bd 8475 c2bd 2858 1a3e 0bf8 1abe
00000260: 8b58 ac3d 7b37 12be 4f81 193e 3d40 7e3d
00000270: ce68 ecbd 3e12 473d ac5b 5dbd 4452 53be
00000280: 9eec 18be 4d43 23be 74be 53be e32d 483c
00000290: 0127 cf3d ace0 9cbd 925a 0d3e f680 c7bd
000002a0: ff7c 47bd f91f 503e c369 bb3d 07d5 0f3e
000002b0: fa2c f03d 533f 243d 7c4a 52bc 0871 5fbe
000002c0: aa1d 0ebe 8988 1d3e 6442 913d 7375 a33d
000002d0: 2b13 fc3d c7ee 81bd 8b9a 7c3d edad ebbd
000002e0: 8f30 18be d1fc 0dbd 6aa7 13bd b75c cf3d
000002f0: 42c8 11bd f30d 863e bf6c 23be 9b25 33bd
00000300: 8f81 4bbe 9f13 cf3d 26d0 febd 960c 96bd
00000310: 8b6e 043e e362 1b3e 63b4 78bd ade5 9fbc
00000320: c01b 33be 5e43 7ebd d8fb 0fbe 374b b43d
00000330: f6cd 0bbe 0037 0a3e 10a0 483e db4b 833d
00000340: f341 b23d acbc 0cbe 8c17 873d 0fb4 38be
00000350: 9536 153e 981c a03c e86e 483e dbab 903d
00000360: 8798 a93d ff75 d8bd d92f 8fbd 138f a73d
00000370: 6edc 17be 3227 063e a1e0 863d cb7a 97bd
00000380: c4f6 da3d 4b6d 263e 9c11 863d a58c f33d
00000390: e115 77be 86b1 1c3e 93e1 513e 932a df3d
000003a0: 6e26 ce3d bfde bbbd bd68 253e 21be 8fbc
000003b0: b8c4 babd 3158 b3bc 1b0f 863d db6e 85be
000003c0: 8aec 40be 24bb 403e df31 033b 56a6 1f3e
000003d0: 3d6c 353d a0f1 1abd febd 573e 0c9f 423e
000003e0: f69d 49bd d987 e63d 166f 103e af6c 673d
000003f0: e6be b23d 4e54 3e3e 24c4 dbba 087e 803d
0.19007666 0.01962858 0.17885937 0.01665517 0.070729315 0.1666146 0.022878638 0.077437446
0.16443786 0.015208368 0.199413 -0.16062222 0.099105604 -0.1687352 0.11629976 0.1513122
-0.026510011 0.12744895 -0.10308039 0.12179718 0.14322023 0.26788583 -0.037102886 -0.24268936
-0.19425389 -0.082078926 -0.18660854 -0.26402304 0.23513836 0.031254664 -0.13129902 -0.08651714
0.021250365 0.08412468 0.074728966 -0.13188583 -0.03955182 -0.19631328 0.1713614 -0.1572797
-0.15045734 0.0746639 0.19629315 -0.1696682 -0.035622105 0.04266117 0.1519169 -0.10354045
-0.123311825 0.13815035 -0.19140117 0.008131173 -0.0120457895 -0.22493683 -0.11491758 0.22576502
0.11725559 -0.15862665 -0.20696929 0.07411334 0.09729031 0.20514923 0.008451291 -0.06299532
-0.17847776 -0.118797414 -0.1564574 -0.04114533 0.07048127 0.18213247 -0.11817222 -0.0828701
0.17167746 -0.17250343 0.07893637 0.0024883985 0.043734998 0.054609716 -0.19474612 -0.01854327
-0.15963832 0.0665827 -0.06864963 0.10748688 -0.027475666 -0.22643545 0.1670952 -0.15220772
0.12124941 0.16996402 -0.0225739 -0.064642906 0.1560624 0.21949035 0.016523996 -0.15157583
-0.052831072 0.12717023 -0.03483288 -0.08197239 0.17107923 0.20268811 -0.03450282 -0.14967868
-0.13199301 -0.0028877337 0.054538723 0.015425247 -0.033746 0.09283965 0.13625826 -0.13251522
0.029926686 -0.030636039 0.11138809 -0.21855754 -0.032153167 0.07326158 -0.106407054 0.045988172
-0.0659201 -0.0023932254 0.18871835 0.1509258 -0.1274619 0.17503212 -0.068714924 0.19881876
-0.09108977 0.010727378 -0.20270148 0.074326776 -0.09488994 0.07043725 0.050280597 -0.15108506
-0.18393931 0.15441242 -0.08599527 0.109860376 0.23767632 -0.20857029 -0.14149545 -0.22038572
-0.26235586 0.071490206 -0.15256527 -0.18953957 -0.10478129 -0.094950706 0.15072691 -0.15133683
0.08415326 -0.14278977 0.14990734 0.06207298 -0.115434274 0.04860138 -0.054042503 -0.2063685
-0.14934012 -0.15943642 -0.20678121 0.0122179715 0.10114861 -0.0766004 0.13804081 -0.09741394
-0.04870319 0.20324697 0.09151032 0.14046107 0.117273286 0.040099453 -0.012835141 -0.21820462
-0.13878503 0.15384115 0.07092741 0.07981386 0.123083435 -0.06344371 0.06167082 -0.11507783
-0.14862274 -0.034664933 -0.03604833 0.10125106 -0.03559137 0.26182517 -0.15959452 -0.043737035
-0.19873641 0.10111164 -0.12442045 -0.07326619 0.12932794 0.15174441 -0.060718905 -0.019518698
-0.17491055 -0.062075965 -0.14060915 0.088034086 -0.13652787 0.13497543 0.19592309 0.06410953
0.08703985 -0.13743848 0.06596288 -0.18037437 0.14571603 0.019544885 0.19573557 0.07064029
0.082810454 -0.10569381 -0.06991548 0.08181586 -0.14830181 0.1310089 0.06585813 -0.07396468
0.10691598 0.1625263 0.065463275 0.1189206 -0.2412944 0.15302095 0.20496206 0.10896792
0.10065924 -0.09173345 0.16153236 -0.017546715 -0.091195524 -0.021892639 0.0654585 -0.2606114
-0.18840232 0.18821388 0.002001874 0.15590796 0.044292677 -0.037828088 0.2106857 0.19005984
-0.04922291 0.1125638 0.14104876 0.056500133 0.08727817 0.18586847 -0.0016766828 0.062740386

lstm2.weight_hh_l0 f4 [80, 20]
00000000: b247 553d 8854 33be bce0 ac3d 4e24 cebc
00000010: 10bb bd3c d9af 493d 4d3e 0d3e c5ba bebc
00000020: 3068 1a3e a524 b2bd ca4c 57be b286 243e
00000030: fd13 ff3c da9b 693d 1244 8abd edcf 20bc
00000040: 05a7 47be f9c2 eabd 4ec3 f7bd 01fa 553e
00000050: d558 87be f90e f9bd a10f 3f3e e0bc 8bbe
00000060: 8b2a edbd 8aa0 a93d d7f5 85be f53e 27be
00000070: a822 87bd 8352 a4be f39d f3bd 3040 863d
00000080: 1d3e 73bd 8569 7a3d 29bc 9fbd 7375 f8bc
00000090: 3341 d1bd eacb 46bd caed 69be df76 52bd
000000a0: 7fa2 5a3e 351e f8bd 3a2f 58bd bec1 1ebe
000000b0: 313e e83d 87b2 ae3d 1acb ce3b 0390 79be
000000c0: 07e2 833d 0452 4cbe b0d2 333e 0f5d 273e
000000d0: a49c 963d 3970 56bc 1a52 b03b 8914 353c
000000e0: bf68 86bd 4004 1c3d 8c21 113e e25c 2d3e
000000f0: 2636 53bc ac70 9abd aed7 1d3e d849 11be
00000100: 1e78 c03c 650a 133e 83a4 24bd a818 3cbe
00000110: b4e0 363e e90c 393d 4405 2f3d 7a8a 30be
00000120: 1107 08bd 28db 25bd 82a5 4f3e 212a 003e
00000130: 7db3 313e 9304 dfbd f4bc 513e fb20 433e
00000140: 31e7 3abd a274 85bc 6049 25be 0513 963c
00000150: 8c48 5dbe fe50 013e 2045 b43d c414 f23c
00000160: f4aa 04be a1b7 163e fb23 213d 42bc 14be
00000170: 20f8 093e b613 803d 941f 403e fe2c 3a3d
00000180: db7b e8bd f8b9 4cbe fed5 babd 32ad 61be
00000190: 8b69 293d 1fad fcbd b892 32bb 48ba 1fbe
000001a0: c5ed 4bbe aef5 753e 275e c4bd aea9 a83d
000001b0: 3c15 98bc 3816 e83c 14e2 433d d38a 433d
000001c0: c0a5 05bd 27da adbb bb6d 23be 0cde 193e
000001d0: 1197 8abd 82ba 243e 19d3 d7bd 24ec dabc
000001e0: fea6 dabd 1396 fbbd d21e fcbd 49b4 47be
000001f0: 13fb a6bc a7f1 5c3e 1b4b 653d 33c2 53bd
00000200: c61b ccba f39b f43d cd9b b23d f089 273e
00000210: e228 53be b84e a43d b675 183e 35fc fdbd
00000220: 508c a93d 3b5a 0bbe 6db7 65be fd56 9a3d
00000230: f831 3ebe 919f 473e e609 5ebe 74c1 44bc
00000240: d9bf 31be 85bf b4bd 0d8f 9ebc 9d87 073e
00000250: 2b8b 74be 1fc4 423d d547 ce3d 6b5e 183e
00000260: 07f6 103e 2aa6 0bbe 9f20 39bd 7264 2f3d
00000270: f3ed 133e f7f3 df3d dd09 63be e8c3 943d
00000280: 9673 eb3d cae5 c53d 5f04 47be 94f6 0bbe
00000290: 736c 473e d566 17be b00e 813d cb8a 74be
000002a0: bd17 4ebe 8b47 0bbe 6512 10be d5be 0fbe
000002b0: 41aa 063e 2d54 7fbd d7af 203e 2328 c3bd
000002c0: 7786 373d 415e 32bc 689c d5ba c90b 863d
000002d0: ccee e23a c240 13be e954 b6bc 53a6 c3bd
000002e0: 391f 193e aeb1 973d e73a e9bd bac0 2f3e
000002f0: 7d0f 06be 3bb2 a53d 51ed 3a3e b864 553e
00000300: 33f6 86bd f06c 29be 9a4d 1ebe 85d3 9d3d
00000310: b0f8 13be 91e4 993d bd72 773d f9e9 3dbd
00000320: d474 33be 430b a1bd c24b cc3c 00cc 173e
00000330: 029a 61be 53b3 5abe 92cc 5dbe 4db5 e13d
00000340: 0dbe 2bbc 7ca9 6cbe ae97 00bd 84e3 4f3e
00000350: 087b 27bc 3928 4dbd 7339 4ebe 43aa 0a3c
00000360: b1bd 3fbe b7d9 633e fc70 88bd e4db 0e3e
00000370: 10ea 3b3e dc35 283e 82e3 fa3d b2e8 313d
00000380: fc29 223e e0f9 ce3d 17d4 3bbe f71c afbc
00000390: f535 10be 81a2 023d e60d bc3b 125f 05bc
000003a0: 2154 5d3c f93b 6d3d 27ed 92bd b74b 2f3e
000003b0: 6b84 d4bc 624b 1f3e 60ba 10ba 34ea 2a3e
000003c0: 8408 d43c 9aef 55be d81f a3bd a335 2a3e
000003d0: 8d82 37be c2f2 2abd 4625 4d3e 9a52 8abd
000003e0: 7fb2 8e3d ac1b 1c3d 8d9c f0bd 268a 263d
000003f0: 5ef3 693d 5a6b 543c 2e9e 2eb9 6cd0 803c
0.052070327 -0.17512715 0.08441302 -0.025163796 0.023160487 0.049239967 0.13793297 -0.023282418
0.15078807 -0.08698396 -0.21025386 0.16067007 0.03113746 0.057033397 -0.06751265 -0.009815198
-0.19497307 -0.11462969 -0.12097798 0.2089615 -0.2643496 -0.12161059 0.18658306 -0.27292538
-0.1158038 0.082825735 -0.26164123 -0.1633261 -0.06598407 -0.320942 -0.11895361 0.065552115
-0.059385408 0.061135788 -0.077995606 -0.030329442 -0.10217514 -0.04853431 -0.22844616 -0.051382896
0.2135105 -0.121151365 -0.052779414 -0.15503594 0.11339987 0.08530145 0.0063108327 -0.24371342
0.06439596 -0.19953161 0.1756084 0.16344093 0.073540956 -0.013088279 0.005380881 0.011052259
-0.065629475 0.03808999 0.14172953 0.16929963 -0.012891328 -0.07541022 0.15414307 -0.14188325
0.023494776 0.14359434 -0.040195953 -0.1836878 0.17859155 0.045178328 0.04272963 -0.17240325
-0.033209864 -0.040492207 0.2027798 0.12516071 0.17353626 -0.10889544 0.20482236 0.1905555
-0.045630638 -0.016290966 -0.16141272 0.018319616 -0.21609706 0.12628552 0.08802247 0.029550917
-0.12955838 0.14718486 0.039340954 -0.1452494 0.13473558 0.062537596 0.18762046 0.045453064
-0.113517486 -0.19992816 -0.09122847 -0.22038725 0.04136042 -0.12337708 -0.0027248096 -0.15598404
-0.1991492 0.240195 -0.09588271 0.08235489 -0.018564813 0.028330907 0.047823027 0.047739815
-0.032628775 -0.005305547 -0.15959828 0.1502611 -0.06767095 0.16086772 -0.105383106 -0.026723929
-0.106763825 -0.12284484 -0.12310566 -0.19502367 -0.020383393 0.21576558 0.05597983 -0.051698875
-0.0015572242 0.119438075 0.08721123 0.16361213 -0.20621064 0.08022827 0.14888653 -0.1240162
0.082787156 -0.13608639 -0.22433253 0.07536123 -0.18573749 0.19494464 -0.21683463 -0.012009013
-0.1735834 -0.08825592 -0.019355321 0.13235326 -0.23881213 0.047550317 0.100722946 0.14879768
0.14156352 -0.13637605 -0.045197126 0.0428204 0.14446239 0.109352045 -0.22171731 0.07263929
0.11496656 0.096629694 -0.19435261 -0.13668281 0.19474964 -0.14785321 0.063016295 -0.2388107
-0.20126243 -0.1360151 -0.14069517 -0.1403764 0.13150884 -0.062336136 0.15692078 -0.0952914
0.04480597 -0.01088673 -0.0016297223 0.065452166 0.0017313599 -0.14380172 -0.022257285 -0.09553208
0.14953317 0.074069366 -0.11388188 0.17163363 -0.13091846 0.080906354 0.18254592 0.20839202
-0.065899275 -0.16545463 -0.1545929 0.0770636 -0.14450336 0.07514299 0.060412157 -0.04636571
-0.17525035 -0.07863476 0.024938468 0.14823914 -0.22031406 -0.2135747 -0.21660069 0.110209085
-0.010482323 -0.23111528 -0.031394653 0.20301634 -0.010222204 -0.050087187 -0.20139103 0.008463445
-0.18724705 0.2225102 -0.06662175 0.13951069 0.18351007 0.16426796 0.12250425 0.043434806
0.15836328 0.101062536 -0.18342625 -0.021376116 -0.14083083 0.031893257 0.0057389615 -0.008140342
0.013508827 0.057918523 -0.071741395 0.17118727 -0.025942048 0.155561 -0.0005520936 0.16690904
0.025882967 -0.20892182 -0.07965058 0.16622023 -0.17920895 -0.04173542 0.2003375 -0.06754036
0.06967639 0.038112327 -0.1174861 0.040659092 0.05711686 0.012965048 -0.0001665286 0.015724383

lstm2.bias_ih_l0 f4 [80]
00000000: 024c 5cbe 2331 f83d 543c 2bbe cb9d 6d3e
00000010: 6ff1 33be 2bde 353e f5e0 003e e2a5 44bd
00000020: a19a 39be aab5 82bd 76cc 083e 2a78 ad3d
00000030: 8a6a 3d3e 7610 a83d 7758 77bd 92cf f73d
00000040: 21f3 f13c 0c6c 983c 75d8 fdbd 1d50 1fbe
00000050: b4f0 c2bd 3059 313e c475 5a3e c35c d4bd
00000060: 5068 443c 0c1f e9bd c5be 303e 747d 1d3c
00000070: 52ff 263c 4916 823d 9031 28bd 3546 cc3c
00000080: bbe2 7a3d 5780 32be 283e 10be a669 7b3d
00000090: a15b 183e 9bc8 903d ec2a 09be 4009 6c3e
000000a0: 6f7d 00be 0b94 193e 512b 70be 6624 5d3d
000000b0: a9b5 62be a9ab 913d c714 21be 182d 64be
000000c0: db69 513e afd7 4cbe c609 0c3e 5cab dbbd
000000d0: 7d22 19bd 8499 65bd b2bc 8a3d cbe7 cd3d
000000e0: d992 1fbe 8e24 a83d 7f60 cabd 51cc 83be
000000f0: a91a 463e 764e b63d d1e3 f4bd 6b50 343e
00000100: 11aa bb3d 306f 593e af8f 223e 6be6 01be
00000110: 8b96 163e 8734 83bd 5ebf 263e 0fa7 3f3b
00000120: 58ee 0c3e 5c7d b73d a4f5 cbbd 3e0b 883d
00000130: e775 22be 283c 04be 2b66 debd 38d5 663e
-0.2151337 0.12118747 -0.16722232 0.23204724 -0.17572568 0.17760532 0.12585814 -0.04800976
-0.18125392 -0.06382306 0.13359246 0.08470185 0.18497673 0.08206265 -0.0603871 0.12100138
0.029534878 0.018606208 -0.123948015 -0.15557905 -0.09518567 0.17319179 0.21333987 -0.103692554
0.011987761 -0.11382875 0.17260273 0.00961243 0.010192709 0.06351907 -0.04106289 0.024935821
0.061251383 -0.1743177 -0.1408621 0.06138005 0.14878704 0.070695125 -0.1339528 0.23050404
-0.12547849 0.1499788 -0.23454024 0.05398979 -0.2213961 0.0711282 -0.15730582 -0.22282827
0.20450537 -0.20004152 0.13675603 -0.107260436 -0.037386406 -0.056054607 0.06774272 0.100539766
-0.15583362 0.08210097 -0.098816864 -0.2574182 0.19346108 0.08901684 -0.11957515 0.17608802
0.09163297 0.21233821 0.15875123 -0.12685554 0.14705865 -0.06406503 0.16283938 0.0029243862
0.13762796 0.08959457 -0.099589616 0.06642769 -0.15865289 -0.12913573 -0.10859331 0.22542274

lstm2.bias_hh_l0 f4 [80]
00000000: ec60 43be 918a 643d e683 423e 8917 5e3e
00000010: 379a 12be 71e7 433e 7abf 3e3e b569 38be
00000020: 4d66 283e ae44 acbd 170e 16bd ad30 1d3c
00000030: 9393 993d 9331 7cbd 2583 6e3e 5163 0a3e
00000040: 11fe d1bd 0e6c 283e 4396 d83d 5d55 543e
00000050: 9172 183e f47e 6e3e 861a 333e 1710 2b3e
00000060: f1cb 3f3e 74ac 573e fb69 adbd fe8c 15be
00000070: 0c55 0d3e 68f3 183e 3669 22be e829 5cbe
00000080: 8215 efbd 73cb 093e dc18 07bd eb48 363e
00000090: 5ba3 29be b477 45be a2c6 593c 23b3 a93c
000000a0: c017 a9bc 9a42 f03d 683a bebd cc70 a03b
000000b0: a14d e33b 650d c3bd b399 61be 2d30 8abd
000000c0: 3c98 fabd f290 823d a041 5e3e fdd0 553e
000000d0: 5d4b 853d 2fe8 0ebe 6f38 ddbc 0b1c cd3d
000000e0: f46d 62bd 2856 333e 50e6 873c 1c53 813d
000000f0: 4d68 e8bb 4fe3 463d f762 4ebe 2172 613e
00000100: 0929 fdbd e94a 55bd 5d3b 42be 31f3 75bd
00000110: ae66 003e eeef 403e ab43 2d3b 6d9d c8bc
00000120: 8252 9f3d f0f9 38be 5704 453e 67ba a8bd
00000130: be59 4f3c 55ff 4bbd bfed 1d3e 706d 903c
-0.19079942 0.05579621 0.18995628 0.21688665 -0.14316641 0.19131257 0.1862773 -0.18009074
0.16445275 -0.08411537 -0.03663453 0.009594125 0.07498851 -0.061570715 0.23292215 0.13514449
-0.102535374 0.1644747 0.10575535 0.20735689 0.14887454 0.23290616 0.17490587 0.16705357
0.18730141 0.2106188 -0.0846748 -0.14604566 0.13801974 0.14936602 -0.15860447 -0.21500361
-0.11674024 0.13456516 -0.032982692 0.17801253 -0.16566221 -0.19283944 0.013291987 0.020715302
-0.020641208 0.11731453 -0.09288484 0.004896259 0.0069367443 -0.09524039 -0.22031288 -0.0674747
-0.12236068 0.063753024 0.21704721 0.20880504 0.06508515 -0.13955759 -0.027004449 0.100151144
-0.05528064 0.17513335 0.016589314 0.0631468 -0.0070925117 0.048556622 -0.2015494 0.22016193
-0.123613425 -0.052073393 -0.18967958 -0.06004638 0.12539169 0.18841526 0.0026438038 -0.024489129
0.07779409 -0.18064094 0.19239937 -0.082386784 0.012655674 -0.04980405 0.15422724 0.017630309
