models/predictor.pth (torch, 22055 bytes, 6 tensors)

weight_ih_l0 f4 [128, 2]
000000 05 d7 ec 3d 95 5f 68 3c bf cf 0f 3d 00 d4 56 bd
       0.11564449 0.014182945 0.03511023 -0.052448273
000010 2a 78 40 3c a5 b3 eb 3d 41 fb cc bd 26 20 e6 bd
       0.011747399 0.11508874 -0.100088604 -0.112366006
000020 43 a3 ca 3d e1 8e 25 be de 20 68 be 81 a7 6e be
       0.09894421 -0.16167785 -0.22668788 -0.23306085
000030 8c 75 1a be 5f 21 a6 bd f4 be e8 3d 5f 9d 0a 3d
       -0.15083903 -0.08111834 0.113645464 0.033841487
000040 b8 9f 92 3d dd f3 99 bc 90 f7 65 3d cd df 36 3e
       0.0715937 -0.01879304 0.056144297 0.1785881
000050 f4 94 5a bd 38 58 5b 3e 59 81 32 be 40 15 e4 bd
       -0.05336471 0.21420372 -0.17432155 -0.111368656
000060 43 65 47 3e 0a 34 54 be c9 fa 22 be 07 5a 02 bd
       0.19472222 -0.20722976 -0.1591598 -0.031824138
000070 3c 0e e5 3d a9 72 11 3d 13 ff 1a be 18 ca b0 3d
       0.111843556 0.03550974 -0.15136366 0.08632296
000080 e6 cb fb 3d ab 2b 90 bc 52 11 61 bd 26 c6 14 3c
       0.1229475 -0.017598948 -0.05494816 0.009080445
000090 03 84 ae 3d 38 2d 6d 3e f4 9e cc 3c 01 ea cd bb
       0.08521273 0.23161781 0.024978139 -0.006283999
0000a0 b5 74 53 3e 85 09 7d 3e 6e df 84 be 31 e9 57 3e
       0.20649989 0.24710663 -0.25951713 0.21085049
0000b0 57 20 3c bd 2f 39 1a be b0 1f dc bd 1c 2c 49 be
       -0.04592928 -0.15060876 -0.107482314 -0.19645733
0000c0 21 c6 4b be 61 06 4c 3e 49 e2 e6 bc 59 72 3a 3e
       -0.19899799 0.19924308 -0.028184073 0.18207683
0000d0 3f 2b 03 be 39 63 8a bd c3 04 67 3d 22 09 0d 3c
       -0.12809466 -0.067572065 0.056401026 0.008608134
0000e0 43 51 54 3e 8c 78 bc 3d 93 8b c2 bc 18 44 e4 3d
       0.20734124 0.0920268 -0.023748195 0.111458
0000f0 0b 57 89 bc 9d 93 21 3e 14 d6 f7 3c 4e bf 82 be
       -0.016765138 0.15778966 0.030253448 -0.2553658
000100 f2 e4 64 bd 1b ea 3e be cd ed 0d 3e dd 2b 03 3e
       -0.0558824 -0.18643992 0.13860245 0.12809701
000110 95 99 a9 3d 1a e4 90 bd 31 9d 93 3d 8c f7 5e 3d
       0.082812466 -0.07074757 0.07207716 0.054435298
000120 f9 86 2d 3e f5 51 27 3d 4a 2f 09 be c5 8b 6c 3c
       0.16946019 0.040849645 -0.13396946 0.0144376205
000130 80 6a c9 3d 1a 2f 52 be ad 74 51 be b4 02 e3 3d
       0.098347664 -0.2052578 -0.20454665 0.110845
000140 50 ab 4c 3e f3 12 e5 bd c4 7a 95 3d 00 50 a3 3d
       0.19987226 -0.11185255 0.07298806 0.07974243
000150 f8 d1 0f 3c e6 96 f0 3c 82 7a 6f 3c b3 67 80 bd
       0.008778088 0.029368829 0.0146166105 -0.06269779
000160 cb 82 14 3e b5 16 38 bd dd 4f 48 bd 56 53 01 3e
       0.14503019 -0.04494353 -0.04890429 0.12629446
000170 3b 85 d0 bd 90 29 11 3e cc 83 35 be b5 4c 09 be
       -0.10181662 0.14176011 -0.17726058 -0.13408168
000180 73 a4 5f 3d 48 7f bb 3d ea f1 19 3e 8e 37 a6 bd
       0.05460019 0.09155136 0.15033689 -0.08116065
000190 79 40 48 3e a7 21 40 3d 49 53 0b be 54 3c 57 3c
       0.19555844 0.046907093 -0.1360599 0.013136942
0001a0 67 fa 6b 3d 62 14 41 3e e2 61 73 be df 3c 80 3e
       0.05761185 0.18855432 -0.23767808 0.2504644
0001b0 55 fa f4 3d 0c 3f 53 3d 5b bf 8d bd 85 51 12 be
       0.119618095 0.051573798 -0.06921264 -0.1428891
0001c0 7f 38 44 be d4 29 0c 3e ae cb 91 3c fa 8d 2a 3e
       -0.19162177 0.13687831 0.017797317 0.16655722
0001d0 cf 23 e7 bd cc e6 1a be 24 3c 15 3d 47 62 5d 3e
       -0.11286127 -0.15127105 0.036434308 0.21619521
0001e0 17 13 6d bd 47 ac c9 3d 8c 8b 7b 3b ea 17 61 3e
       -0.057879534 0.098473124 0.0038382737 0.21981779
0001f0 f1 c9 e7 3d 89 f0 21 3e 0a 5f db bd 7c 39 15 bd
       0.11317814 0.15814413 -0.10711487 -0.036431774
000200 46 82 de 3b 33 d0 ed 3d ba da c6 bd 2b 5e 77 bb
       0.006790432 0.116119765 -0.097096875 -0.0037745337
000210 60 2d 08 3e 15 5d 48 3d 1b 5c 26 bc b4 35 a8 bc
       0.13298559 0.048916895 -0.010153796 -0.02053342
000220 0a 78 28 bd 8b 23 d9 3d c4 5e 07 be da 02 9c 3c
       -0.041130103 0.106024824 -0.13219744 0.019044328
000230 5d a8 cc 3d 53 56 fb 3d 54 03 df bc 31 79 9d 3d
       0.0999305 0.122723244 -0.027223267 0.07689131
000240 c7 0b 2c 3d 20 9f 03 3e 9e e9 17 be 17 ce 70 3d
       0.04200342 0.1285367 -0.14835212 0.058790293
000250 71 96 83 bc 6f fb 3c 3e de 71 32 be e4 7d 96 bc
       -0.016062947 0.1845529 -0.1742625 -0.018370576
000260 35 1e 46 be 6b 67 11 3e ad 8a 38 be d0 68 4c be
       -0.1934746 0.14199607 -0.1802165 -0.19961858
000270 89 56 82 3d 7c 5e 51 3e 30 1a a0 bd 56 e4 05 be
       0.063641615 0.20446199 -0.07817495 -0.13075384
000280 99 c3 9e 3d d3 b7 6b be 44 05 74 3e 9d ba 39 be
       0.07752151 -0.23019342 0.23830134 -0.18137594
000290 f2 c4 61 3c 36 ce 0e be 11 ca aa bd 53 6a 94 bd
       0.013779866 -0.1394585 -0.08339322 -0.07246842
0002a0 cf 5b 8d 3d 27 f7 00 3e 8d 3e 49 3e 74 76 5d 3d
       0.06902277 0.12594281 0.19652767 0.054068044
0002b0 52 08 2c 3e b1 b7 50 be 5c 8c 5b 3e 11 62 14 bd
       0.16800049 -0.20382573 0.21440262 -0.036226336
0002c0 ca c7 e7 3d 06 1a bd 3d 2e 94 e6 3d f6 32 e9 3b
       0.113174036 0.09233479 0.11258732 0.0071166707
0002d0 db b6 52 bd d1 f1 9d 3d 19 33 c7 3d d4 e6 75 3e
       -0.051443916 0.077121384 0.09726543 0.24013835
0002e0 24 74 c8 bc 61 4c 0f 3e b7 16 01 3e 3e f2 7e 3d
       -0.024469443 0.1399398 0.12606321 0.06224274
0002f0 f1 e7 39 bd 25 aa 67 3d 79 b2 bc 3d 7e 03 ae 3c
       -0.045387212 0.056558747 0.092137285 0.0212419
000300 34 80 1b 3e 02 08 5b bd f8 43 0b 3e 25 2e 1f 3e
       0.15185624 -0.053474434 0.13600147 0.15544946
000310 e1 2a 12 bd d7 d4 b0 3d ea 44 55 3d 0a 16 b2 bd
       -0.035685424 0.08634346 0.052067675 -0.0869561
000320 65 3d 0f 3e 92 a0 d8 bc f2 72 73 be 81 c7 e9 bc
       0.13988264 -0.026443753 -0.23774317 -0.028537514
000330 d6 d2 64 be b7 5f 97 bd 46 f1 b9 3d df cf bd bd
       -0.22346053 -0.07391303 0.090792224 -0.09268164
000340 e5 2f 45 bd 6c 97 17 be f2 f1 00 3e f1 66 89 bc
       -0.04814138 -0.14803857 0.12592295 -0.01677272
000350 1a 24 6a 3e 6f bf bf 3d 1e c2 ca bd e0 70 4d 3c
       0.22865334 0.09362685 -0.09900306 0.0125391185
000360 c4 e5 09 3e c6 77 08 be c4 65 04 be 1b 50 98 bd
       0.13466555 -0.1332694 -0.12929446 -0.07437154
000370 50 8d 17 3e c3 5c 19 3e 34 6c 86 be 7b c5 0b 3e
       0.148 0.14976792 -0.26254427 0.13649552
000380 fd 97 d5 3c 08 ab 41 be 08 e2 97 3d 49 6f 04 3d
       0.02607345 -0.189129 0.07416159 0.032332692
000390 e9 d6 56 3e de 84 3e 3b 5c c0 41 bd 65 9f 34 be
       0.20980419 0.0029070894 -0.04730259 -0.17638929
0003a0 cb 22 65 3d 63 8e 97 bb c7 08 40 be 8d 4d 5b 3e
       0.055941384 -0.004625128 -0.18753348 0.21416302
0003b0 8e e0 c2 3c de ea 66 be 07 fb 55 be 50 55 b8 bd
       0.023788717 -0.22550532 -0.2089654 -0.09000647
0003c0 a7 a0 f9 bd d6 16 7a 3e 0d 61 2c 3e f6 ed 9b 3d
       -0.12188845 0.24422774 0.16833897 0.07613747
0003d0 fa 87 19 be 46 cb 7f be d5 b0 c7 bc 5f 1d 92 bd
       -0.14993277 -0.24979886 -0.024376312 -0.07134508
0003e0 5d 98 14 bd 55 27 a5 3d bd 59 03 3e fe d9 06 3e
       -0.036278117 0.080641426 0.12827201 0.13169095
0003f0 0c 28 ac bc 84 03 00 3e e8 ce 2d bd ab 63 1a be
       -0.02101519 0.12501341 -0.04243365 -0.15077083

weight_hh_l0 f4 [128, 32]
000000 f1 ab 03 be 73 41 86 3d 25 3e de bb dd 27 59 be
       -0.12858559 0.06555452 -0.0067823105 -0.21206613
000010 56 0d b2 bd 5c 46 ad bc c2 df b9 3c f8 a1 e5 bd
       -0.0869395 -0.021151714 0.022689704 -0.11212534
000020 ab 2b 0c bd 29 ad d5 bc b0 e8 25 bd 13 68 3a 3c
       -0.034221333 -0.026083546 -0.04050511 0.011377352
000030 bf 69 66 be f0 2d 59 3d 69 b5 14 3e c9 8b 16 3d
       -0.22501276 0.053022325 0.14522327 0.036754403
000040 fb 9d 3c 3e e6 ea 01 3b 7d 9a e6 3d dd 76 85 3e
       0.1841964 0.0019823848 0.11259935 0.26067248
000050 f1 95 2d 3e 94 3a 63 3d b1 83 2d 3e 86 7b 3b be
       0.1695173 0.055475786 0.16944768 -0.18308839
000060 15 71 bd bd 8a 21 3c 3e 98 42 80 be 91 b2 66 be
       -0.09250084 0.18372169 -0.25050807 -0.22529055
000070 23 fc 5b be 77 34 c8 bd 03 d9 72 3d 98 11 04 be
       -0.21482901 -0.09775632 0.05928899 -0.12897336
000080 b9 0f 99 bd c8 62 c3 3d b4 65 57 bd e3 86 1a be
       -0.07473702 0.095403254 -0.052587226 -0.15090518
000090 84 63 b8 3d 2d 0b 7c 3d c4 56 c4 3d 59 4d da 3d
       0.09003356 0.061534096 0.09586862 0.10659284
0000a0 92 58 c9 3d 2b 0f 74 be 41 86 31 3e 86 6c 8f 3d
       0.098313466 -0.23833911 0.1733637 0.07003121
0000b0 a9 df fb bc c0 b6 82 3c 11 c1 29 3e 5b 46 95 bd
       -0.030746298 0.015956283 0.16577555 -0.0728881
0000c0 eb f5 45 bc c7 23 46 3e 63 11 85 3c 2d 34 d1 bc
       -0.012082557 0.19349585 0.016243642 -0.025537575
0000d0 28 2a a8 bd 30 56 51 bd a5 47 7b bc ae 4d e7 bd
       -0.08211166 -0.051107585 -0.015336906 -0.11294113
0000e0 2d 3d 79 be 60 7b 84 3c e4 83 1d be eb 70 8f 3d
       -0.24339743 0.016172111 -0.15382344 0.07003959
0000f0 15 7c 61 3e 2b 95 37 3e 93 ec 63 be a2 a1 38 be
       0.2201999 0.17927997 -0.22258215 -0.18030408
000100 fd 1b d6 bd 49 2c e6 bd 72 26 46 bd 83 87 b6 bd
       -0.10454557 -0.112389155 -0.048376508 -0.089125656
000110 80 28 ef bd af 96 96 bc 84 75 ef 3d e5 9b a8 bd
       -0.11677647 -0.018382398 0.11692336 -0.082328595
000120 5f aa 7a bd 50 48 3c be ee e8 83 3d c5 25 cb bd
       -0.061197635 -0.1838696 0.06440912 -0.09919313
000130 4c 58 49 be b8 13 80 3d 14 0b 13 3e 94 8b 0e be
       -0.19662589 0.06253761 0.14359695 -0.13920432
000140 c0 f5 00 3d 1d f2 92 bd 26 d9 28 bd f1 28 16 3e
       0.031484365 -0.07175086 -0.041222714 0.14664055
000150 88 a3 e2 bd 14 a7 cb bd be b9 13 3e 7d 9f 54 3e
       -0.11066347 -0.09943977 0.14426324 0.20763965
000160 02 4a 12 be 34 2f 40 3e 2b be b5 bd 08 31 42 3c
       -0.14286044 0.18768007 -0.08874162 0.01185251
000170 77 92 2c 3e 86 cd ff bd 4f b2 04 3e 19 52 43 be
       0.16852747 -0.12490372 0.12958644 -0.19074287
000180 d0 7d 8b bc 4e a7 19 be 64 4c ef 3c 13 27 1a 3d
       -0.017027766 -0.15005228 0.02921123 0.03763492
000190 a7 bf ab bd e2 66 1b bc 0f 51 c0 bd 58 e7 76 bd
       -0.08386164 -0.009484978 -0.09390461 -0.06027922
0001a0 11 27 e2 bd c0 fc 70 be 5a ee ed bc 34 2f 05 bd
       -0.110426076 -0.23533916 -0.029044319 -0.03251572
0001b0 81 7b 48 3d 7e be 11 bc 26 62 9d 3c 97 66 95 3d
       0.048945908 -0.0088955145 0.01921184 0.07294958
0001c0 60 72 c6 bd 7c 7e 80 3c cc 18 5b 3d 3b 86 e5 bd
       -0.09689784 0.015685312 0.053490445 -0.11207243
0001d0 d8 13 3f 3d b3 32 95 bc 76 da db 3d cf 72 e2 3c
       0.046649784 -0.018212652 0.107350275 0.027642636
0001e0 55 2b ff 3d ab 64 d8 3d 32 a8 54 bd 7d 74 f0 3d
       0.12459437 0.10566076 -0.051918216 0.117409684
0001f0 7d ba db 3d ab 40 a6 bd a1 a9 0d bd 96 15 0d be
       0.10728929 -0.08117803 -0.0345856 -0.13777766
000200 49 c8 35 3c 18 70 90 bd 80 44 21 3e bb 81 db 3d
       0.011095115 -0.0705263 0.15748787 0.107181035
000210 f7 53 49 3d 43 8c e6 bc 26 d2 35 3e 77 01 ed bc
       0.04915234 -0.028143054 0.17755947 -0.028931363
000220 1f bb 2c be 47 41 30 be cc b9 0b be 8c 3e 7d bb
       -0.16868256 -0.17212401 -0.13645095 -0.0038642017
000230 a5 ab 5a 3d 7c 34 41 be c7 ba 6d bd dc 28 3c 3e
       0.05338635 -0.18867677 -0.058039453 0.18374962
000240 4c ff 37 3e 88 04 f2 3c 3f 25 37 be 20 20 78 bd
       0.17968482 0.029543176 -0.17885302 -0.06057751
000250 94 59 e1 bd 38 7e 4e 3e 51 c5 3a 3d bc c5 14 bc
       -0.11003414 0.20165336 0.04559833 -0.009080347
000260 f5 e1 b2 3d ed 12 33 bc ec 21 d8 ba 71 64 0b bd
       0.08734504 -0.010929805 -0.0016489602 -0.034031335
000270 99 0a 10 bd c9 e1 59 bd 29 35 3c 3d 05 e3 b7 3d
       -0.035166357 -0.05319384 0.045949135 0.089788474
000280 60 1e 4f be a8 2b 94 3d c0 d0 90 bc e2 d3 ec bd
       -0.20226431 0.07234889 -0.017677665 -0.11563851
000290 61 aa f9 bd 07 f3 40 3d bf 1d 89 3d 70 23 33 bd
       -0.121907 0.04710677 0.06695127 -0.043734968
0002a0 fb 0f f9 3b 83 3b 25 be 74 f5 fe bc 34 0e 2e 3d
       0.007600782 -0.16135983 -0.0311229 0.042494014
0002b0 f0 f7 d3 bb 97 f4 42 3d ee 62 18 bd 25 19 bd 3d
       -0.0064687654 0.04759654 -0.03720372 0.092333116
0002c0 76 a9 73 bc 20 f4 4e 3c c1 ca b3 bd 29 d7 95 bb
       -0.014871946 0.012631446 -0.087789066 -0.004572768
0002d0 33 b3 2c bd cc c0 97 3d 87 89 51 3e 91 5e 16 be
       -0.042163085 0.0740982 0.20462619 -0.14684512
0002e0 51 bc 3a be 22 46 b4 bd ae 7d 48 bd 69 af 45 bd
       -0.182359 -0.08802439 -0.048947982 -0.048262987
0002f0 84 02 ff 3d 9a a3 f5 3d f0 93 1b be b1 33 97 3c
       0.12451652 0.11994095 -0.15193152 0.018457266
000300 e4 77 d5 3d 1f b9 18 be 7d 1a 9b bd 3b 3c e8 3d
       0.10423258 -0.14914368 -0.075734116 0.11339613
000310 a7 59 6f bd 17 64 99 3d 26 e6 12 be 1d 55 04 be
       -0.05843511 0.07489794 -0.14345607 -0.12923093
000320 48 cf a4 3d e5 53 61 be b5 5d 07 3e fc 1b 3a 3c
       0.08047348 -0.2200466 0.1321934 0.011359211
000330 9c 0c 22 be b9 4d da 3d 98 4f 13 3e 64 16 73 bd
       -0.15825123 0.10659356 0.14385831 -0.059347525
000340 0d 27 b3 3d 0d d2 d4 3d aa 68 29 3c cd 5d 39 bd
       0.08747683 0.103916265 0.010339895 -0.04525547
000350 71 48 cd 3d 34 a0 c9 39 87 5d 50 3e 5f f1 c0 bc
       0.10023583 0.00038457068 0.20348178 -0.023552595
000360 e1 19 31 be 79 00 6f 3d c7 e9 64 bd bc 90 6a bc
       -0.17295028 0.05835006 -0.05588701 -0.014316734
000370 e0 76 d1 3c 4d 99 1b 3e 32 ce 98 bd d0 47 2a 3d
       0.02556938 0.15195198 -0.07461204 0.041572392
000380 8c 11 2a be 12 ad cf bd 43 aa f4 bd 3c af 35 3c
       -0.16608256 -0.101404324 -0.11946537 0.011089142
000390 a5 c8 13 3b 43 43 9c 3d 86 9f ad bd 7a 3b 7b 3d
       0.0022550013 0.07630017 -0.08477692 0.06133602
0003a0 f1 17 51 be d8 e2 b1 bd 67 03 18 3e 27 0b 2b 3e
       -0.20419289 -0.08685845 0.14845048 0.16703473
0003b0 de 92 22 b9 b8 7c 1f 3e d5 08 df 3c af d1 51 3e
       -0.00015504236 0.1557492 0.027225891 0.20490144
0003c0 2c be 13 3e dd ad 28 3e d5 06 3f be 3a 64 62 bd
       0.14428014 0.16472574 -0.1865495 -0.055271365
0003d0 d8 f6 dc 3d b4 e2 73 3d 77 4f 1f 3e b7 7b 37 bd
       0.10789269 0.059542373 0.15557657 -0.044795718
0003e0 bf 7b 02 be 54 16 dd bd 6d 5b bf bc bc 55 91 bd
       -0.12742518 -0.107952744 -0.023359025 -0.07096431
0003f0 67 c6 02 3e 04 44 37 3d 4d ab 56 bd de 38 46 bc
       0.12770997 0.0447426 -0.05240946 -0.012098519

bias_ih_l0 f4 [128]
000000 92 41 24 3e 7e c4 5a 3e 89 ea 07 be 72 1b 2e 3d
       0.16040638 0.21364018 -0.13273062 0.042506643
000010 36 ac 44 3d 05 41 18 3e ab a6 8a 3d 41 79 1c 3e
       0.048015796 0.14868553 0.06770071 0.1528063
000020 25 81 86 3d d0 0c 48 bc c3 79 5d 3d 75 f6 eb bc
       0.06567601 -0.012210086 0.0540712 -0.028804043
000030 91 ec 05 bd 5c 5d 29 3e d6 e5 e2 bb 21 e7 06 3d
       -0.03269631 0.1653952 -0.0069243712 0.032935265
000040 0f f3 57 3d 75 91 35 3e 37 0b e7 3d db a6 3c 3e
       0.052722033 0.17731269 0.11281436 0.18423025
000050 bb 36 ff bd c6 9f 5d 3e 76 6a 27 3e a1 ca 60 3d
       -0.12461611 0.2164298 0.16349205 0.054880742
000060 fd be 05 be 39 b7 5b 3e 66 b3 1c 3d 2d ef 5b 3e
       -0.13061137 0.21456613 0.038257025 0.21477957
000070 35 26 04 bd b9 04 1e 3d 19 e4 f4 bc cf 82 48 3d
       -0.032263 0.038578723 -0.029893922 0.048952874
000080 97 9d 85 bd 32 b9 0c 3e 6d e0 e0 bd 38 e6 77 3c
       -0.065241985 0.13742521 -0.10980306 0.015130572
000090 53 da 6a bd 95 d2 51 3e 6a 79 a1 3d b1 53 ba bd
       -0.057337116 0.20490487 0.07884486 -0.09097994
0000a0 b9 ad ca 3c e0 9f 4c bd ee da 03 bd b8 6f c6 bd
       0.02474104 -0.049957156 -0.03219121 -0.096892774
0000b0 c7 48 5e 3c d2 0a 53 3c 6b df f0 3d 08 50 ef bd
       0.013567156 0.012880998 0.117613636 -0.116851866
0000c0 1b cb 3b bd 48 6b 38 3d 16 36 95 bd 0a 75 99 ba
       -0.045847993 0.045024186 -0.07285707 -0.0011707854
0000d0 f6 3a b8 3d 42 b5 8b 3d 20 97 2a 3d c9 fe 61 3d
       0.08995621 0.068216816 0.04164803 0.055174623
0000e0 47 1e ff 3c 81 cd b1 3d ba 87 98 bd d3 24 e0 bc
       0.031142367 0.08681775 -0.07447763 -0.02736131
0000f0 0a c5 01 be a7 c9 62 3e ac 29 04 bd 68 86 b9 bc
       -0.1267282 0.22147237 -0.032266304 -0.022647098
000100 ab a7 d0 bd 76 a6 dc 3d a1 b8 1e 3d 98 94 cf 3d
       -0.1018823 0.107739374 0.038750295 0.10135764
000110 85 bf d6 bd 92 f9 0a 3d 14 dc 24 be ef a7 0f 3e
       -0.10485748 0.033929415 -0.16099578 0.14028905
000120 07 25 46 bd 3d 7c 11 be e5 49 7a bd e0 a1 04 3e
       -0.048375156 -0.1420755 -0.061105628 0.12952375
000130 5d a1 2c bc ac 38 c7 3d 39 2a 3a bd af 01 51 ba
       -0.010536519 0.09727606 -0.045450423 -0.0007972968
000140 fb c0 92 3d 4f 04 c7 3d bf 9a 40 be d8 19 b1 3b
       0.07165714 0.09717619 -0.18809031 0.005404692
000150 44 26 b6 3d bf c9 af 3c 0f f6 39 3c db 37 a0 bc
       0.08894017 0.021458505 0.011350169 -0.019557884
000160 3c 58 15 3d a4 10 21 3d 77 06 2d 3e ed ea 8c 3d
       0.0364611 0.03932251 0.16896997 0.06880746
000170 15 91 c1 3d 0a 81 6d 3d c7 2d 9d bd f7 f2 18 be
       0.094515 0.05798439 -0.07674747 -0.14936434
000180 be 69 43 3e 53 87 44 3e 99 b7 47 bd 01 aa 10 3e
       0.19083306 0.19192247 -0.048759077 0.14127351
000190 81 b8 21 3e e4 50 fb 3d 0f 21 16 3e a7 dc 98 3d
       0.15793039 0.12271288 0.14661048 0.07463961
0001a0 5b df 29 3e 6b 3a bf 3d 79 f6 e6 bc 72 28 96 bd
       0.1658911 0.09337314 -0.0281937 -0.07331933
0001b0 39 43 91 bd 27 07 b9 bd f4 40 65 3d b2 13 55 3e
       -0.070929 -0.09034567 0.055970147 0.20808294
0001c0 74 3d 2c 3e 72 6d fd 3c 26 64 d4 3c 46 f0 29 3e
       0.16820318 0.030935977 0.02592666 0.16595563
0001d0 8a 46 db 3c 79 d3 5c 3d 5b df 04 3e 64 3f 9d bd
       0.026767034 0.053912614 0.12975828 -0.076781064
0001e0 42 85 18 3e 6f 4a 0b 3e 01 ce 8c 3b 61 e1 d2 3d
       0.14894584 0.13602613 0.0042970185 0.10296894
0001f0 36 1f 1a 3d da 01 4d 3e e9 54 c6 bd d4 bb b4 3d
       0.03762742 0.20020238 -0.09684164 0.08824888

bias_hh_l0 f4 [128]
000000 91 e0 2c 3e 50 c7 fd 3d c1 70 4b bd 04 31 1d 3e
       0.1688254 0.123915315 -0.049668077 0.15350729
000010 93 7e d4 bd f1 10 13 3d 85 1e 18 3e 72 bc 34 3e
       -0.103757046 0.03590483 0.14855392 0.17650011
000020 37 6c be 3d ed 7e b4 bd 5a b7 ac 3c b2 3e 00 bc
       0.09297984 -0.08813272 0.021083523 -0.007827448
000030 c7 c5 30 3e fc 05 e6 bd 5a 57 14 3e 3c ba 8d bd
       0.17262946 -0.1123161 0.14486447 -0.06920287
000040 8b f7 bf 3d f8 c2 ee 3d 64 95 6a bd 42 42 46 bd
       0.09373387 0.11658281 -0.057271376 -0.048403032
000050 62 f1 9c bd f0 91 69 3e be 87 ff 3b 39 85 8e 3d
       -0.076632276 0.22809577 0.007798164 0.06959004
000060 2f 19 aa 3d af 2d e2 bd 63 ab 93 3d e2 6a 03 3e
       0.08305585 -0.1104387 0.07210424 0.12833741
000070 28 25 b3 bc 4e a5 a1 bd ab 8b 3f 3e 74 85 f2 3d
       -0.021868303 -0.078928575 0.18705623 0.118418604
000080 7d cc 27 3e c6 c7 64 3e 25 70 26 bd c8 48 18 3e
       0.163866 0.22341833 -0.040634293 0.14871514
000090 26 06 02 3e 47 42 a0 bc 45 69 3f 3d f6 73 fb 3c
       0.12697658 -0.019562854 0.046731252 0.030694943
0000a0 2c 26 d3 3d 55 e8 5c 3b bb c1 4e 3e 72 bb b3 3d
       0.10310015 0.0033707817 0.2019109 0.08775987
0000b0 d2 18 ad bd 27 52 d8 bb 7c 7d db 3d 8b dd 28 3e
       -0.08452 -0.00660159 0.107172936 0.16490762
0000c0 0b 78 0e bd 12 f3 d4 3d b0 e2 8e bd d4 1b 48 3e
       -0.03478245 0.103979245 -0.06976831 0.19541866
0000d0 04 1e e2 3d 50 be 07 3e 9c 03 aa bd cf e3 2a 3c
       0.11040881 0.13256192 -0.0830147 0.01043029
0000e0 56 f9 32 3e 7e 98 41 3d 67 c9 58 bd 66 b1 39 bd
       0.17477927 0.04726457 -0.052926447 -0.045335196
0000f0 89 32 fd 3d 1d e7 38 3e 19 28 36 3e 9d fe 9a 3d
       0.123631544 0.18056913 0.17788734 0.07568095
000100 4a 2a 6a bd d8 80 f6 bd 78 74 24 3e dc 4f 43 be
       -0.057169236 -0.12036294 0.16060054 -0.19073433
000110 bc 75 1f be 24 82 82 3d 93 38 78 3d e9 c7 20 be
       -0.15572256 0.063724786 0.06060083 -0.1570126
000120 f9 fe 93 bd c4 5d 81 3d 1d 2a f8 3d 9d 91 17 bd
       -0.072263665 0.063167125 0.121174075 -0.037004102
000130 d8 84 44 be ee 5b 83 3b 16 fd 3a 3e b4 fc 40 3d
       -0.19191301 0.0040087616 0.18260607 0.047115996
000140 3b bb 09 3d a6 f0 82 bc 87 9f d3 bd de 90 c1 3b
       0.033625823 -0.01598389 -0.10333162 0.005907162
000150 f9 66 a3 3c 7a 6b 40 be 25 e0 44 3c 27 0f 86 bd
       0.019946562 -0.18790999 0.012016331 -0.06545859
000160 d0 7b 1e be 5f b9 33 3c 27 be 0b be 77 05 37 bd
       -0.15476918 0.010969489 -0.13646756 -0.044682946
000170 04 5c 05 3d fd 61 ba 3d 61 37 b1 3c 43 b3 29 3c
       0.032558456 0.09100721 0.021632852 0.010357681
000180 c6 01 c3 3c 26 26 c0 3d 2e 77 08 3e e8 61 52 3e
       0.023804557 0.09382276 0.13326713 0.20545161
000190 2f d4 51 3e d3 bc c7 3d 19 04 27 3e ec 7f 1f 3d
       0.20491098 0.09752812 0.16310157 0.038940355
0001a0 0f bc e3 3d 05 d5 40 3e b5 5b 14 bd ea 36 a7 bd
       0.11119854 0.1883126 -0.03622027 -0.08164771
0001b0 ce 1b fe 3d b0 6a 4f 3d c3 ed 36 3d a3 f3 15 3e
       0.12407647 0.050638855 0.04466034 0.14643721
0001c0 3e 47 56 3e 1e 7f 3c 3e 72 11 59 3e 26 4e 1a 3e
       0.20925614 0.18407866 0.21198061 0.15068874
0001d0 6b be c3 3d b6 d1 ab bd 76 09 a9 bd 89 e5 3b bc
       0.09557804 -0.083896086 -0.08253758 -0.0114683
0001e0 2a 2e 04 3d df e2 76 3d c7 7a 7f 3d e5 b5 6a 3d
       0.032270588 0.060274955 0.06237295 0.057302374
0001f0 e2 5e 05 be 9f 37 24 3e 59 69 bb bd 5e 78 f0 bc
       -0.13024476 0.16036843 -0.09150953 -0.02935427

weight f4 [2, 32]
000000 6b 94 87 bd 25 ea 58 be d5 87 ab 3d 94 bc 3e be
       -0.06620105 -0.21183069 0.08375517 -0.18626624
000010 a7 01 24 be 42 11 c1 bd 47 7c e0 3d c7 50 2f 3e
       -0.16016255 -0.0942712 0.10961204 0.17120658
000020 68 40 7b bd 32 6f 06 be b2 16 40 3e 86 14 75 be
       -0.06134072 -0.13128355 0.18758658 -0.2393361
000030 27 ab ee bd 5e bf 1a be 7c 35 39 3e 28 46 79 be
       -0.116537385 -0.15112063 0.18086809 -0.24343169
000040 6c 50 01 3e c9 6c 37 3e 06 60 0b be 70 64 82 3d
       0.12628335 0.17912592 -0.13610849 0.06366813
000050 21 5c 48 3e 84 06 64 3e f7 76 ab 3d 18 ad 30 3e
       0.19566394 0.2226811 0.083723 0.1725353
000060 06 4b b7 3d 07 87 47 3e 27 2e 42 3e 49 c7 4b bd
       0.089498565 0.19485103 0.18962918 -0.0497506
000070 22 30 85 3d fd 05 b7 3c 26 96 d9 bd 56 fe 00 be
       0.06503321 0.022341723 -0.10624342 -0.12597021
000080 98 f6 16 3e 44 8c 82 be c5 66 93 bd ee 19 a9 3d
       0.14742506 -0.2549764 -0.07197336 0.08256899
000090 db 6b a7 3d a7 62 4e be 45 b1 de 3d 7e 2b 5a 3e
       0.08174869 -0.2015482 0.10873655 0.21305653
0000a0 29 c6 2d bd 86 09 63 bd 25 38 8e bc 79 62 76 bc
       -0.04242531 -0.055429004 -0.017360756 -0.015038126
0000b0 19 3b c0 3d 22 2b 07 bd 29 8f 4f bd 21 46 ab 3d
       0.09386272 -0.03300012 -0.050673638 0.083629854
0000c0 e7 4a 5e be 01 26 74 be e3 89 11 be 65 4a 3c be
       -0.2170826 -0.23842622 -0.14212756 -0.18387754
0000d0 7a 5e 5d 3d a8 fe 21 be a9 18 36 be 79 75 89 bd
       0.054045178 -0.158198 -0.17782845 -0.06711859
0000e0 01 90 02 be 88 4f 33 bd 07 c1 34 3d 6b e5 20 3e
       -0.12750246 -0.04377702 0.044129398 0.15712516
0000f0 e4 8d a0 bc 63 d0 14 3e be a2 43 b9 44 62 34 3e
       -0.019598909 0.14532618 -0.00018657275 0.1761561

bias f4 [2]
000000 82 16 c8 bd b3 53 fc 3d
       -0.09769918 0.12320652
